test/trained_model.npz (npz, 502710 bytes, 8 tensors)

weight_0 f8 [64, 784]
00000000: 0010 132a d3ad cabf d4ad 8be8 cc44 d13f
00000010: 20d9 1696 8cae d7bf 24c2 0c7b e096 c43f
00000020: c027 ce5f 44bf b9bf 4087 2385 4061 813f
00000030: a22a 212f c089 d4bf 78ea 4bec 1b5f c23f
00000040: 80d5 1893 f7c5 8e3f f00d a66a 68bf cf3f
00000050: 9eb5 2ed1 912f d83f 90f8 ee84 998a a13f
00000060: 5082 bf54 7f7a d03f da40 bd56 2bb6 db3f
00000070: f43a aafd 0b02 cbbf c047 69db f395 c3bf
00000080: b2ad 8cf7 72ac d2bf 8025 67de 38cb 933f
00000090: d648 d9b5 179f d73f 40b7 eb7f f481 d23f
000000a0: e011 9cc6 7ed7 cb3f 2c0e 86d1 4460 c13f
000000b0: 9291 bd9d 12e3 d53f 3d99 8866 d7d8 d2bf
000000c0: 57dc b16e 6cd4 b33f 10c5 ff42 0269 df3f
000000d0: a8ff a952 7888 c83f c8e9 72d5 5dac c03f
000000e0: 5880 e7eb 0ac6 c8bf 060d 0dfd e140 cabf
000000f0: c4f6 d641 0d7b b3bf 4a3a a5d9 4459 d7bf
00000100: 86b7 72c8 1336 cfbf 33a9 0f25 f1a3 ddbf
00000110: dcd9 3e21 0f28 d03f 1754 c6d3 65ea 723f
00000120: 2f44 d8c0 74ae c0bf b0f1 a610 85f6 c33f
00000130: 5a2c 9af7 7997 883f 2dc9 101a 2154 a73f
00000140: e06b 8535 6f29 d63f dd2e eb3c aa6b d0bf
00000150: dc87 e89b 34b5 b0bf 2cd3 b5cc 2251 c9bf
00000160: b5d8 836b 1e38 b4bf 2705 bdd3 50dc d33f
00000170: 0ca5 37d6 0690 1fbf f577 3bc1 cc8a dfbf
00000180: d2b8 7ba1 74c9 debf e4b7 a38a 2cb2 debf
00000190: 3196 bd14 5a12 cbbf 2125 db8c bd73 c23f
000001a0: 193c 7d88 800c 8b3f ad13 fdea a828 98bf
000001b0: 98ec 2a56 ff38 b23f a2c7 aa51 430b dd3f
000001c0: 10d7 b621 e37a c0bf fe2b afe0 4a4a ddbf
000001d0: 2c40 31ee 3085 dcbf 8f4e 9c75 0358 bf3f
000001e0: f535 fff8 3bbb 9ebf 986f a87d ef96 dc3f
000001f0: 1cc9 cd0c cd85 ccbf 0c3d 3dc1 0a19 c73f
00000200: 782f 3e32 de1f b63f 7791 b38f 6c08 d5bf
00000210: e721 e271 b9da c7bf ba2a eab7 50a5 de3f
00000220: 2f2a cb59 ee27 b53f 1ada 09c5 550d c3bf
00000230: 36fa d5ca dc73 bdbf ccae a866 85c6 ac3f
00000240: 7d6b 7b27 61ca c23f af1d 95d1 21b7 b73f
00000250: 8b2e 92c2 7c9c dbbf 53e3 6f48 d6b0 e2bf
00000260: 9bcc d40c c8a1 c53f eedc db39 3ee4 dbbf
00000270: 743b 3a5a ff77 d0bf 4008 3a1f 3451 d13f
00000280: 8833 32ea db4c d4bf 99ab 1dc5 c9d5 d4bf
00000290: 0ba5 7034 4b64 bcbf 624a d592 923f cf3f
000002a0: 00b5 0ddf 122c cf3f 6991 44bf e2ed dcbf
000002b0: 920a a42a 1ae7 cb3f e43e 1b1e e7e2 c1bf
000002c0: a14e ac4c 308c d63f 846e d76f fd15 dc3f
000002d0: ace1 cb5c 1c6d c83f 06a9 f160 2a3b d9bf
000002e0: ac10 a695 51fb d1bf 0f4f 0c04 c84a cabf
000002f0: 39b3 5894 4a8d ca3f 0b7d 7172 8904 df3f
00000300: 82dd bca2 b4f0 bdbf 8bad 6aa9 59b0 c23f
00000310: 95a1 7937 fcaa d7bf 97b0 e20e e598 dabf
00000320: 14e6 aa11 6b92 a53f 1a97 e82a 192a cb3f
00000330: 4291 7038 e44b cabf 66f0 765c 6436 cc3f
00000340: a6e9 374d b41b d0bf f47d 3378 3537 d5bf
00000350: 6427 d01b ba12 cd3f 568c 1547 7d27 d03f
00000360: 794f d513 aec5 dd3f 44f0 3b74 4aed c5bf
00000370: d979 f229 e96c de3f 2076 5335 f95e 9d3f
00000380: cdbc 94c8 d144 d93f b292 1b4d 8099 6c3f
00000390: 94f7 00c2 83d5 d1bf daf7 2445 703b ddbf
000003a0: 27ec 2edb 76c5 ba3f 326c 36ed 88bb d4bf
000003b0: 931d 8787 7f21 ab3f 49df d6b1 1d40 d4bf
000003c0: e902 7f9f 4b50 d83f a1ff 613d de00 99bf
000003d0: 1b64 2668 6220 c2bf 6b21 17a6 9d38 93bf
000003e0: 9805 27d9 7b66 c2bf 9220 776b a89c d7bf
000003f0: 5492 4513 30f4 cbbf 1bf5 8f7a d1fc b23f
00000400: 08aa c5a3 1d27 e1bf bdfd a1c6 2072 c5bf
00000410: 5d17 9880 67e3 b7bf 8fb9 2c62 6cd7 c03f
00000420: 5f39 e3dd 6c68 dbbf 409c 282d d104 debf
00000430: d134 ac58 ceaa d03f 51e6 849e b35b da3f
00000440: 6423 18ef 5699 d93f 2eba 9c90 d534 c23f
00000450: 4ec4 eb3d 6eca d8bf 5a55 1a29 138c d93f
00000460: bc4d afb7 a4e2 c13f 627b 2048 5c1e b0bf
00000470: 9594 6530 f9fb bc3f 7477 53cf 03a1 d63f
00000480: 0ed3 36f1 bc0f d9bf ed1b 7a18 dde3 c63f
00000490: a819 7d91 00de c1bf 2c7d 9373 9624 d2bf
000004a0: 8a74 8880 9d2f c53f 8880 3827 73cf c23f
000004b0: 1a20 58f0 dca1 c03f 2921 a114 97c4 d5bf
000004c0: 2e11 e8a4 cdf7 d0bf 41ca 2dee 0e06 d2bf
000004d0: df28 1bf2 1ad5 c8bf 169a c3a7 fee2 b23f
000004e0: 76d7 7641 a1d1 c6bf 1ed3 7e1f a930 ccbf
000004f0: fe38 dc99 1214 c03f ea51 6aeb fa67 c2bf
00000500: 0cd5 156e 5594 d33f dea4 e0fd 20bc d03f
00000510: 505d 85de 29d5 d33f 43ce bac1 2b9a a33f
00000520: bbbe d467 fb57 c4bf ae3d 6de0 c07e c63f
00000530: 5014 2e89 312a d13f 046f 4629 d334 c3bf
00000540: 8966 3863 2b18 ca3f 2218 621e 934d d8bf
00000550: e5a4 f77a bc2f d53f df83 d3e1 e25b dc3f
00000560: 9351 56c0 37b1 d5bf 2128 c9cf ddb3 d4bf
00000570: 0c2d eaab 5b5b c93f 07af ad22 ab75 c63f
00000580: 942c ce6e 66f6 ccbf 4fa7 02ef ff55 bc3f
00000590: 3fe9 db22 888f c73f d468 4bfa f288 d53f
000005a0: c3a9 f00c 59b3 70bf fbdb eda5 bc9f db3f
000005b0: 5dca afe6 2247 d9bf a804 4fc9 d66a ca3f
000005c0: 1d8a aa59 223c c93f 41a9 3fbc af8d e03f
000005d0: 8d05 8760 05a4 ccbf 2a97 2dc6 d8cb dd3f
000005e0: eba9 5468 1295 b33f 0e5b 6510 1ba3 66bf
000005f0: dfaa 471b 843c cc3f 4e8c aa12 ff6f cc3f
00000600: b490 03be 1548 ccbf 539b a476 14d7 d9bf
00000610: 72ac b623 d126 d33f e24a f052 b896 923f
00000620: 5597 dff3 0381 cb3f 7837 927b 84e5 bf3f
00000630: 9100 e0d5 8598 d43f 727a 5a96 5b2b c13f
00000640: 0568 fc2d cdaf c2bf 7ce9 134a e346 d2bf
00000650: 7275 7908 d7e1 dabf 1b25 c540 ed4d dcbf
00000660: 117c 3cda 6107 db3f 6e83 a562 6ec5 b4bf
00000670: 99da 069f 0ab9 bbbf 2417 d4d7 d703 d7bf
00000680: 5f6f e156 1e5c a0bf 557d 3f85 6f1e d33f
00000690: 18a0 c39c afcc d7bf 9d00 c272 5080 e13f
000006a0: ffa7 9c67 f07a b03f 8dfa a84b dc92 df3f
000006b0: 37fe 13c7 7bbf bfbf 1d4e 2592 d3e8 ae3f
000006c0: 2744 20b2 ce8a da3f 1e57 dcfa 3568 c0bf
000006d0: 7fbf 26cd f3cc b33f fd72 8132 5c36 d3bf
000006e0: 8e0a e9eb bce7 ddbf 63c1 e5fc 0e63 b53f
000006f0: bd7d 2e49 470b a83f 1510 7f2a 6176 9e3f
00000700: 8dd1 4aaf acfc a2bf a679 e4ba 37c3 de3f
00000710: 03eb 392c beee c33f f30f 0b1f 1fde d23f
00000720: 30b7 72ec e1aa d93f 7125 51a2 bea5 dabf
00000730: 9faa d710 b453 c8bf 8fe5 03f2 731e a5bf
00000740: 3c33 8861 3532 df3f 677b 943a eaad d33f
00000750: 7b03 0a14 6190 d53f a19e 4966 fa16 c7bf
00000760: b3f3 6930 b852 d33f c398 1dbf 6c43 bfbf
00000770: 687c 1c31 9a67 d0bf 89b1 3bee 8144 d0bf
00000780: c01d 7ccd 6af5 753f 829c 757d 55b7 c5bf
00000790: fe0f e539 ec60 d0bf fb3c 645c bfcd c4bf
000007a0: 7ba7 f8a1 8b92 d6bf d435 706a 6955 e0bf
000007b0: 00cf 9162 967c d3bf cedc 4b47 43b8 d53f
000007c0: 2110 fbb3 5b6e d9bf 0501 04aa 8eb2 dbbf
000007d0: fd7c 5df2 22e2 d63f 7847 ecb0 03b0 b53f
000007e0: 13ee 1300 d980 cf3f d316 2b27 8b59 bbbf
000007f0: 0d0b fbbe 9993 ca3f 101a 082c 479d d2bf
-0.20842971376816877 0.26982424459012333 -0.3700286355700815 0.16085439689915504 -0.1005747541331905 0.008486274779389569 -0.32090763666625766 0.14352749860684688
0.015026029755157877 0.248028804850136 0.3779034178540658 0.034260556676131704 0.25747664714984797 0.4329937312186424 -0.21099996458038783 -0.15301368916931146
-0.2917754571414789 0.01932991845550225 0.3690852428309318 0.2891818284250469 0.21751389215218264 0.13575039129874378 0.3419844189104647 -0.2944849492363522
0.07746007635601991 0.49078423064118315 0.1916647342331974 0.13026020929630833 -0.19354378241314651 -0.20510506492619401 -0.07609637124456997 -0.36482354406772244
-0.24383780753617773 -0.4631312238622229 0.25244501349098214 0.004618070376086989 -0.13032397667169124 0.15596068680851038 0.012007668369980507 0.04556373065169548
0.3462789557140109 -0.25657134961214273 -0.06526497656207603 -0.19778857226960989 -0.07898130535963584 0.3103220050580426 -0.00012040178039964352 -0.49284666891423906
-0.48104587335445814 -0.47962487734809955 -0.2114975549003915 0.14415711763130282 0.013207439580268642 -0.023592604963841236 0.0711822114343924 0.4538124368219717
-0.1287502207393847 -0.4576594537908817 -0.44562934170699253 0.1224367296347799 -0.03001111705071043 0.4467123725059934 -0.22283328175724015 0.18045172153004108
0.08642376639016713 -0.3286391642889365 -0.18636243878087486 0.4788400455515035 0.08264054958559862 -0.14884445305843103 -0.1150491709904394 0.056202095777135946
0.14680113246762608 0.09263812414893978 -0.4314262294871944 -0.5840865530763985 0.16899967791105017 -0.435805851462148 -0.25732406436230026 0.2705812745044831
-0.31719110365593695 -0.32554859399413655 -0.11090536146425138 0.24412758035267063 0.24353252307211193 -0.45201939276218767 0.21799017984456676 -0.13973702402153443
0.3523064373741623 0.43884216234230444 0.1908297970874292 -0.3942361780851943 -0.28096427549486225 -0.20540714452419492 0.2074368690822668 0.484651910553979
-0.1169541261013958 0.14600678226757355 -0.36981110970966685 -0.415581955467823 0.042132707506834205 0.21222223849434202 -0.2054410243591836 0.2204099132048924
-0.2516909364782357 -0.33149468172447816 0.22713400228559089 0.25241023961843234 0.46519042908516145 -0.17130404162878865 0.47539738747027865 0.028682607536088978
0.39482540691365103 0.0034911638148165886 -0.2786569017952101 -0.45675284149535644 0.1045755658259827 -0.3239462200669464 0.05298994569198636 -0.3164133297645902
0.37990084243578665 -0.02441737413073464 -0.14161329350898275 -0.01877065969691342 -0.14375255683084442 -0.3689366387811869 -0.2183895200825129 0.07417020075077511
-0.5360248755144434 -0.16754541109911072 -0.09331366433624795 0.13157419961630665 -0.42824861210546844 -0.4690440121652877 0.2604251733726644 0.41184702377686216
0.3999841055779625 0.14223737298148492 -0.3873553852745929 0.39917449010802886 0.1397291085146274 -0.06296326409254285 0.1132198088794943 0.35357756849941
-0.3915855746848117 0.17882884688535175 -0.13958747009219263 -0.283483136050523 0.16551560188318987 0.14695586600374022 0.1299396680408343 -0.34012391104308165
-0.2651247129836233 -0.2816197706189634 -0.19400345632158797 0.07377616496851433 -0.17827239700789804 -0.22023500478612673 0.1256125689764715 -0.14379822249306012
0.305928571229132 0.2614824752113928 0.30988547068178196 0.038285605810781685 -0.1589349991786458 0.1757432075341802 0.2682002868317044 -0.15004958644282607
0.2038625940775101 -0.37973478285892004 0.33103858955889925 0.44310829213469377 -0.33894151480606033 -0.3234781769903084 0.19810052770876785 0.17546595757755076
-0.22626953516405435 0.11068725190366745 0.18406774236775367 0.33648371165112434 -0.00407728944177638 0.431624567070173 -0.39496681716915366 0.20638546781086586
0.19714764955740885 0.5172957112056694 -0.22375552380803435 0.46556681969956293 0.07649340674530662 -0.002763321742502162 0.22059680301693782 0.22216785823283874
-0.2209498575022103 -0.40375243746023165 0.2992441986813851 0.018153076231167804 0.21487473876839638 0.12459590927957531 0.3218092526076442 0.1341356739184963
-0.14599003549011527 -0.2855766509452662 -0.42003417804320187 -0.44225627255635097 0.42232557594428594 -0.08113756092417443 -0.10829225904931618 -0.35960956646919073
-0.0319528084807803 0.29873264324665644 -0.37186804112434535 0.5469133607257565 0.0643759015044054 0.4933386553638364 -0.12401555643372651 0.0603700748348752
0.41472213168259703 -0.1281802630334647 0.0773460746629535 -0.3001928799838394 -0.4672691634952252 0.08354276346449789 0.046961047824193504 0.029748457163592052
-0.037084003828030544 0.48066514254778736 0.15572335395321354 0.2948072245746964 0.4010548409522583 -0.41636625148074474 -0.1900544244993698 -0.04124796227729199
0.4874394848309753 0.3074899265356436 0.3369372077650536 -0.18038873667250235 0.3019237969199892 -0.12212257066639425 -0.2563233832933691 -0.25418136849364054
0.00536100120348898 -0.16965740800808154 -0.25591569570337913 -0.16252891551309986 -0.3526944238425284 -0.5104262427209343 -0.3044792139619261 0.33937150919468884
-0.397360730898301 -0.4327732715901365 0.35755227726436073 0.08471701688202227 0.24611961845208494 -0.10683507639177074 0.20762941193796572 -0.2908494882580337

weight_1 f8 [64, 64]
00000000: 1e20 30dd d292 d03f 354d d0cb 26ea d2bf
00000010: afc0 cea1 042b c1bf b99c 984f 2cb8 ba3f
00000020: 85c7 8bfd db10 a93f 0bd8 6c7b a34c b73f
00000030: 6529 05f4 c49b d6bf 7f0c 8873 ff6f c43f
00000040: 5149 ba2c 7e79 c83f 7c60 3e1d 892d b5bf
00000050: 89ba 4d8b dcc6 a8bf 0059 6e09 58d7 a8bf
00000060: 2809 48ac 8f52 d1bf f92a 9cf5 d475 cd3f
00000070: 4106 9525 5bde bb3f a242 14e9 b106 a13f
00000080: e47a 6507 055a c7bf bb5f 2e42 002d c8bf
00000090: 0d76 18a4 0fbe c03f 273f 5e69 445c f3bf
000000a0: a84b 8ec2 dda9 c6bf 9197 fcb5 5f8c c93f
000000b0: a5cd 1b94 9490 d0bf 7e67 8cc9 aabf c4bf
000000c0: 911a 3556 bdfb d43f fadd 293b 3345 c0bf
000000d0: bbdc c86d 1b9b cd3f 1653 4d8d 81d6 df3f
000000e0: fd51 f3f0 85dd d13f b46d 57f1 b228 a93f
000000f0: 8499 ea0d 411a bb3f 817e 330a 65b7 a13f
00000100: 87a3 87bc 7903 aebf 9008 926e f709 d1bf
00000110: 94ad b483 d661 d1bf bba4 d0cb e98a b23f
00000120: 99d4 bd4d 4ced d4bf e8aa 8bd5 9525 b3bf
00000130: 4361 86af fdd6 cfbf 6b2a 9b06 3532 e1bf
00000140: 3180 f46e b0e6 be3f ffc5 41e0 9351 c7bf
00000150: 0e28 d2bb 02be bebf 5c30 0b7a 676b c5bf
00000160: 202d 2ffb 7759 b33f c86a 91cf f65a c33f
00000170: 44bc 1641 6d02 c33f 22dd b8e0 ecc0 be3f
00000180: 0559 ec9a 39ae c33f 6200 c5e1 5f2a c4bf
00000190: 1053 3643 d1cc b83f eabd 3668 980a c4bf
000001a0: 9bc0 a62a 4bac cc3f 687d 7df6 19fd e83f
000001b0: 25d7 f080 0a4d b7bf 913e 9a06 e14c b63f
000001c0: d382 f4cd 85c2 76bf 4f2c c0d4 b96a b83f
000001d0: 0f0b fe03 113f 9a3f 3d1e 4528 4f35 ac3f
000001e0: ac21 fac2 f3ff c5bf b6ad eff4 6c0b 9a3f
000001f0: 8f73 065b 8f4b e53f 06a8 303b 5e37 c0bf
00000200: 0cbe 9c51 c4a2 d13f 60fd e41f 679f db3f
00000210: 5581 40ad 7866 c53f c864 9a35 2af3 9ebf
00000220: faeb 1ba2 0ffb bbbf 75a8 2ea7 58a2 c2bf
00000230: 36e0 953b b447 d83f 04a0 1507 dc13 b33f
00000240: 2b5c 0829 a590 b03f 0319 68e5 20c5 cd3f
00000250: 08f9 5d9b e10e e2bf a330 8fa0 3437 c83f
00000260: 3b6d 1c03 5aad 00bf 56d7 38ba 0d5d d2bf
00000270: 8c95 5f6d 4884 d9bf 35e5 fe67 1b99 7a3f
00000280: 339d 01a1 2e35 dbbf 3039 cc17 05b6 c8bf
00000290: ed22 3076 ac1f debf cda4 ae36 fabe c93f
000002a0: ce74 6e2f da3d ccbf 4a18 6f84 f5d8 c3bf
000002b0: 0a66 4b8e da0f cebf 9ecf 6a72 1e1d c93f
000002c0: 758f 814c 1f29 b4bf 751a 60e1 1fe1 cc3f
000002d0: 6348 123a afac cfbf 650f 89a0 e522 dc3f
000002e0: 2b75 a652 7468 c53f dd45 0353 f30d 963f
000002f0: 9c92 41a0 5b26 b73f 4d6c bebc b885 e23f
00000300: cb49 7182 35b9 d63f 1166 d52e 5997 d8bf
00000310: 2f18 0ddb 6dc1 adbf 9dff cf7c 3b58 d4bf
00000320: d2e0 de17 4840 9e3f 1846 6934 54f8 d5bf
00000330: 820b bced 01ee c73f 7ce2 f822 47c3 ddbf
00000340: 461b c4a0 4d7a d1bf a2eb 6539 6dc1 c13f
00000350: 7954 1790 0e3a c6bf 2b5f 8dfe aba0 b1bf
00000360: f9de f80d bbb7 e13f f9f8 a413 2320 d0bf
00000370: 331d e44f f863 c43f 7d5b 1f5f 9d1c eb3f
00000380: a9c0 b1d7 bf4b ccbf 04fb 3a42 19e4 d13f
00000390: 908d 1977 9ab1 d53f 933a c882 a5c6 babf
000003a0: a5f7 4be9 bfb4 ca3f 608e d16c 8ea6 e2bf
000003b0: 0eb8 90b4 e0e4 b6bf 7b76 a3d5 1e5f d33f
000003c0: 54de c42e 1d88 c2bf 6f65 9126 23a0 e7bf
000003d0: 4632 88ea 056f cf3f 6fb2 c9e4 1a58 b3bf
000003e0: 3f91 a675 bd47 c9bf 2f31 3e1c d3a9 d3bf
000003f0: 1e4f ac6a 7c6e ecbf 6f30 0d74 7555 cbbf
00000400: 6185 c082 9afa c8bf 387d 8445 2b92 903f
00000410: aff1 27c5 8853 d0bf 70a7 694d 16c0 b83f
00000420: ac48 9e67 9ad1 cbbf 0129 199c 3b69 9cbf
00000430: ec3d 3e76 f13c 50bf 1cf7 21b7 d0cf bd3f
00000440: 0e41 9190 ce16 cfbf de82 acbb 9786 cabf
00000450: c6cf ba34 df08 cf3f e002 9cc7 ce12 d73f
00000460: cbe3 0958 8233 a13f 68f3 6e69 c40b ce3f
00000470: b667 f9fe a14a a4bf a509 fb61 e9b5 c83f
00000480: d7c5 8021 1ed2 c03f 8aef 3e0f 7e75 e13f
00000490: 80af 55b5 a9d3 dfbf c2ae bbcc 491b a63f
000004a0: e5c4 8c92 a15c a83f 1ad2 262c 16ef c33f
000004b0: c000 4f31 6a5c bfbf 8989 6320 d00e d23f
000004c0: acab f74d 79d4 bb3f b0ea 2fd3 3add b13f
000004d0: 11b9 6636 600e d13f cb9d e064 94a1 c33f
000004e0: 3713 340d e37a d73f 250f 84fd a281 dc3f
000004f0: 2f05 808c fe4f be3f f190 9ac6 2bfa e0bf
00000500: f2ca 8a6c 38d8 ab3f f4ce a362 5f19 d0bf
00000510: 75c4 8de6 0c59 a13f 96b1 19d9 50e6 c83f
00000520: 8225 dd39 c923 b53f 2b4e f143 9132 c8bf
00000530: 8877 6f93 3164 b9bf 2569 e30b 7c5b bfbf
00000540: b592 66fb f9f9 b33f 83e6 1cd9 8628 dcbf
00000550: eb48 e289 b597 c53f 1b99 369a 784c c13f
00000560: b9a1 d8ad 97fe b23f 2b58 7454 23d7 d2bf
00000570: c7d0 1139 33ed c43f 5a26 244e 154c eabf
00000580: 3eea 1f6e 4891 c13f d808 fd0a af6a cbbf
00000590: 2bd6 d32f 76d1 c73f 3114 19ed 3d48 dc3f
000005a0: f65c 404d efc4 d03f 39aa 2c27 9c4e d33f
000005b0: a475 6654 359f dcbf b26e 3a64 c5cc ccbf
000005c0: b217 09ce b40a c0bf 50e8 f8cf e9b7 d33f
000005d0: 7df5 fbd6 05c7 c4bf 6378 3883 e2fd db3f
000005e0: 602c 6c90 ef6d bebf b856 3b8a 41f5 ebbf
000005f0: bdaa 69c6 fc2d a3bf cc90 3b04 40cd d03f
00000600: b1ed a726 3fe1 d2bf 7c07 3a59 3a75 c73f
00000610: bdf2 08b1 5eb1 da3f 5e16 b762 0c6c d5bf
00000620: ec59 f1e7 a66f ce3f 3e9d 8c83 c6df 9cbf
00000630: 940f e555 8abb bb3f 0c61 a874 3625 e73f
00000640: 866f 6db6 9424 d43f c191 4d07 5512 bcbf
00000650: aabf ccb7 c612 d43f c13e 2efa d3a2 a2bf
00000660: b5b8 a686 5ece e4bf 01d9 5162 6aba 86bf
00000670: 0479 08a0 8ec5 d13f c95f 6d00 bfe5 cabf
00000680: 808b 978c 91dd e0bf 8fb2 1d03 e08e b2bf
00000690: 244a 3e0c 25b0 b83f 8eb5 0987 230b afbf
000006a0: a4f0 c4e3 ab63 d03f 65ff e45c 999c d33f
000006b0: 874c b0ac 3759 debf b1d9 950a 98fa e4bf
000006c0: 257c 3405 5d6f c93f ee1e d4e7 2330 c23f
000006d0: ef08 9d57 b8e3 d63f 7d4a 3509 61a3 cb3f
000006e0: a7c6 1181 51ca d0bf ac7a b571 c105 b33f
000006f0: 3236 ba09 04be c9bf 3586 297b a235 dbbf
00000700: 9360 d54b 065a aabf 60d3 82b4 dbd7 bfbf
00000710: 82b5 3876 5a50 aa3f 68bb 8d3d 37cc 923f
00000720: deae daad 55c1 dd3f 714f 4bdf 0643 d9bf
00000730: e06d 1486 2a9d d7bf 818a 2cd5 0057 e13f
00000740: c055 385b e7d8 e7bf 3e29 97f2 c665 b0bf
00000750: 39d8 d5ab 3ac9 d33f d29f eaa5 ad25 c3bf
00000760: cd7c 4c7c dc46 d93f 0c0f 5624 18b1 ccbf
00000770: a038 d362 6ae9 a73f 48ac 51d8 bcb8 d6bf
00000780: f642 8013 2906 d5bf 7047 6aa1 1d0a dabf
00000790: e6b1 48cc 46b9 bc3f 3225 2ea0 4cb6 b7bf
000007a0: 0334 aea2 d51a d53f a99d e769 63d4 e0bf
000007b0: 1de7 11a7 80bc cc3f edd7 d9e1 f84f e2bf
000007c0: acf5 710c eab4 c1bf 2989 7806 7fbb d9bf
000007d0: dd3f a3e8 9a4e c23f 0240 0151 3c53 b73f
000007e0: da6a 0767 6f2e d73f 4224 5a32 b1f2 ca3f
000007f0: c46f b706 7380 acbf b3b2 8a65 8508 a7bf
0.2589614067114797 -0.2955414762847853 -0.13412530804408138 0.10437275832429095 0.04895675153774363 0.09101316226301052 -0.35325740652174026 0.15966790333922984
0.191207668151558 -0.08272606815296685 -0.048392192845189426 -0.04851794352650707 -0.27066413711885895 0.23015844338109284 0.1088616339448203 0.03325420351223342
-0.18243468152191789 -0.18887332183362368 0.13080020439603893 -1.2100261798804668 -0.17705890655323953 0.1995963705641626 -0.2588244863865959 -0.16209921685441125
0.327864965617132 -0.12711182011456384 0.23129599438263945 0.4974674110319922 0.2791457036048824 0.04913863369048546 0.10586935605770093 0.034602315421349956
-0.05862026621236454 -0.2662333087720379 -0.2715965543927379 0.07243214822723847 -0.32698352424569915 -0.07479225600733808 -0.2487485034041673 -0.5373788002992347
0.1207075377355984 -0.18217705202145848 -0.1200868328616311 -0.16734021624722828 0.0755839336626889 0.15121350417287815 0.14851155927815018 0.12013130651836382
0.15375442566500666 -0.1575431682958906 0.09687526598856899 -0.15657334412161045 0.22400798399531116 0.7808961691152208 -0.09101930282562572 0.08711058055109279
-0.005556605028033973 0.0953785080347853 0.02563120447986039 0.05509421698166903 -0.17187354107251218 0.025434210252496668 0.6654736306987717 -0.1266897000326141
0.2755595013613579 0.4316041766614571 0.16718967876023308 -0.030224475404428103 -0.10929963786831812 -0.14557941592403592 0.37937646693126525 0.07452178166352047
0.06470710994504773 0.23257838441367804 -0.5643165621293358 0.18918474044619868 -3.1809148266693424e-05 -0.2869295424055641 -0.3986989086245891 0.006493670516584606
-0.4251209804846951 -0.19305480634688754 -0.4706832079105386 0.20114066762952235 -0.22063758197774636 -0.15505856482031027 -0.2348588175580491 0.19620113932398636
-0.07875247590851393 0.2256202555147017 -0.2474574121047822 0.43962994267734806 0.16725019488959822 0.021537591878603258 0.09042904531959056 0.5788234411624075
0.35505426157501735 -0.3842375714644684 -0.05811637209858166 -0.31788527668686034 0.029542089898058795 -0.3432817947224023 0.18695091350681642 -0.46504381575827103
-0.2730897970181342 0.1387154131187716 -0.17364675555896605 -0.06885790791181694 0.5536780617612457 -0.2519614879455641 0.15930084134036235 0.847243009363282
-0.22106168777418603 0.2795470377713374 0.3389650500377792 -0.10459360545085365 0.20864104167406797 -0.5828315854418626 -0.08942989738781668 0.3026806913675057
-0.14477886947291785 -0.7382980111389496 0.24557565643080376 -0.07556312642709327 -0.197501833387955 -0.30724027402972615 -0.8884870608767164 -0.21354549566820277
-0.19514781364800185 0.01618259059716573 -0.2550985265113707 0.09668101682623642 -0.2173340803097451 -0.027745181467516925 -0.0009910924936525857 0.1164522597409498
-0.24288351115183854 -0.20723244346392894 0.2424582488507651 0.3605229329405528 0.03359610867204984 0.23473410747638046 -0.03963190305212498 0.19305150303087007
0.13141228328599538 0.5455923364420283 -0.4972938795897264 0.04317694305595189 0.04758171953143079 0.15573384433595622 -0.12250388816665048 0.2821541134163899
0.10871084359648248 0.06978194862305531 0.26650243103621657 0.15336852002768206 0.3668754223765975 0.44541239507110425 0.1184081166284343 -0.5305384520511592
0.054384005784774106 -0.2515486205368085 0.03388252558114228 0.19452868080714997 0.08257730162326563 -0.18904319589147298 -0.09918508386132718 -0.12248969354860557
0.0780330885668928 -0.4399735565417375 0.16869229538548977 0.13514621286339765 0.07419727319996285 -0.2943809818983733 0.16348877226449174 -0.8217875028796684
0.13724618317776732 -0.21419323002380142 0.18607976279570101 0.4419092955980118 0.2620199446113952 0.30167297196991033 -0.44721730463228426 -0.22499911683995816
-0.1253267293961336 0.3081001788119737 -0.16232369420314888 0.43737089933882184 -0.11886498714390958 -0.87368847845456 -0.037460231037433435 0.26252746976230124
-0.2949979665279115 0.18326501232882808 0.4170757988793346 -0.3347197498336295 0.23778234792071318 -0.02819738557732631 0.10833038899460085 0.7232925680609994
0.31473272147354014 -0.10965472629829433 0.31364601086806465 -0.03639852932894661 -0.6501915578753797 -0.011097746968726787 0.2776829302619179 -0.21013629456387964
-0.5270469423233948 -0.07249260021280633 0.09643775509747649 -0.060631857141611 0.25608346217246436 0.30643304893236795 -0.4741954027569552 -0.6555900770898032
0.1987110400595792 0.14209412402873717 0.3576489310836583 0.21592343282334872 -0.262348533672688 0.07430657411667124 -0.2011113212105769 -0.42514860179480546
-0.0514680831499287 -0.12438748509414443 0.05139429753431114 0.018357146388946616 0.46492521264984343 -0.3947159939391361 -0.36896765798311826 0.5418705142549954
-0.7452275067941443 -0.06405299589747401 0.30915705471796034 -0.1495873508586088 0.3949500287871615 -0.22415448927142057 0.04670269447670816 -0.35502549290567176
-0.32850100426098494 -0.4068674160308694 0.11220209586526372 -0.09262541685724981 0.32976284872785316 -0.52592631039163 0.22450264127456246 -0.5722622309829127
-0.13833356483148174 -0.40206885940473797 0.14302383765470852 0.09111382463129306 0.36220917760298976 0.21053137739753153 -0.05566749054898382 -0.044986885686147636

weight_2 f8 [64, 64]
00000000: f029 53b2 fbd2 91bf 09b2 903d 851d d2bf
00000010: 1f5a de1b 7799 b33f de97 5b46 7baf 913f
00000020: ed9e b76f 729d a93f 8fc9 a68b 42ac dabf
00000030: aad6 6d01 9324 d4bf 1f3c d3e5 86f6 9d3f
00000040: a6cc 4334 d9a6 e23f e7e6 5885 5abd d3bf
00000050: 2ffc d172 8fec d1bf c216 fcec 5d78 bcbf
00000060: b25f 7a3d 5abe d63f f891 7084 15f7 bc3f
00000070: cbea 2b79 3f16 c1bf ff3a db82 d64c debf
00000080: 2b8e 0ff5 d3c3 d3bf 07fe 90d6 46cb b5bf
00000090: 249a cd85 0e0b d93f ecd0 2c74 4abd 89bf
000000a0: a02e 4954 2b51 c7bf bc84 a079 dc0f c4bf
000000b0: c5c5 90a7 3688 c23f 4a53 00c9 9107 e13f
000000c0: b33e 4dd9 7e26 bf3f 1531 79b7 b91e cdbf
000000d0: 931e f24a 258b b13f c4c1 de07 b9ea d7bf
000000e0: aea1 323d 9351 b3bf 4b65 a03b 67f9 a8bf
000000f0: d1a5 b670 50a9 b1bf 2c7c 2ac4 e1da e0bf
00000100: 60d5 3801 3f86 c6bf 5b2d 83af e69a d3bf
00000110: 9fef 5c50 c7a2 8dbf 543b 3541 0328 a0bf
00000120: 8aea 707e e3d1 cfbf f51e c1cf 6ba2 d3bf
00000130: 8e41 4a37 aa3d d9bf 5a4f be42 fb1d c9bf
00000140: 2309 9bd0 28c6 babf 0337 a80f 584c 96bf
00000150: 0543 8389 47f8 ccbf 894a 776c d4e1 c33f
00000160: 7813 ae31 cf8a cabf 2032 6d9e 6032 b4bf
00000170: fb18 4f38 9cfe c8bf 083d e9d1 0d6e 9e3f
00000180: 4561 5d62 418f c03f fd4d a868 778f cfbf
00000190: 3520 1169 2f99 b2bf 93cb 58a0 b091 aa3f
000001a0: c0df 45f5 b95f d1bf 983d 8650 3eff d33f
000001b0: 99ba fafd 1923 c83f 3259 3929 1155 863f
000001c0: 38a6 45b2 6dc7 c03f b24c 6560 60fc bd3f
000001d0: 9732 3473 a50a c2bf cfcc 1f32 d2ea d7bf
000001e0: c24f f001 9005 c13f 66ed 3597 fd8e d53f
000001f0: 5f8a 3fad 3234 d63f cac6 f698 864f c5bf
00000200: 805e 579c 84bb e03f 26f3 c300 d694 d1bf
00000210: d7b8 9be4 c1d5 8c3f 953f 8155 3112 c2bf
00000220: cab0 ee3a d04a b4bf 143e dab3 adab cb3f
00000230: 8bba 9c7e bf6e c43f dd00 da8d 471d ddbf
00000240: 638e ca84 914c 9bbf 0578 a6e5 fdb7 d7bf
00000250: 3038 68e0 d2a3 a5bf d551 f08e c11d bfbf
00000260: 8f1f 2253 9f29 bb3f dc96 8e64 bbd5 9c3f
00000270: 7385 3ed1 5ae6 e53f b242 a9d0 5cfc dc3f
00000280: 1240 4609 38df 993f d218 44b1 c579 dc3f
00000290: b882 75bf 8435 d9bf 1886 0df2 66d6 a73f
000002a0: b21b 74ee 4122 c13f bb6d 6669 0273 cc3f
000002b0: 92ab 4f9e 3c2e a1bf ce19 1ce5 b596 d13f
000002c0: 6d34 84d9 bb3e cfbf da75 a1dd ad86 ae3f
000002d0: b198 fd74 f965 c1bf 0eec 938e 5231 b5bf
000002e0: 5138 21f5 995d d7bf 10f9 1c09 984b babf
000002f0: 681f cc6a 485e 44bf 0cd4 7786 c57e d0bf
00000300: 505b c002 9b7c c63f de1d 3a88 181b ddbf
00000310: 2f79 af2d f4a1 c7bf 1df7 e1d0 4f77 893f
00000320: 1cef 6ba0 4dea cabf 60dd 30a6 b683 df3f
00000330: 65aa bbe5 eea1 c1bf 0908 4c31 fc24 c0bf
00000340: 6801 6273 3ae6 9e3f a495 b1cb 9539 b5bf
00000350: eba4 39f2 bbe8 d7bf b440 c1a3 22c3 d93f
00000360: c51d 86df fdcf b03f 6b7c 60db 3b22 babf
00000370: dd28 dd10 da2d cebf 3e64 fa23 88e4 c8bf
00000380: 57cb 0ec4 be30 c6bf 9441 b2ae 3529 d23f
00000390: 1b3c 68c9 65e5 dcbf 9bf0 6926 ca32 c63f
000003a0: e30f 0080 ba6e b1bf c15f 9863 fcd4 80bf
000003b0: 9c01 f24b 275e c03f 66fd 7138 266a c8bf
000003c0: 4091 14e4 80a6 99bf fb77 7728 bbdf c13f
000003d0: ae7b c568 0281 c9bf f5a3 cc0d 855e b9bf
000003e0: 6d4b c01d bf00 d03f 5d97 53b6 8956 dabf
000003f0: bfda eb14 1e80 e6bf db91 2d6d 9f82 dd3f
00000400: 9563 5213 ae1f b93f 9164 a810 6225 d23f
00000410: f4ee a0fe 1258 b6bf a213 be2d 0ae6 b23f
00000420: ccd4 dec6 7e1e b8bf 6a57 c984 b7c2 b0bf
00000430: 933c 0638 fd33 b1bf 1f37 7c64 5829 d63f
00000440: bd27 da6a 5c2d ddbf be87 a681 dd7b d7bf
00000450: 49a1 8de7 8146 d53f a0ec 741b c498 c3bf
00000460: d533 d6a7 4aa6 d3bf 1bcc 29a7 f813 af3f
00000470: e597 4139 d651 a5bf 26bf e80c a87b b5bf
00000480: f283 e263 7dbe 88bf 309a fc38 bd8c d9bf
00000490: 1ff6 2d70 9718 e0bf 9321 4c28 fa45 233f
000004a0: 25e3 746d 3651 ddbf 9d05 97fc 5820 dcbf
000004b0: fe19 00b5 902e dabf c1e4 e6e1 aa30 c93f
000004c0: a28b 2579 3047 cebf 7596 0de0 1278 c2bf
000004d0: 59a1 1503 9dd9 d43f 9836 d0c0 d777 d0bf
000004e0: 516a b803 e7eb debf 2722 16d0 4de9 d8bf
000004f0: 05ca 03c0 673a c0bf a038 de7f 173d 9e3f
00000500: 51ab 45e3 4c2b bdbf 3458 ea2c 2a50 b0bf
00000510: 4e5f ae1a 529c c3bf 3e2f 458c de56 dcbf
00000520: b9bf 3b18 70bb 953f 1250 bf50 60ee c83f
00000530: 3aa2 f5eb 6e01 cf3f 67fa a408 52f6 ccbf
00000540: 9897 f742 5aa0 cd3f ba1d 8d16 fec9 dabf
00000550: b952 4d33 0a22 d6bf 46da cf21 cde4 c43f
00000560: 7511 2941 0775 cc3f 0db5 4e2b cd1d 933f
00000570: eef2 7286 6615 d3bf 2310 b330 78e5 a93f
00000580: f101 60e1 8472 dcbf 4d67 1407 2157 b0bf
00000590: a378 ef77 1347 ccbf 3049 085d c21f 713f
000005a0: 88ce 1ebd 2db4 df3f 36fd ea75 9c29 b03f
000005b0: 33ca 610b f80e 94bf f9f7 9b3d a962 64bf
000005c0: fd9c 540d 3c20 debf 14eb a2f3 6f9a e0bf
000005d0: 105b 6052 8021 c93f eea8 f44e 2bfc b53f
000005e0: 2f85 b02e d8f4 ddbf d004 79c4 fef5 c63f
000005f0: 2f7b 3593 3694 debf 4931 d692 28e9 cfbf
00000600: e0ce c4f8 8511 c4bf 78ca ee1b 9408 b9bf
00000610: b1fb 7c91 f21e bfbf e610 7725 7545 e2bf
00000620: 1c1d 7ef7 3e19 ce3f 4663 7ea0 2d7e dabf
00000630: c379 f584 476c cd3f f78b 0bae ebf5 d23f
00000640: 2247 d189 4a7c d73f 624a b143 63bc b63f
00000650: 3ae6 e06b 7dc0 d2bf fb67 19bd 06ee d2bf
00000660: 8e64 6c79 0048 ce3f 594c e468 51f4 c4bf
00000670: 3399 3fed 415b e03f 2ad2 95e2 f3fe c83f
00000680: 682b 3640 6a04 c53f a7b1 da49 d2aa c23f
00000690: 2836 78ad 42d8 cbbf 6bd3 8079 e9d8 abbf
000006a0: fac4 4ce9 e6bd cabf 6189 b1c2 7281 a0bf
000006b0: 97f4 6da5 9e9c d43f fcc9 7ff6 7c77 ce3f
000006c0: 20c8 9898 2323 dcbf 42f6 ffd3 b8ba c33f
000006d0: 25a8 9b02 ea20 abbf 2d59 ad6c 18c6 d33f
000006e0: 9718 9981 0ab5 d2bf d643 abd2 5718 b03f
000006f0: 4b54 9a77 8e56 963f 18c9 c2bc 818d d4bf
00000700: 9efd bdc9 ac54 cc3f 201a f90a 5449 dd3f
00000710: a363 c069 e2b4 e4bf d158 46d0 f77b aabf
00000720: 8579 be70 7595 b13f 4d12 7547 4e3a c73f
00000730: b99b dc76 ee59 b23f e9f5 cc84 8523 a1bf
00000740: e717 f295 c377 c23f 075f ed38 9a57 893f
00000750: 1374 8f4f 2584 a73f f4c3 1995 06d3 c43f
00000760: 03b2 8380 7e3b d7bf 06dc dc6b 90fb 94bf
00000770: c966 15e8 abca cfbf 1c7b 4167 c4f2 c5bf
00000780: 984f ba53 0c4d dbbf 755c c591 bba7 e2bf
00000790: 0862 c5f4 7526 99bf 02e4 bf3d 206f bfbf
000007a0: 8469 f988 c30e c4bf afb8 aed8 9e6f b33f
000007b0: 8f45 9fee 6669 a3bf b4d0 00e3 2c07 a73f
000007c0: e050 1506 f024 b0bf c591 695f b198 d6bf
000007d0: 2e5c de50 efc6 c6bf 158f 59dc aa7f dfbf
000007e0: 0c2b 8683 b334 d0bf c3f0 41bb 7c81 82bf
000007f0: 902c e74c 134f ce3f 5630 3e3b b87d a13f
-0.01740639949711381 -0.28305178653934654 0.07656044416794615 0.017270971459673372 0.050029350411760244 -0.4167639125618274 -0.31473231448704075 0.02926073816052732
0.5828672428891835 -0.308432226392695 -0.28006349766650634 -0.11121165309676953 0.3553681946154895 0.11314520343200474 -0.1334914533288923 -0.4734398153204182
-0.3088273900195612 -0.08513300646244924 0.39129984919273597 -0.012568074865705069 -0.18216458907624133 -0.15673404635257338 0.14478190595541043 0.5321740079694817
0.12168114476412022 -0.22750016649877894 0.06852944450121816 -0.3737013413292767 -0.07546348804556288 -0.04877779581893068 -0.06898977996629375 -0.5267189818731643
-0.1759718662230325 -0.3063294137943637 -0.014470631732926452 -0.03155527277942008 -0.24859279321556854 -0.30678839958680665 -0.3943887271825809 -0.19622746237711902
-0.10458617298994403 -0.02177560420573511 -0.22632688726891828 0.15532927795591814 -0.20736112523823258 -0.07889369838557814 -0.19527008771382967 0.029716697632747674
0.1293718080803591 -0.24656574831224978 -0.07264992060766036 0.051892776082602364 -0.2714676757091148 0.3124538217898247 0.18857121373499267 0.01090443999343602
0.1310860748738365 0.11713220933352167 -0.14094989896002083 -0.3737073411459279 0.13298225493110577 0.336852452913908 0.3469359104039195 -0.16648943394607435
0.5228903821507203 -0.27470922541378895 0.014079584874221158 -0.14118019747774882 -0.07926656187800343 0.2161767128168185 0.15962976152646421 -0.4549120793599409
-0.026659272890027796 -0.37060496737274234 -0.04226550092072079 -0.121547791859775 0.10610385684606015 0.028159072887908518 0.6843694769669767 0.4529029882151391
0.025265574995103242 0.444932387458164 -0.3938915128438043 0.04655763344522884 0.13385795729865674 0.22225980898370587 -0.03355588371763142 0.2748236405754171
-0.24410198326987445 0.059621270470170365 -0.13592451298172173 -0.08278385144141984 -0.3650879758687369 -0.10271597120751985 -0.0006215909575937153 -0.25773752338074085
0.17567765840859773 -0.4547787981359458 -0.18462993841871753 0.012434600412457858 -0.21027536709868222 0.4924141524274628 -0.13775430886683462 -0.12612869650917016
0.030175126354607867 -0.08290992949476689 -0.37357996611406347 0.4025351142090685 0.06567370135427726 -0.10208486657983122 -0.23577428649361468 -0.19447423702948358
-0.17336258481153763 0.2837652402895625 -0.4515013186327807 0.17342497707057167 -0.06809583306318205 -0.008218738355068813 0.1278733368708459 -0.19073941951863133
-0.025049222870749732 0.13964023090278474 -0.1992495547846977 -0.0990985068025479 0.25004556565652686 -0.41153185658764874 -0.7031393440837163 0.46109758054651956
0.098139648167843 0.2835316813157727 -0.08728140560645753 0.07382262818107546 -0.09421532016024797 -0.06547114364488285 -0.06719954126150389 0.3462735158253611
-0.45589361605436435 -0.36693513547117707 0.33242843258496585 -0.1530995496812908 -0.3070246352224875 0.06069924393241185 -0.04163999031952396 -0.08391809764065936
-0.012082080469840027 -0.39921503605947617 -0.5030018988615587 0.00014704397849408783 -0.4580818241989156 -0.4394743410776643 -0.409092118032646 0.19679771452300623
-0.23654752650608396 -0.1442893594750562 0.3257820634958271 -0.2573146231596666 -0.48314833987538913 -0.3892397434324572 -0.1267823875019333 0.02952992170281077
-0.11394196079861031 -0.06372321697776401 -0.15320802977361797 -0.4428020829989129 0.02122283122929478 0.19477466528644577 0.2422312404771832 -0.22626710340587694
0.23145607252007205 -0.4185786457278159 -0.34582762727704225 0.16323246146176212 0.22232142144833814 0.018668370979573235 -0.2981811821917252 0.05057883829570666
-0.44448968896179425 -0.06382948325008649 -0.2209190688726653 0.00418067858892561 0.4953722330931005 0.06313493613105411 -0.01958835191221393 -0.002488451526800436
-0.4707174425297607 -0.5188522108577183 0.19633487722668308 0.08587904622678241 -0.4680691200211013 0.17938217728991512 -0.4777962148272534 -0.2493029324508689
-0.15678476950562636 -0.09778714830353319 -0.1215659718700255 -0.5709787112941995 0.2351454456768146 -0.4139513079949676 0.2298669242108656 0.29625980373947364
0.36696113070239467 0.08881206896448071 -0.29299865279208215 -0.29577797381136833 0.2365723221671811 -0.16370599385899956 0.5111398347624231 0.1952805382130845
0.16419723639804862 0.14583805662313162 -0.2175372454661766 -0.05438928230470349 -0.20892034904094442 -0.0322376120245902 0.3220593085787384 0.23802148853390281
-0.4396447172358666 0.15413580276065103 -0.05298548967205389 0.3089657841968741 -0.29229986816461334 0.06287144559179522 0.02181456189153534 -0.32113688882522373
0.22133407450381254 0.45760060378634826 -0.6470806184253103 -0.051727050947350535 0.06868680956401903 0.18146685113073815 0.07168474580667707 -0.03347413297749908
0.14427990743223448 0.0123741196272671 0.04593006702609883 0.16268999367051118 -0.36300623464811127 -0.020490891059321135 -0.24837254364211095 -0.1714711670092236
-0.42657764603176807 -0.5829751822556221 -0.024560778679502376 -0.12278939731176311 -0.15670055568882557 0.07592194357013925 -0.03791352904193978 0.044976618490552595
-0.06306362293736667 -0.35306963269820485 -0.17794600914632624 -0.4921672012189771 -0.25321662754201735 -0.00903603979553969 0.2367881894591375 0.03416228984050977

weight_3 f8 [62, 64]
00000000: 31d7 1639 2eb2 91bf 7451 ece9 993d c1bf
00000010: 2af5 4ddc 1dad d9bf dbfd 83d8 58d0 c2bf
00000020: b181 78d5 1bcf b13f 4859 8e86 f020 db3f
00000030: 90bc e5e4 1500 89bf bac4 c60e 45cf b63f
00000040: 218d 9250 4696 c43f b548 d834 f0b2 e23f
00000050: b371 5bab 3b6f c2bf b156 3e1f 6ec0 d5bf
00000060: 8acf dc33 6b4c c53f 4aaf 1a0a 842b d03f
00000070: 4d1b b4ba 5b1b b2bf c3bd 66ad 5051 9bbf
00000080: a401 308b 300d b8bf e9f8 019c e082 d9bf
00000090: e1d4 1ef5 0f45 cfbf 6abc 6de1 cabc 7f3f
000000a0: 7bef d8c1 6715 c83f fa87 91bd 101f f13f
000000b0: 111d cdd9 5280 c3bf 905d 2d90 d9d2 c2bf
000000c0: 5063 3813 f4d6 d13f 3099 86d3 aaab c83f
000000d0: 32d5 4d85 b57b 953f 943d c160 0979 d1bf
000000e0: 423d 1b8d 9419 c8bf ab12 e68f d990 d73f
000000f0: 5f3e 56ba 210d d13f c3d8 e0e3 e565 b0bf
00000100: 6e91 1d51 7b6a cfbf 088a 319f 688b d93f
00000110: 79bb 764e c93c bcbf 9ee6 89da 183b c0bf
00000120: 01ff ad03 378a c4bf c545 f148 b4ae d1bf
00000130: b291 8ca1 edc1 d7bf 87ea 5b15 0aa8 d3bf
00000140: 8724 9774 400b bc3f 05c7 80fd 4db7 a0bf
00000150: 1242 b7c2 4f41 c93f 09ba dbc7 b562 c4bf
00000160: 3342 a706 4a1a d6bf d642 1c2e cb49 d23f
00000170: 43c5 cd5d 2af8 c93f 531d eb0e 2c58 d9bf
00000180: f7bf 171a 5441 93bf 6469 03f5 3c0e d6bf
00000190: 026e dd50 2108 a1bf 17e0 d982 f485 a5bf
000001a0: 017d 88f3 7764 c3bf dac8 1aa2 ecb9 aebf
000001b0: 7b64 9cbc 6d25 c23f 93cc e0ac 6562 dc3f
000001c0: 104b 08de f823 db3f 914a 7161 196e bdbf
000001d0: cf93 b78c 5c18 d03f 60b2 53ef 8dc3 cc3f
000001e0: 9d77 f91e f2eb c23f 7a31 87ec c393 cdbf
000001f0: 54ad 3577 ed2c db3f 3e9d 46be 7f65 b03f
00000200: de5b cacb 6f2a d2bf b964 032d c262 abbf
00000210: 95c8 8626 5b4f d0bf 3e10 b18a 6c7d 94bf
00000220: f358 edda 13b8 d53f c17e c271 103a 72bf
00000230: bf4b fba4 c884 b13f c452 518c 220a bebf
00000240: 1b67 d19b 8368 d6bf ee34 d997 0752 d5bf
00000250: 42c2 fca9 4199 ef3f 1cf5 476f 0c16 bb3f
00000260: e433 e7b9 e3f6 b13f f1d7 f735 992f dfbf
00000270: 569b 75d9 0ba8 c23f 0d03 5b50 443b a2bf
00000280: cce6 da81 5c41 b2bf 0f8c fe58 9ebd e03f
00000290: ffa7 0c91 8f7d cc3f cd18 94c2 5eac cbbf
000002a0: dd51 d30f 3673 d8bf dfd4 caa8 41d3 a13f
000002b0: 834c deb4 cd0b c73f a9f5 32b5 2ebf c7bf
000002c0: ada1 8bf9 d8f6 b13f ce44 ee67 526a c43f
000002d0: 940e ad4a 2ae6 d4bf b1e9 6486 9b40 c5bf
000002e0: 7cac 2282 6686 c1bf 18e2 3922 d7f2 d5bf
000002f0: 9e84 60cc e592 d6bf dc51 0233 6023 f43f
00000300: 3ee2 cd9c 6668 d43f 8220 7b2e 4499 dbbf
00000310: 8b4c 85f4 6555 c43f f0ef 2a50 58af c43f
00000320: 8e3e cf77 832e d4bf 0695 4be5 1b50 b73f
00000330: 4d58 e92c 3d84 db3f f3d7 5793 6f2c cebf
00000340: e6d8 b121 28fc d7bf c773 46e2 9112 a2bf
00000350: e4ac bab6 ec13 983f 462c 23fb 491e b43f
00000360: b776 18d7 2a79 d13f 4a6a d694 1da3 b13f
00000370: 5fe9 0e85 3991 b83f 58ba ea9a 2114 ccbf
00000380: 4a96 2617 0e4a b8bf 6ec9 aa16 cf9e c4bf
00000390: df9e b2ae bfe8 63bf 556f 54a3 c8df a73f
000003a0: 7572 9d6e b5ba d53f 5f2c 11aa fbbf c23f
000003b0: bd9d cf2d 3e91 903f 1b0f 0573 736a 9c3f
000003c0: 0c94 864a d3f7 d7bf d3ca 4a5c da0b c33f
000003d0: 72f8 ff84 d79a c3bf d560 eb91 7d09 d0bf
000003e0: 6259 e328 f205 d23f bb25 6d0d 407f be3f
000003f0: 4eb8 e3a7 571a 67bf 5537 f893 81c1 c9bf
00000400: e2ef 2e11 e8fc b03f 5aa3 e37a b1bd d4bf
00000410: 4c7e 6172 1313 bdbf ca5b 8fd6 7f28 d9bf
00000420: eeca f520 2dcc 843f dcd3 c6d9 2f20 c73f
00000430: 342f 717f c3ef d7bf f1af 3ae6 48b5 98bf
00000440: f2b7 24c2 7491 d0bf 0231 b954 4dd9 b3bf
00000450: 34cf 478a 2881 bb3f aaca e7ed 4bb1 d13f
00000460: 8c06 e4ab 5a31 bbbf f27d 1bae 6de2 d0bf
00000470: 2796 91e4 5cee e43f 0016 6a6e 8918 de3f
00000480: efb8 15a0 1deb bfbf 7c87 ce10 a1f6 dd3f
00000490: fb49 5331 1321 b3bf fcb0 dd84 d0d5 b1bf
000004a0: 51c3 1057 1cda da3f a82c ed12 7500 c43f
000004b0: a80c eb3a a48d c3bf 4cc9 0e94 8773 63bf
000004c0: 4844 8d90 6b41 dc3f a6b0 4cd2 d2f0 cd3f
000004d0: a671 798b 1452 dabf 49da 46ce 0ccd ba3f
000004e0: c450 06c7 7fbf d33f 52c3 e020 2a98 da3f
000004f0: ea49 f75c 87a1 a8bf 1ba7 039f ab60 c7bf
00000500: 891e f1f3 efb1 953f 2bd9 4b14 becd dc3f
00000510: 1887 a363 f28a b63f bfce 518e 7a1b a3bf
00000520: 1e2f 6669 abc3 b9bf 1e73 365f 6f23 d23f
00000530: 3b04 8805 e090 dcbf d846 fbb1 5c5c bebf
00000540: 0638 83ad 4848 dfbf f1b1 1581 2934 bf3f
00000550: a892 204e 06ee d8bf d95c 1e86 fcda df3f
00000560: ce67 7ea2 f742 c7bf 4cda 0e56 3f7b c6bf
00000570: c9f2 3e57 00f3 d53f 27c4 0bd9 bbe0 d3bf
00000580: 1c28 0fdb 3480 d5bf 3c14 87bb 83cb 9a3f
00000590: 4462 3a22 6899 b0bf 64e6 d7a2 f65b d93f
000005a0: 9485 215a 4318 803f e6f0 9c2e 1ffb b2bf
000005b0: fb00 9664 9be5 b3bf 778e b5d8 ed58 cc3f
000005c0: d578 5e6b 6508 d33f f710 144a 23a3 dcbf
000005d0: e1e8 84e0 8ada e43f 1676 81bf b728 cd3f
000005e0: fe5f 9200 bafc b8bf 219d c8c3 a257 a1bf
000005f0: 7f61 a092 0131 acbf 81c1 120a ebae d0bf
00000600: 78f4 d8df 044e d63f d143 8bfc ba2b bbbf
00000610: 99c9 7aac 217e d1bf 8bf8 ada6 875d b83f
00000620: 4264 fe72 bd13 dbbf fe33 76ff 00e4 bc3f
00000630: 2b09 0b63 b85f a3bf 39eb 4ab4 1d19 c43f
00000640: 841c d938 6b95 c9bf 9366 a741 f2b7 a73f
00000650: 3a07 269f 4c99 c33f 0af8 21a3 a419 d1bf
00000660: 6575 b7d3 2c16 c6bf 8f46 d88a 1397 8d3f
00000670: 9dd1 ac23 9113 cc3f 9ac1 5737 59a3 a83f
00000680: 1e2e fe38 8b71 c93f edc6 9dee d359 c4bf
00000690: 8fd6 f932 af5a df3f 7460 6322 5b3a 963f
000006a0: 40cd 8cd4 fb47 d73f df29 8233 0ac6 c2bf
000006b0: 7637 247f 1dee dbbf 23df bbfb 2756 cfbf
000006c0: 1436 cf45 1d59 ab3f 7ba1 167b c9c9 cf3f
000006d0: 7da0 5f28 3e10 c2bf 5f09 77dc 2913 b3bf
000006e0: 9055 2a73 e0bf d8bf 85d6 161a cbf0 d4bf
000006f0: 4de6 14d9 f2ab cebf e7ed 68c2 1f37 d5bf
00000700: f27b 8786 d5fd 8cbf 9821 fc56 5aa5 d2bf
00000710: 48f6 d0b1 045f d83f d265 34b3 5213 a5bf
00000720: 776d e15b 359c dc3f 8e36 f56b dd75 bd3f
00000730: 29a5 2884 3477 a3bf 9cea 1a46 e9b3 98bf
00000740: 88b5 031e 973e b6bf bd06 305d f295 cabf
00000750: d02b ae1b 7bdf 893f 17cc f7bd 7322 b1bf
00000760: 43c0 e3da 99df cfbf 3fa7 34ac 3745 bebf
00000770: a41f a06a ee5d d6bf 74b5 72eb 15cd b6bf
00000780: f3fa 62ae b38f d8bf a16b 123c 211f ccbf
00000790: e72c 394e d1a4 d7bf 9278 40fd 636d cd3f
000007a0: db92 6be4 9a22 d8bf 3ce4 25e4 a9d2 ce3f
000007b0: 2ca3 4f1a 7a8d c8bf ca61 9678 2a65 963f
000007c0: 1580 72a1 d440 d33f 93a5 48e3 59a4 db3f
000007d0: b8fe 7d69 e9d1 cabf 4757 fbb0 baef b53f
000007e0: 2de4 dc64 0d36 c4bf 4c9b d689 f604 e93f
000007f0: 1e23 c68f 6214 d03f 42a7 5ca5 79b6 c7bf
-0.01728126738972619 -0.13469242021586647 -0.4011912013446187 -0.1469832474904099 0.06956647836387365 0.4238854707740711 -0.012207194373983904 0.08910018549683488
0.16083601888849677 0.5843430549741898 -0.14401956431437454 -0.33987000514148763 0.1663946154818599 0.2526559923814956 -0.07072995479766782 -0.026677380164697128
-0.09395125768788276 -0.3986131213677156 -0.24429511517306593 0.00774840593554336 0.1881532379646805 1.070084324361686 -0.15235362658334187 -0.14705962695982722
0.2787447154710678 0.1927388699379633 0.02097972513316399 -0.27301248978343406 -0.188280648135768 0.3682159333477936 0.26642649838411175 -0.06405484021601908
-0.24543706379621305 0.39913383051148843 -0.11030252614612647 -0.12680349989732503 -0.16046798400565623 -0.27628810046470803 -0.37121144081381907 -0.307131310327954
0.10954668852277126 -0.032648503489680215 0.19730565078363377 -0.1592623926039354 -0.34535456323377217 0.28575400832145925 0.2028859098459553 -0.39600659806133826
-0.018803896038605186 -0.3446190254886885 -0.03326515304680912 -0.042037621472388924 -0.15150355712192012 -0.0600122402078271 0.14176723203198435 0.4435056865942865
0.4240705650601493 -0.11496122960060463 0.2514869093122884 0.22471784768949288 0.14782549393106317 -0.23107193993781633 0.42461716310090947 0.06404875178724453
-0.28384013081944015 -0.05348784255483836 -0.2548435093150457 -0.020009704556528833 0.3393602025947892 -0.004449905620418527 0.06843236949798291 -0.11734214711880059
-0.35012903420066416 -0.33313169316245606 0.9874580688538759 0.10580518452475868 0.07017348564768572 -0.48728018064809847 0.1457533656896099 -0.03560842018987929
-0.07130983515062467 0.5231467950983432 0.22258181173793898 -0.21619781971839416 -0.382031932310637 0.03481488404706012 0.18004771548712392 -0.18552192542658233
0.0701728448144709 0.15949468683951412 -0.3265481690652703 -0.1660341650220523 -0.13691407541532274 -0.34294679968255215 -0.35271592100805005 1.2586366646329372
0.31887212098039075 -0.4312296346584007 0.1588561481426932 0.16160110392036087 -0.31533896160269925 0.09106611583736787 0.42994622598542237 -0.23573107428063586
-0.3747654274988136 -0.035297926780209425 0.02351350655832797 0.07858717328342477 0.27302046780992434 0.06889519580583073 0.09596595285885233 -0.219364357607861
-0.09487999024585139 -0.16109646422189478 -0.0024303191945199555 0.04662920945904029 0.3395207958435898 0.14648385814720918 0.016179057642060835 0.027749828238724832
-0.374501059321404 0.14879922396138187 -0.15316289896140095 -0.2505792546267121 0.28161291115738696 0.11912918403427046 -0.002820178225298376 -0.20121783948018881
0.06635904712214782 -0.32407795906924763 -0.11357232611180129 -0.39309688523411224 0.01015506035648658 0.18066976674677349 -0.3740090126564042 -0.024129046489790033
-0.2588779350215865 -0.0775345165104149 0.1074395501707926 0.27644632561638594 -0.1062218351035204 -0.26382009508776527 0.6540970291359302 0.4702476099267585
-0.12468133123704538 0.46817804948124553 -0.07472343401176566 -0.06966880077169785 0.4195624208687621 0.1562639563001984 -0.15276005627501843 -0.002374424745050485
0.44149293056858996 0.23391185062917436 -0.4112597810797304 0.10469131504110253 0.30856317935946387 0.4155373879503276 -0.04810736665571709 -0.1826376463353022
0.021186589492826733 0.45005752546366534 0.08805766041362195 -0.03731902110385254 -0.10064193080159753 0.28341278360476163 -0.44634247341315686 -0.11859683366062812
-0.4887868589838721 0.12188968087657039 -0.38952787046063486 0.4977408704521174 -0.18173118051782783 -0.17563621236850435 0.34295662422281886 -0.31059166141409594
-0.3359501017808968 0.026166971512584278 -0.06484080157896083 0.39623800184890556 0.007858778179243221 -0.07414431465162216 -0.07772227483474474 0.22146390038971095
0.2973874615216919 -0.44745714410988974 0.6516775498523907 0.22780510760178235 -0.09760630144080548 -0.0338717330926619 -0.05506138720392339 -0.2606761549350481
0.3485119043360281 -0.10613602319359862 -0.2733234581347915 0.09517715281796961 -0.42307983617644507 0.11285406338556922 -0.03783966263792345 0.15701648047783026
-0.19987240100656234 0.04632527400435751 0.1531158234684485 -0.26719013148238047 -0.17255173051573106 0.014448311495502323 0.2193471359438605 0.04812125015803588
0.19877758295875564 -0.15899132872760138 0.4899099347888773 0.021706985448731023 0.3637685371097241 -0.1466686965471373 -0.4364083997360163 -0.2448167781037621
0.05341426350751646 0.2483455515878282 -0.14112069102634797 -0.07451116211362806 -0.38671122786157586 -0.3271968607690286 -0.2396224555939618 -0.3314895056280122
-0.014156025093084754 -0.2913423394643586 0.38079945912236157 -0.04116304814869988 0.4470342061301475 0.11507972608270675 -0.03801883805528867 -0.024123806861761396
-0.0868925522115288 -0.20770101118255538 0.012633287222134998 -0.06693194759263608 -0.2490112608716136 -0.11824367479553376 -0.34948311245579533 -0.08906685827488109
-0.3837708666796253 -0.21970000680161397 -0.36943466795919594 0.22990083566486824 -0.3771121245065793 0.2408039440158819 -0.19181753430100323 0.02187029229171048
0.3008319450982538 0.4319061965530519 -0.20953099871620906 0.08568922825665225 -0.15789954590744185 0.7818558399347721 0.25124420204569897 -0.1852562005454335

bias_0 f8 [64]
00000000: 0208 2665 b3fc df3f ae9a 7007 caf7 e93f
00000010: 90f3 c6dd 16eb bb3f 615d 9c22 bff7 ebbf
00000020: f7c5 98b4 1417 e83f bcaa f676 372a e73f
00000030: ec64 065a d7a9 953f 8844 465f 0b0e 973f
00000040: 93b8 8d51 a28e c53f 9470 2106 9479 c33f
00000050: c032 1d70 4cb7 d53f 18b7 8a0f 5bdb dcbf
00000060: 0390 4bbc 922e e5bf 6dd1 0421 8cbc c13f
00000070: 4196 130c e44d ddbf adbd ba18 6964 d93f
00000080: af70 c02f 48d4 cf3f e561 8c23 d9f3 d0bf
00000090: b440 2671 c6e8 d13f cab6 f33b f4d5 c93f
000000a0: 3aff c6a1 79a9 c6bf 3869 2741 c70e 763f
000000b0: d0b1 1056 8ad6 c03f fb7e 9629 3820 e03f
000000c0: f404 dcee f53e ecbf 7952 aa3e f551 c13f
000000d0: 4c11 2d02 1d50 c93f d368 5d90 b33c d13f
000000e0: 394d b098 343f d03f 7652 09b8 2e3b d7bf
000000f0: e88b 39a1 4dfb e0bf 025a 5972 cea3 edbf
00000100: 5294 e932 2a9c f03f a845 c4d0 8ff2 ae3f
00000110: a17f 69ff fb95 b93f 6f94 b1c6 34f3 ca3f
00000120: 7c5e bc7d c40a b0bf eef6 7f4f 0dd5 ac3f
00000130: 0848 c02b e313 e03f e9c4 1da2 8f38 ddbf
00000140: 0eab 1c60 1f6f 91bf 2fbb 5db0 fc51 ddbf
00000150: 10aa 0523 0fa8 e03f b1eb 3c26 0d26 ccbf
00000160: d082 a578 c00e e53f a333 52c1 17c9 d63f
00000170: df79 a14b 084a d43f 9215 78ea 9707 c6bf
00000180: bded 46ea e160 e73f c750 cb1a 388e ddbf
00000190: 60ae d5a3 0cc0 97bf 9c8f 38bd 4b81 e1bf
000001a0: 5833 e375 18ae d33f 0136 8a83 9522 b8bf
000001b0: a515 0b4c 060f a63f e461 bc89 3e14 e13f
000001c0: 6d6e ec47 cbea ac3f 6914 3daf 2104 e63f
000001d0: 27e6 4e90 cadc d33f c98a 3362 cdb1 ab3f
000001e0: 580b 1be0 24aa d1bf 61e0 a98c aa5b c93f
000001f0: 2201 8e02 6229 c23f d8a6 0659 7a17 d13f
0.4997986305025962 0.8114977021512766 0.10905592836839006 -0.8739925075523552 0.752817490318363 0.7239034007555669 0.021155705327690663 0.022514512720196694
0.16841534597501048 0.1521477727827728 0.33931265782011266 -0.45088840978392986 -0.6619352033271756 0.1385665093636236 -0.4578790777144129 0.39675357260690697
0.2486658318674748 -0.26488331290741335 0.2798324685072757 0.20184185912460456 -0.1770469703606013 0.005385187471313828 0.13154725267794598 0.5039330303443131
-0.8826856293891567 0.13531365928487896 0.19775736433269697 0.2693299207509316 0.2538577548122763 -0.36298721287065605 -0.5306766652032566 -0.9262459023837553
1.0381261814848313 0.060444349512305096 0.09994482980391563 0.21054706289138234 -0.06266429967615211 0.05631295772034926 0.5024276594651846 -0.45657721358936826
-0.017025461426935222 -0.4581290933919488 0.5205150302911665 -0.21991123549545713 0.6580507618310438 0.3560237300778743 0.3170185793477724 -0.1721067328327704
0.7305764747356346 -0.46180536858197424 -0.023193547725368524 -0.5470331855508337 0.3075009490246905 -0.09427771054671298 0.043083378584508204 0.5337212267068563
0.05647883656476158 0.6880043432835353 0.31035102932546227 0.05409089874026091 -0.276009768345991 0.19810993069018237 0.1418879044031281 0.2670579785723084
