test/trained_model.npz (npz, 904886 bytes, 8 tensors)

weight_0 f8 [128, 784]
0	0xbfdba5ccc90171ba	-0.43199462537247835
1	0x3fc15a5c4069bab0	0.13557007928053144
2	0xbfd5cf957bd73b5a	-0.3407949170477217
3	0xbfc8815005a36c58	-0.1914463069468606
4	0x3fd3f3f56e9fe4f2	0.31176505854780523
5	0xbfcc0d4c34142ef0	-0.2191558126727311
6	0x3fd65d0a1efd9b78	0.34942868257933624
7	0x3fdda89139b024c6	0.46341353067016333
8	0x3fdae7bd620e2608	0.42039427352628467
9	0x3fd667e8677615fc	0.35009203055992066
10	0x3fce05288b415f68	0.23453242110803818
11	0x3fb426caf8e7baa0	0.07871693207537556
12	0xbfd75fbb1f037150	-0.365217953001566
13	0xbfcf4f7646eb4cd4	-0.2446124883923405
14	0xbfdfe153e2ca922a	-0.49812791011416613
15	0xbfd9c815e37afe12	-0.40283724989782954
16	0x3fd637bdb349c80e	0.34715216168035645
17	0xbfcc57d4650ab348	-0.22143034871751355
18	0xbfc720ff27800ce0	-0.18069447926254778
19	0xbf8b4ad2cb451380	-0.013326308086684113
20	0xbfa7e3b492069700	-0.046659128976257236
21	0xbfbdf81b56632448	-0.11706705912651316
22	0x3fa1f455dbe7b3c0	0.03506725606334937
23	0x3fd6d686607cfc7a	0.35684356138876405
24	0xbf7bcd3ed2821b80	-0.0067875341411597345
25	0xbfd49bbe2622111c	-0.32200578426297155
26	0xbfd2ffdbddc1ffe2	-0.29686638504062846
27	0xbf9de0347e84f3e0	-0.029175586912277285
28	0x3fdcf4f9f3684d9e	0.4524521710420347
29	0xbfc84b285d1eedac	-0.1897936300937152
30	0xbfdad9abddde6041	-0.4195356051145645
31	0xbfc3a5728e0f3a9b	-0.15348655640123784
32	0x3fd001189475627b	0.2500668954649325
33	0x3fb9529cb784e975	0.09891681175660046
34	0xbfdd95378e7b97bf	-0.462232484000534
35	0xbfc6fcf4714211f7	-0.1795945694940568
36	0x3fd59a4ae13e4a29	0.33754226681154137
37	0xbfdac1fa02ca7ca3	-0.41808939240031345
38	0x3fc7fef6c3ac6a33	0.18746838144655129
39	0xbfcb6f1ea31fbe0a	-0.21432860341109033
40	0x3fd557bcc6371b2d	0.3334800658889659
41	0xbfd5c6e4c428c079	-0.34026450306101413
42	0xbfc536cb702824fe	-0.1657347009316154
43	0xbfdf4d4b0383313a	-0.4890925916959251
44	0xbfd0806155ea795b	-0.2578357066176033
45	0xbfdb05c24d0cea3a	-0.42222650074441825
46	0xbfb8b92de16fee42	-0.09657561067427259
47	0xbfd066493a3658c2	-0.2562430447081959
48	0xbfcc727de78fab84	-0.2222440128965354
49	0xbfc07a929e2e5d9f	-0.12874062274634654
50	0xbfb0b541d9978ad6	-0.06526576578429952
51	0xbfd17793a470e5bc	-0.2729233842724985
52	0xbfd654918e8b6a1f	-0.34891165657396245
53	0x3fbe24c7181d24a5	0.11774868334500128
54	0xbfdf55891ee745ed	-0.48959568040763096
55	0xbfcb611d053c1298	-0.2139011645850999
56	0xbfd309b92645b24a	-0.2974684594871958
57	0x3fc358ba1543581b	0.1511452297042418
58	0xbfabcb92de220787	-0.05428751908858858
59	0xbfcafee51117a9b6	-0.21090377173034164
60	0x3fc3ce6e1ab9652d	0.154737246560026
61	0x3fd6702968b791d6	0.3505958101871135
62	0x3f7394c40130d12b	0.0047805458480534675
63	0x3f9babf670e47044	0.027023172989274494
64	0xbfbcc02e7b89e920	-0.11230745807725784
65	0xbfcfd9aa545df0a6	-0.2488301193187727
66	0x3fde7cd9f4f8fea8	0.4763703243552109
67	0x3fb96b38133cb8af	0.09929228276880296
68	0xbfe053ec70c5c11c	-0.5102445795619448
69	0x3fdadb151d75ba14	0.41962173344555365
70	0x3fca7ef66b1f216e	0.20699959021136344
71	0xbfda7a72867258a9	-0.4137235939937321
72	0x3fdd026bfca9b157	0.45327281641109124
73	0x3f7ab708c7ea328d	0.006522211361368446
74	0xbfcc0823556a50a9	-0.2189983527247297
75	0xbf7c7cdca6e7c4d1	-0.006955015107892496
76	0x3fdae53be2aac8a2	0.4202413285776264
77	0x3fcdf03c3afe799f	0.2338938987786152
78	0xbfd7d13a3a401449	-0.37214523018366613
79	0xbfd904c9a65ee682	-0.3909172177041925
80	0x3fbf0f9f8aed9ae8	0.1213321413211862
81	0xbfa69f6d069e8aac	-0.04418507295419735
82	0xbfd0ee502d795d8f	-0.26454548302486897
83	0xbfd2d9e139642026	-0.29454832653618934
84	0xbfddcb4cd0d3918c	-0.4655334510155391
85	0x3fd7f87b945fec9e	0.37454118241994105
86	0xbfc9355c0fe8df33	-0.19694090630377445
87	0xbfde5a19aae36048	-0.47424928367900465
88	0xbfbbf905500455e0	-0.10926850513018094
89	0x3fd17577bf12e006	0.272794663043442
90	0xbfd276cf0494098c	-0.28850150534722085
91	0xbfcd686f4aa6571d	-0.22974959511764662
92	0xbfb5f9712df4ef83	-0.08583743450156871
93	0x3fccbd7ae470f72a	0.22453247217520672
94	0xbfda91137f3c0f35	-0.41510474610571474
95	0x3fd7844f3c5eb309	0.36745053191661775
96	0xbfdeff112c16182e	-0.48431805901816716
97	0xbfcd07189de7f449	-0.22677905760056863
98	0x3fda9e8e9f74a532	0.4159275586303749
99	0xbfdf290ab5737f41	-0.48687999458160297
100	0x3f9603d9ac3106f8	0.021499062666641117
101	0x3fd0417e38c37a67	0.2539973787624263
102	0xbfb8650627bb59c0	-0.09529150457397062
103	0xbfcd61a7a66f7f84	-0.22954269053206755
104	0x3fdc6f3c1e2912c9	0.4442892355475974
105	0xbfc6a869bb8126f4	-0.17701455741398997
106	0x3fc3f4aa546fd909	0.15590409396072172
107	0x3f7b3702c6f51af9	0.006644259308194783
108	0x3fdf04f8171903a6	0.4846782899440377
109	0x3fd796f511636f01	0.368588702183601
110	0x3fb9145715321a3b	0.0979666163203569
111	0xbfdb05e3ef7ce728	-0.4222345198391957
112	0x3fc16a0c958d7406	0.13604886343355832
113	0xbfc310240a46a17d	-0.1489300775695134
114	0x3fcad50bfebaf21b	0.20962667406082933
115	0x3fd110ee31672316	0.26665835213184275
116	0x3fb17507c9daa8d7	0.06819199255065499
117	0x3fb6433ec7164013	0.08696358070869818
118	0x3fd67a32d17d9525	0.35120840509474
119	0x3fd82f2ea58e1aab	0.37787977378358545
120	0x3fd4d7843c4b338b	0.32565408599912676
121	0x3fd71f9d1a24870d	0.3613045459079423
122	0xbfb184b8ef73cd66	-0.06843143316273412
123	0x3fbbe9ea47d5f3c3	0.10903801206400403
124	0xbf9fa218d380c330	-0.030891788395993547
125	0xbfc47967e53caa4a	-0.15995501225673286
126	0x3fbe93af63a69cfc	0.11944099600679076
127	0xbfe161ce4a51e41e	-0.5431891871986669
128	0xbf88deab7ed8fb83	-0.012143459137517137
129	0x3fc5000282fd01af	0.16406279941476273
130	0x3f7c0b4faf85d3bb	0.0068467247696064005
131	0xbfdb726a627af4a3	-0.428858371898807
132	0xbfda38f24fdcc506	-0.4097257404237812
133	0x3fc4d778d63c1a81	0.16282568417246426
134	0x3fd40841b31378ae	0.313003945235219
135	0xbfd9364e9f5703f9	-0.3939396434835199
136	0xbfc165faaa7b3032	-0.13592465709950968
137	0xbfa5d078cf39b30a	-0.04260613946539678
138	0xbfd0e71aa6ecc950	-0.26410547543777785
139	0xbfd4c4b89e3392bb	-0.32450690698014356
140	0x3fdd5a11c85643b0	0.4586224037566877
141	0x3fb23e1c13c0d623	0.07126021845109469
142	0xbfb421b8d7ad4f2f	-0.07863955750991346
143	0xbfcd950fda1e278e	-0.23111150884897963
144	0xbfc6ca52d8b39eba	-0.17804942685255815
145	0x3fd9307c50041b12	0.39358432592455117
146	0xbfd78b35a5f07a5c	-0.36787167744652094
147	0x3fb3d969ad42ff0d	0.07753620605489804
148	0xbfda825957b281ff	-0.4142058712405116
149	0x3fc0738c589beb84	0.1285262520467222
150	0xbfd66e292fdb12cd	-0.3504736869183887
151	0x3fc26d4555a5c51a	0.14395968133934717
152	0xbfc9f33dfa0fb1d8	-0.20273565969490792
153	0xbfd585cd160b7c39	-0.33629157212084554
154	0xbfc8e83d14e07ec4	-0.1945873596132427
155	0x3fbaa30c8bf00c53	0.10405043045470679
156	0x3fa0c854fdcc6c6b	0.03277841184736804
157	0xbfc3611df36b5133	-0.1514012754984236
158	0xbfd2c8b4afc21e4f	-0.29350011028188744
159	0x3fc77bb148bf665c	0.18346229602939246
160	0x3fd719b6d8668c57	0.3609444726263908
161	0x3fa0076b9a0d2248	0.031306612544146406
162	0x3fcbe7660ca48e7c	0.2179992257816713
163	0x3fd2c8e5e6cfaaac	0.2935118440642934
164	0xbfdac0daf966b9d5	-0.4180209575232799
165	0x3fc2ddded7d307e2	0.14739594972894482
166	0x3fd8ce02a6002e06	0.3875738736248596
167	0x3fa59e0af61b5ad0	0.04222139600977004
168	0x3fa6a4f370a3c3b8	0.04422722578045274
169	0xbfc1ef89f77c12bf	-0.1401226480885693
170	0x3fc9fff7af3ed802	0.2031240087214315
171	0x3fdc2b38e459d926	0.4401380758275927
172	0x3fd2812e3cd43115	0.28913455906219215
173	0x3fab1ca68537c09c	0.05295296074098241
174	0x3fd793d93cf6b7c4	0.36839896157732377
175	0x3fd73e179dd90a8d	0.3631648103220549
176	0x3fd27ade1b7e965d	0.2887492435932922
177	0xbfe00531bf192707	-0.5006340725314836
178	0x3f82de5d8c16f201	0.009213190877624735
179	0xbfdb52b3c6dc6add	-0.4269227449419029
180	0x3fdaffea2fafecdb	0.421869799203433
181	0xbfdba1a4ca00ef8b	-0.43174094893378684
182	0xbf747f470b0f1f73	-0.0050041937947254865
183	0x3fd847cbdb8a1a51	0.3793820995273665
184	0xbfda70bfe887e92e	-0.41313169200988653
185	0xbfdc769ed1707137	-0.44474001362847865
186	0xbfc426d895c141fb	-0.15743548691035855
187	0xbfcdc8bc7c5d9fe6	-0.23268848488373733
188	0x3fa73756952c595f	0.04534407206499468
189	0xbfdbac7d8a707ff6	-0.43240297812917505
190	0xbfdd34b67564f9db	-0.45634232963848625
191	0xbfb98e216f00579c	-0.09982499084466528
192	0x3fdac1746a0dea58	0.41805754048224264
193	0x3f8d80735182a058	0.014405156064029409
194	0x3fd52c463440151d	0.33082728483744167
195	0x3fd5386bf0e93634	0.3315687039038011
196	0x3fd9fd9d2a3d41d9	0.40610436558656954
197	0xbfdd76b41f3cf4a1	-0.4603700928744932
198	0x3fd6fac2ff4d0483	0.3590552800342907
199	0xbfa03646efc84526	-0.03166410138158886
200	0xbfdd63a8d2b34b72	-0.4592077310200501
201	0xbfe0864bceaaf9f4	-0.5163935696107829
202	0x3fbdf18a20ff2805	0.11696685128768543
203	0xbfd85827a6e28570	-0.3803805474982118
204	0xbfd93eceb528b6b3	-0.3944584626322964
205	0x3f9b081d385ac735	0.026398140492069195
206	0x3fa90e64129b33cf	0.04893791892172993
207	0x3fd04f8b73ff2981	0.2548550255566156
208	0xbfad68fccde916e8	-0.057441616187629496
209	0xbf904ec7a25242bd	-0.01592552116614131
210	0x3fd19498cb2f963e	0.27469463198062616
211	0x3fc5fe3a1f475d7a	0.1718208935478563
212	0xbfd54f1d1c55457a	-0.33295371786979155
213	0xbfe0a331bb361cf3	-0.5199211746666194
214	0xbfe02200769f6a52	-0.5041506115770267
215	0x3fcb8f45692fecee	0.21530978809446516
216	0xbfcf4c8fdd7beda3	-0.24452398600247446
217	0x3fc8cfb09a7a5451	0.19383819144119
218	0xbfbbc1f05c4332d4	-0.10842802288534453
219	0xbfdd16d1153fb89f	-0.4545176227101226
220	0xbfd7607ff79caf68	-0.3652648847662392
221	0xbfd44bba0563d3af	-0.31712198759424387
222	0xbfcde0a92d103727	-0.23341860485418772
223	0xbf919211980b82c0	-0.017158770470703244
224	0x3fd3ab79f2db07db	0.30734108654371334
225	0x3fd2ae028db6b696	0.29187072600584807
226	0xbfb1052810c49d03	-0.0664849320352126
227	0x3fd042febad600a5	0.2540890526361273
228	0xbfde0234609dcb3e	-0.46888455805963136
229	0x3fb1a8efdcb82f65	0.06898402346285833
230	0x3fca5d3e057f0f2a	0.205970528301003
231	0x3fd3d685ee898f35	0.30996845526373146
232	0x3fbb101bb7a2a35b	0.10571454270633522
233	0xbfc3441b4f3223c8	-0.15051595084176328
234	0xbfd4567b762741a1	-0.3177784589616071
235	0x3fd85b3c3b48b87d	0.3805685595460842
236	0xbf876e59875e8625	-0.011440944141045748
237	0xbfa7933fb29a0a4e	-0.04604529433438086
238	0xbfca183c1916dd95	-0.20386458611549743
239	0x3fd370f538b1413b	0.3037694028507933
240	0xbfcca0eedd80bf3c	-0.22366128745624703
241	0x3fd25234e8c43adb	0.2862674973593308
242	0xbfdde913edf430ae	-0.4673509429710617
243	0xbfa4c88a7a471905	-0.04059250586174027
244	0xbfdb4c2c79b39843	-0.426524275635874
245	0x3fd8fa9b21c08c19	0.39029577537638854
246	0xbfd06f4ef84264c0	-0.25679373020245677
247	0xbfda0bc468ba1a56	-0.40696821429484
248	0x3fc40174d002ecbf	0.1562944427185808
249	0x3fdd3fc675fe2715	0.45701753161175535
250	0xbfdf06e99d82a0cb	-0.48479690915929713
251	0xbfabc0143f19e550	-0.054199822142389054
252	0x3f973ec4e0cfd45e	0.02270038244383376
253	0x3fd5d053a5b9fca8	0.3408402555869068
254	0x3fc70ca250f89a11	0.1800730605475143
255	0x3fd6c90599617ecb	0.3560194013461852

weight_1 f8 [64, 128]
0	0x3fd6790eb43784a9	0.3511387596063949
1	0x3f8ca0a03213028e	0.013978244331498215
2	0x3fca0f2fa745ec22	0.20358844440110696
3	0x3fc9e5b1e58b46ea	0.20232223232465368
4	0xbfd46d39be83a6d7	-0.3191665993204941
5	0x3fe4d94fce3f8eac	0.6515273121153391
6	0xbfd196400ebfa318	-0.2747955459622502
7	0xbfd8ac705f0e7d5b	-0.3855248382842171
8	0x3fe3578f9f87d6b0	0.6044386020500578
9	0x3fd9a40ea27ad1c1	0.4006382548061787
10	0xbfb60de96bae61cd	-0.08614977721152357
11	0x3fd0facd81656ce3	0.2653077853808112
12	0xbfe7346229826ab2	-0.725144463608862
13	0x3fd6e95b0320ad33	0.3579928904097926
14	0x3fca7c73a62c24fd	0.20692296613587038
15	0xbfcab6fa63892ef1	-0.20870904789114023
16	0x3fb02b3c50542639	0.06315972291135886
17	0x3f9c0a592f0543ac	0.02738322591295954
18	0x3fe09ec98e528078	0.5193832187396898
19	0xbfa60fc8f592cb79	-0.04308917997095469
20	0xbfc3061c4d4729ea	-0.1486239793142226
21	0x3fd684064ad32440	0.3518081408224738
22	0x3fcc4e5cbf95615f	0.22114142756141583
23	0xbfd8d8606b4b5fa2	-0.38820658185931667
24	0xbf971eff03b18252	-0.022579178429057052
25	0xbfea7fb558ab3d8d	-0.828089402371846
26	0xbfd6cafad6011a07	-0.3561389055143142
27	0x3fc2994af1051c83	0.14530312317421953
28	0xbfc1fa7eef06d7ac	-0.14045702620722744
29	0xbfb95007a52fdb86	-0.09887740881809579
30	0xbfcf1b2ae2c1a1f6	-0.24301658699120282
31	0x3fc3cfd32cf46a2c	0.15477981276565467
32	0xbfb2f9576fab4d51	-0.07411715008065768
33	0x3fdf09911efa3976	0.48495891595020824
34	0x3fbbf040697b57e0	0.10913469863166325
35	0xbfe53046b6446a95	-0.6621430931002857
36	0x3fda35522e2d8501	0.4095044566111739
37	0xbfdca696850211f8	-0.44766772259779897
38	0xbff0b34bbe1cdf51	-1.0437734056740349
39	0xbf9fbd946582d81d	-0.03099662656378409
40	0xbfd15e48e23573ad	-0.2713796814985539
41	0x3fdb6a6504a203ae	0.4283688111536844
42	0x3fb7b38a5791dd4e	0.09258331907209547
43	0x3f9f7cb50bf274e1	0.030749157766526095
44	0xbfd707738aef01cc	-0.35982979362236445
45	0x3fb2e140f8019d94	0.07374959997979708
46	0x3faadab3f27ceafb	0.05244982085283386
47	0xbfd1578a2d2593a7	-0.27096800240388536
48	0xbfbce04f10ec4c05	-0.11279768145713838
49	0x3fd8efc5954667bf	0.38963450982702946
50	0xbfcd6a0e759e3999	-0.2297990869814839
51	0x3fcf60791c0d0131	0.24513162488620702
52	0xbfc25549981dec43	-0.1432277672537073
53	0xbf97ff31587be6f0	-0.02343442061007911
54	0x3fc0149a33bc8b83	0.12562873388477777
55	0x3fe466333ca18899	0.6374756035040888
56	0x3fbe4fae281c7ee2	0.1184033248832708
57	0xbfcb4e0012adb568	-0.2133178797916273
58	0x3fb9eaf349e8b071	0.10124130777757202
59	0xbfe971affd8198b7	-0.7951278640073473
60	0xbfdf5dd73503b068	-0.4901025788992741
61	0xbfe1e3599513ed71	-0.559002677123699
62	0xbfb807eece74ed35	-0.09387104549835075
63	0xbfdb7e9add81f401	-0.4296023524437374
64	0xbfdabefe403e21e6	-0.417907297837273
65	0xbfdb7430a16da208	-0.4289666725585737
66	0x3fd072fa14d2d5b3	0.2570176318507393
67	0xbfd661bca273eb1a	-0.34971538414508674
68	0x3fce326c4c667af0	0.23591378908618976
69	0x3fdcaa74112abdc2	0.4479036491056513
70	0xbfca0e3fda09ffab	-0.20355985781133987
71	0x3fa06a7f93fe4567	0.032062517943937156
72	0xbf8003551799962c	-0.007818856032098052
73	0x3fdf7bb726c0f1e7	0.491925990910913
74	0xbfca153e3bffa03b	-0.2037732880555739
75	0xbfe6307e5e0da1e5	-0.6934196316697664
76	0x3fe6b68237ec5047	0.7097788898704572
77	0x3fdc26f7e7e6f39c	0.43987844130224985
78	0x3fbcb951581e3e4f	0.11220272446939215
79	0x3fcec281e21eb1dc	0.24031089344988643
80	0xbfa56bc49ac986ee	-0.0418378294896352
81	0xbfe1f7ecf8354626	-0.5615143630804524
82	0xbfb173bad0eedd07	-0.06817214585213459
83	0x3fbf8bea278fba8c	0.12322867837768053
84	0xbfb4a0d62435efa3	-0.08057917007493968
85	0xbfdfff6f8bfbe2fb	-0.4999655596762264
86	0xbfd18613569aa32c	-0.2738083215468119
87	0xbfda72d0ef074787	-0.4132578214895308
88	0xbfdfd2b6d5781c49	-0.4972359738025643
89	0x3fdbccf7676dda35	0.43438515758990387
90	0xbfe063295f467e4d	-0.5121046887251822
91	0x3fbb535a14ed564b	0.10674059878268698
92	0x3f90df00ccd0f080	0.016475689412104533
93	0xbfd298636dc986ae	-0.29055104943663934
94	0xbfcd8e88593b4cfa	-0.2309122501088508
95	0xbfcb3622db8637e6	-0.2125896045585584
96	0xbfd4ce417d0aaacc	-0.3250888558492704
97	0xbfc2047dc5186454	-0.14076206325333607
98	0xbfaea89c3b7a10c3	-0.05988014436755542
99	0x3fcbf72ee979e6c9	0.21848093414501182
100	0x3fba3f7b620222c6	0.10253115790159048
101	0x3fdf32a792403366	0.4874667099218669
102	0x3fca3b0b3976465c	0.20492687516939412
103	0x3fdebfd7a32704ba	0.48045912678578484
104	0xbfe05aac6de0ae9c	-0.5110685487793094
105	0x3fc8eab5a94d5d00	0.19466276900013924
106	0xbfb0e182a921a508	-0.06594101552186171
107	0xbfc3a07245886e20	-0.15333393473780266
108	0x3fa910e0e0f9c236	0.04895689722332401
109	0xbfc566c4f8c30f06	-0.1671987738283109
110	0x3f974bb3a1d464e2	0.022749716522501802
111	0xbf91d5acd8399a6a	-0.01741666860325567
112	0x3fc0c7c4063b4ac9	0.13109636596944643
113	0x3fb58ee04df15a90	0.08421136763477421
114	0xbfc19f4eef53a6bc	-0.13767420469166847
115	0xbfc57df983d5b02f	-0.16790694176904838
116	0x3fd19583951cb18e	0.27475060998656253
117	0x3fce19b953116cd3	0.2351600318532748
118	0xbfdbde9a3f921324	-0.43546158035342075
119	0xbfd294f7e7eaf3d1	-0.2903423085043047
120	0x3f6fdeb8283fec9e	0.0038903805561836943
121	0xbfd9bad2402f8ac9	-0.40202766674171336
122	0xbfe3b14624d7dae4	-0.6153898925393517
123	0xbfc97c7aa016891f	-0.19911129776762324
124	0xbfc1ffe52f2e358b	-0.1406218033193166
125	0xbfd4160acc92d6a6	-0.3138453481472915
126	0x3fb9fcbe339504b8	0.10151280173615163
127	0xbfcc3c322d377207	-0.2205870362075901
128	0x3fd2a6b1278e6017	0.2914240728655399
129	0x3fcba034321bf0f1	0.2158265347169457
130	0x3fd9ad1f156d9051	0.40119149296356676
131	0x3fc0f061f9485113	0.13233589813229027
132	0x3fd2bb449f177fe9	0.2926799348479095
133	0xbfe3730a5a24e123	-0.6077930222154787
134	0x3fabf526c811dbf1	0.05460473243959275
135	0xbfb70c817f075914	-0.0900345740441007
136	0x3f8cc38c76039d7e	0.014044854499345002
137	0x3fd13ac3ea2f5ed1	0.2692117487872397
138	0x3fc5b0992ee79c6b	0.16945185461301845
139	0xbfb74741f2f50b29	-0.09093105489322952
140	0xbfd6de283b32d46a	-0.3573093965636135
141	0xbfb1923a5fdf2cd1	-0.06863751259440966
142	0x3fc287d9abf82bd8	0.14477082154220855
143	0xbfc95b877257f2d8	-0.1981057461088287
144	0x3fccd33786dc51cb	0.22519582829467163
145	0x3fcf0323edaa031d	0.2422833357304847
146	0x3fc0948533681099	0.12953248033602874
147	0xbff156f64c5e4d55	-1.0837309821261745
148	0x3fc526cbe62895ae	0.165246474630448
149	0xbf96057b0ad82bf3	-0.021505281960383326
150	0x3fb7c2e738a77f2d	0.0928177369419216
151	0xbfe1f7a1a0844f4c	-0.5614784369558747
152	0xbfba711e042e43df	-0.10328853227680622
153	0x3fbf2815a3e717d4	0.12170539142161313
154	0x3fd309069485bf8e	0.297425885240039
155	0x3fc58fbdede4ae43	0.16844915500529298
156	0x3fb521152213f542	0.0825360496709964
157	0xbfbfe6f0d3aaeb10	-0.12461762588183611
158	0xbf78fb5ac8e89c71	-0.006099085453150286
159	0xbfe1bb331dabf7c7	-0.5541015224005087
160	0x3fb5ab5723405b6d	0.08464569674138796
161	0x3fcddb2666134b3c	0.2332504270949246
162	0x3fc323dbbfd44e6f	0.14953181139627555
163	0x3fd4974bbe4513e7	0.32173436718977516
164	0xbfd13b6a3d06c655	-0.26925140342345816
165	0xbfb565271ac9dc78	-0.08357471851364717
166	0x3fca2db5e49a58ef	0.20451997434856348
167	0xbfc923b90f3fd244	-0.19640267605395156
168	0x3fb71206502fd25e	0.09011878450093877
169	0xbfd7bc5eb32cd256	-0.3708721875912365
170	0xbfe37d3762fd506e	-0.609035199488529
171	0x3fda116e27565ac9	0.4073138603356879
172	0xbfc7d39ee0e34158	-0.18614564877362727
173	0xbfc34e02085b9b62	-0.1508181134042515
174	0x3fe123acfa159e45	0.5356049427472916
175	0xbfcced6322df9edc	-0.2259944839745377
176	0x3fc41960105b2d70	0.15702439116135336
177	0xbfe841e51d0dbfce	-0.7580438201384767
178	0x3fa696544b9e5069	0.04411567137791012
179	0xbfdf783463b005a6	-0.4917117093574127
180	0xbfe4262036c76474	-0.6296540326976712
181	0xbfb4391d4278fccb	-0.07899649498812093
182	0x3fa10c0f35076d88	0.03329513094260067
183	0xbfc9b86c90a8f1de	-0.20094067634080565
184	0x3fd0b485efd4c047	0.2610182611560998
185	0x3fbd1588ae12f711	0.11360983133178261
186	0x3fc178c23f39d20d	0.13649776541900885
187	0x3fc29e1348687f66	0.14544907603794427
188	0xbfd1ab5ac9d827c7	-0.27608365737307533
189	0x3fd2086514a7645e	0.2817623807619095
190	0x3fb0e1ac53034c71	0.06594349886590735
191	0x3fc63a22e53828da	0.1736491793856832
192	0x3fc2ac226d7b46a1	0.1458781275346626
193	0x3fa517a6e9a1541f	0.041196075457868846
194	0xbfb9c87573e2281c	-0.10071500853715104
195	0x3fb9b5ca3aff6efc	0.1004301446950499
196	0xbfb61797ebdbbbd8	-0.08629750736484654
197	0x3fd25f95982d71fc	0.28708400593839634
198	0xbfced8a1b3130eaa	-0.2409860729586531
199	0x3faecc87f0c61392	0.06015419782764932
200	0xbfd3ba2f63062cf0	-0.30823883695911913
201	0xbfe843cd18f99057	-0.758276509074231
202	0xbfd67f35ba5abda9	-0.3515142745845546
203	0xbfe38c6ec205c59c	-0.6108926572325575
204	0x3fbf328998b16a16	0.12186489084107452
205	0xbfd0511f6b191713	-0.254951338374995
206	0xbfc2d86f8a9c8cc6	-0.1472300936521604
207	0x3fc6529d30ddfd98	0.1743961800202498
208	0x3f7332a53f02df55	0.004686971180653495
209	0x3fd922cd9d263be8	0.39274921747795455
210	0xbfccb675c2c862eb	-0.22431823740841791
211	0xbfde87428eb57822	-0.47700561462795765
212	0xbfd9746ff299fb2d	-0.3977317685275235
213	0xbfb20dd6de0e743b	-0.07052367135334318
214	0xbf811180dd80fdb6	-0.008334166297685335
215	0xbfa3b22b1dfd8c56	-0.03846869221776987
216	0xbfac82854cf5e070	-0.055683293957316304
217	0xbfdab673422814eb	-0.417385878187203
218	0xbfaa1d92fb083e7b	-0.0510068828044696
219	0xbfe0478f1b1f54dc	-0.5087352304205086
220	0xbffaaecdd1c4fc4a	-1.667676753437052
221	0xbfe2a67222f51b20	-0.5828180964243508
222	0x3fd516385ac38b99	0.3294812094083511
223	0xbfd34a5f73521871	-0.3014143587282723
224	0xbfc57df2fed98d22	-0.16790616458738677
225	0xbfe913b6d4bf44a7	-0.7836565165727237
226	0xbfa45eba1b808f25	-0.03978520951957724
227	0xbfd2d88a72c8b7d4	-0.29446660241489764
228	0x3fc1a0f16ce6f418	0.13772409265030272
229	0x3fd1f1d078dd51ac	0.280384176284566
230	0x3fe2e92f1e6b5ce0	0.5909648508194572
231	0xbfc200e10526069f	-0.140651824487624
232	0xbfde5b33f49a2995	-0.47431658636983204
233	0x3faccd6367b1a76e	0.056254488380388476
234	0xbfc05e76d56721a3	-0.1278828184133661
235	0x3fb98a118bda4a5d	0.09976300873157969
236	0x3fcd86ef99c16e1b	0.2306804180869769
237	0xbfc3d17651d72978	-0.15482977863423364
238	0xbff1c7467d81e55f	-1.111151209128671
239	0xbfdab6302fc3cd80	-0.4173698870137841
240	0xbfc0569e70036d36	-0.12764339894679616
241	0xbf9147d56865f3e7	-0.01687558602997177
242	0xbfcb206f75ba4174	-0.21192734955230785
243	0xbfe9e23cb006ef72	-0.8088668287304996
244	0x3fc9260c2cd57937	0.19647361935762728
245	0x3fb43fef9debc230	0.07910058598987102
246	0x3fc792454280fc45	0.1841513228154971
247	0xbfe6acec453947ce	-0.7086087562586216
248	0x3fe531119729822b	0.6622398331056208
249	0xbfc7543a5b644290	-0.18225793325884299
250	0xbfd19acdf8d55220	-0.2750735216152709
251	0x3fd3497260a60dfb	0.3013578361353379
252	0xbfe3ea0b9b5ef132	-0.6223199877345336
253	0xbfd6e535fca30136	-0.35773992225223894
254	0xbfd6593f7930ad13	-0.34919726214384744
255	0x3fd0193df2207389	0.2515406479376954

weight_2 f8 [32, 64]
0	0x3fbaf2927132bd78	0.1052638555872728
1	0xbf835910c4a3d069	-0.00944722271058414
2	0x3fd153143a4eea2d	0.27069574064413154
3	0xbfc11f6b52dd1a56	-0.13377133890226628
4	0xbfc889a768a236f0	-0.1917008648783205
5	0x3fc8e20ee0317b07	0.1943987459844367
6	0x3fb213cb41bcf6c9	0.0706145320409305
7	0x3fd2876e042997bc	0.2895159760140549
8	0xbf8000074425a430	-0.007812554137403976
9	0xbfb3ef6b6c2a4c45	-0.07787200346710772
10	0x3fc1499b7a615326	0.1350588176307152
11	0x3fc64d2d6a67be07	0.17423026748245737
12	0x3fc2758924810c27	0.14421190531183578
13	0xbfc19b00a768f64d	-0.13754280256573495
14	0x3f9d6b0f699ee687	0.02872871477277397
15	0x3fc37956c3bdd869	0.15214047010130408
16	0xbfcc6165f70b4d0b	-0.2217223602552639
17	0x3fb66cd4f10dc4c0	0.08759814152814993
18	0xbfd619dc31d42ac4	-0.34532837740031774
19	0xbfcf625ee531f41a	-0.2451895350567675
20	0x3fd0f0bc19d6d83b	0.26469328425753574
21	0x3fbe6f1529656548	0.11888248692175296
22	0x3fa9ab95ed632dea	0.05013721964641234
23	0xbfbbf2202d2db4e3	-0.10916329482070668
24	0x3fc1c917ee0c02af	0.138949385866018
25	0xbfbcecbf95bb8210	-0.11298749356820559
26	0x3fc7fc4931b7fb9c	0.18738665511770314
27	0x3fbe66cdcb8e799e	0.11875616283075494
28	0xbf9260a4f96cf77f	-0.017946794246419536
29	0xbfc9b0ae7c0b0c13	-0.20070439392847614
30	0x3fb2bd06e58e35ef	0.07319682220823841
31	0x3f746e94a8b9987f	0.004988270473040512
32	0x3fa3cbda150dbb44	0.03866464144709039
33	0xbfd948b04d0a9294	-0.3950615646702229
34	0xbfcb04ec0cbfd323	-0.21108770964169662
35	0x3fdb87768b7ba0ba	0.4301430093896773
36	0xbfb376d0c89fdc36	-0.07603173158700902
37	0xbfd6ec46da3ddc60	-0.3581711894289068
38	0xbfb682da9d7e907d	-0.08793417306020675
39	0x3fbd51c1c090c1af	0.11452876044564307
40	0xbfb89b0d78f8d978	-0.09611591533107411
41	0x3fc7e9477bf9e090	0.18680661729354542
42	0x3fb9dff6db843dbe	0.10107367381373586
43	0xbfd28c2cb51ecbba	-0.28980558097390097
44	0x3fc59f69e597ea3c	0.16892741881004436
45	0xbfbacb1d930b45df	-0.10466179695074328
46	0x3fae829e04770958	0.059590280575792576
47	0x3fc4e452886d9121	0.16321784650347929
48	0xbfd318dfedd5c669	-0.2983932325942989
49	0x3f89fbc0a7509fe2	0.012687211137816182
50	0x3f6c0ff1d8023ce3	0.0034255717765244594
51	0x3fd3fc1a291ee549	0.3122620965546799
52	0x3fcd3c57d6eba426	0.22840402597583526
53	0xbfc1a9b6f76813a4	-0.13799178200147566
54	0x3fc55c4fa50546c0	0.16687961156508457
55	0x3fd27b49a672e493	0.2887748837925496
56	0x3fb2630f9a68977a	0.07182405013790386
57	0xbfd60a79524fa882	-0.3443892768688174
58	0xbfa06590093c07db	-0.03202486145711677
59	0xbfbdcd7070f5c8ee	-0.11641600377859948
60	0xbfd6b39ea171309e	-0.35471311345896506
61	0xbfe2b114962c0e19	-0.5841162617729793
62	0x3fa7474a14a45806	0.0454657697866168
63	0x3fb255d61618d143	0.07162225760913991
64	0xbfd7bd47cc63b45c	-0.3709277626028944
65	0xbfbb8d320096ab20	-0.10762321962708343
66	0xbfd41d2c679e54bd	-0.3142806064509605
67	0x3fc8eede35381cb6	0.1947896728381459
68	0x3fbcfe2bf1ae5738	0.1132533516923474
69	0xbf92d572455a1c8f	-0.018392358286771823
70	0x3fcb7eaefad4a59c	0.21480357406225614
71	0xbfc846af42ab092f	-0.1896571231391788
72	0xbfd2cb30e237bb1c	-0.29365179149219656
73	0x3fc4b483a22c501c	0.16175885599716444
74	0x3fc0c04366d8ca35	0.1308674099141897
75	0xbfb3bc8308671bc9	-0.07709521250863739
76	0x3fca99f7a55e8de1	0.20782371115374956
77	0xbfd8419164fe37a5	-0.37900194990731456
78	0xbfc6916ca3b9aeea	-0.1763129996719422
79	0xbfdba888ae3559fd	-0.4321614934209775
80	0xbfd5876743c4e17b	-0.3363893663222581
81	0xbfcbb2922d2b63a8	-0.216387054496207
82	0xbfdc9a9f26810b47	-0.4469373584762945
83	0xbfadea213c7c3cec	-0.058426893838367494
84	0xbfb9ffb20616a7e7	-0.10155785225529677
85	0x3fdc3506d9441088	0.4407364961373408
86	0xbf926f74485c83a0	-0.01800328914316973
87	0x3fa767a3833e28c8	0.04571257569394188
88	0x3fbcfc1e0c7ab538	0.11322200588866316
89	0x3fd2b81078dd8d95	0.2924843960119799
90	0xbf7c9d8852f0693b	-0.006986172214079207
91	0x3fc50316d6ca2d1b	0.16415677535801695
92	0xbfd0670fcd4b8b28	-0.25629038856839026
93	0xbfda434396cbc2bd	-0.4103554699532131
94	0x3fbffddccdf2628e	0.12496738460539289
95	0xbfd13645587e3280	-0.26893743173494755
96	0x3fb050bf86010fae	0.06373211881242355
97	0xbfddeaed424bf324	-0.46746379350934064
98	0x3fd1d674c0fca91a	0.27871435972578384
99	0xbfbb2e98446933e2	-0.1061797301310459
100	0x3fd52e424b4dd977	0.33094842294612853
101	0xbfc504daa4d4accc	-0.16421063469292674
102	0x3fc533af19909148	0.16563977001454533
103	0x3fa604c9d1891e6d	0.04300528223808162
104	0x3fc7db6315715b81	0.18638266131412354
105	0x3fc034c9aadbeee4	0.12661095469217465
106	0xbfb1c039e3656d9d	-0.0693393879095567
107	0x3fc387354cd3486f	0.15256372691380046
108	0xbfa64052c0b42525	-0.04345949747409809
109	0xbfc7d0b2d2fac3a5	-0.18605647374854786
110	0xbfc92af2c7d9bd85	-0.19662317999198478
111	0xbfc18f547ae650ed	-0.1371865844818169
112	0xbfd7f179f3d0989b	-0.37411354837457517
113	0xbfc7f4e81d074be3	-0.18716145913512525
114	0x3fca2d111f42837c	0.20450033213003482
115	0xbfc14352af158a9c	-0.1348670344260271
116	0xbfc6ced9a738f74e	-0.1781875673786381
117	0xbfd885d2a8ed4a1b	-0.38316790100830794
118	0xbfe3f412404e4928	-0.6235438590977411
119	0xbfb509389bcb059c	-0.08217195323506704
120	0x3fac9bb7b62e500e	0.055875531185989855
121	0xbfc143d2b52d2b15	-0.1348822960520343
122	0xbfd8419f2f76370d	-0.379005237912552
123	0xbfc25de9edd572e1	-0.14349102128007643
124	0xbfd0e34ba7ac4248	-0.26387301801972685
125	0xbfcf699892a7386b	-0.24541003380585677
126	0xbfba0675c3aa8d4e	-0.10166107203490535
127	0xbfc90e8f5bc54228	-0.1957568357561439
128	0x3faf06f1f67c1d3b	0.0605998624214927
129	0xbfd23b0935bb1ad0	-0.28485327002674143
130	0x3fccdc70eea4ad77	0.22547732975486287
131	0x3fa91a7956e672a8	0.04903010545533465
132	0xbfcf72222d78e946	-0.2456705781967889
133	0xbf94889c679f1095	-0.020052379440827457
134	0x3fb505fa6c7e6f3a	0.08212247036720735
135	0x3f3e8415ead756e2	0.0004656365880156677
136	0x3fc3010d087a6ace	0.14846957124685506
137	0xbfb337ec67b185bb	-0.07507207423761646
138	0xbfc2eb7e9ca983df	-0.14781172418136543
139	0x3fb01580bbb24758	0.06282810766631763
140	0xbfb8696d1419c578	-0.09535867443789481
141	0xbfd0edbc52ca8451	-0.26451023182932426
142	0x3faacf6ffa12b48a	0.052363871838090395
143	0xbfa70205554b2554	-0.04493729273014915
144	0xbf9b6ea08f62d05a	-0.02678919673117295
145	0x3fc0383e29052545	0.1267163944524247
146	0x3fca3e5722ff016e	0.20502747734827714
147	0x3fcb4c2f49326ca9	0.2132624728591044
148	0xbfc341435dd6a069	-0.15042917329742814
149	0xbfb7143e31600422	-0.09015263276525379
150	0xbfc81b749b590b8d	-0.18833787522643455
151	0x3fb6d2b0dc69cf73	0.08915238743958102
152	0xbfb1be7de2826231	-0.06931292324078055
153	0x3fc7a4f062f31750	0.18472103911897841
154	0xbfc0628e40f527d7	-0.12800768062362408
155	0xbfd0ed7829c49a69	-0.2644939811602059
156	0x3f98ea65b89950b1	0.024331654922506277
157	0xbfb5137397bc6980	-0.08232805685512368
158	0x3fc7f60c00cfde7d	0.1871962551083363
159	0x3fd6f86c2bf5b19c	0.35891250889724247
160	0xbfcbf095d983ae12	-0.21827958222216687
161	0x3fd25787d0fd9fee	0.2865924397397056
162	0xbfbdbfe8978ed7f0	-0.116209542275868
163	0x3fd5fefdf059b55c	0.343688473431788
164	0x3fcea41095cedf9d	0.2393818599209653
165	0xbfe4a4e4dea050b7	-0.6451286647957407
166	0xbfbfb6c69f5c2a9a	-0.12388268843293773
167	0x3f87eb36b701c23f	0.011679103336264094
168	0x3fb7b00fbfc44fbb	0.09253023559386879
169	0x3fc7bc3f20a28621	0.18543233006953222
170	0xbf89c9853c620b33	-0.012591401009790814
171	0xbfc17a205fc59f41	-0.1365395038258104
172	0xbfca939bfd936958	-0.20762967950470101
173	0x3fcbc7f9e16a7305	0.21704028612739293
174	0xbf8f3b6c11d7409d	-0.015250057501276887
175	0xbfa7fcc238c3c958	-0.04685027068070963
176	0xbfc05a075cf363bc	-0.12774745977983837
177	0x3fcfaa82631eee1e	0.24739103164562065
178	0xbfc0c946e1ac2f33	-0.13114248294038475
179	0xbfcc41f2f7c02239	-0.2207626065940234
180	0x3fbe08e798c8b89a	0.11732337455825573
181	0x3fb0b7c935c63f6c	0.06530435145236674
182	0xbfbb54d94a5ac428	-0.1067634398011853
183	0xbfdac6bef2fef3ed	-0.41838048677510536
184	0x3fd112bd0e0c8725	0.2667687070080425
185	0x3fbf75861ce5a75b	0.12288702207083928
186	0xbfb5b530c962a75b	-0.08479599873194614
187	0x3fc02d09eb38916f	0.12637447343253025
188	0xbf5b22d7bd62ebc1	-0.0016562563737767407
189	0xbfd2ec0fb5abe5c4	-0.29565804234843207
190	0x3fcd18ea4a5055eb	0.22732285145381978
191	0xbfd6a5bdcef822b3	-0.3538660546478624
192	0xbfb72dc293b5551c	-0.09054199319992445
193	0xbfd012a1d670bb98	-0.2511372179168858
194	0x3fd11992132019f0	0.26718570583071166
195	0xbfae6384a6783bc2	-0.05935301334476818
196	0x3fd128dda7e5bc26	0.2681192531226223
197	0x3fd4ab2907c9d277	0.3229467941339758
198	0xbfdb7d11d507602f	-0.4295086460456358
199	0xbfd6ceca5ea232e9	-0.3563714908748766
200	0x3fb80303d4a5f2ea	0.09379600469214791
201	0xbfcf133ed7bddb57	-0.24277482542285142
202	0x3fc5a354608ef948	0.1690469237782486
203	0xbf9b9227eff8815f	-0.026924728414202345
204	0xbfc4196570c15a03	-0.15702503209713833
205	0xbfd633e301a85c60	-0.3469169155300218
206	0x3fdc797d42132e47	0.44491511776570686
207	0xbfe403949be19fb7	-0.625437073188542
208	0xbfd4ed710edcb6ff	-0.3269922871721604
209	0x3f90d7a75ef6fee1	0.016447653933709176
210	0xbfd657bdca4723d6	-0.349105308091166
211	0x3f8e4a91b2ab8de8	0.014790666832999969
212	0x3fe263b9ce775ab6	0.5746735603850854
213	0xbf67801043592d71	-0.002868682636096125
214	0xbfef6f10f7b00b91	-0.9823078954362804
215	0x3fc33b82d4e33fec	0.1502536334505743
216	0x3fc6ed0593b5a186	0.17910833084466676
217	0x3fa1890e6338acdf	0.03424878083418447
218	0xbfc89e8413839255	-0.19233752205686253
219	0x3fca4d4bb1542353	0.20548387678743527
220	0x3fc8be775f8db65c	0.19331257024480208
221	0xbfc82330e9d7acb6	-0.1885739461716633
222	0xbfd2c3538b258be7	-0.29317177380124665
223	0xbfda5ff6e1cc0447	-0.41210720110399673
224	0xbfd8f08a8f116b2d	-0.3896814725064129
225	0xbfc1efb5576f55a2	-0.14012781876833197
226	0xbfb35a7d1545e278	-0.07559949654922515
227	0xbfd93fcf4d7a31a2	-0.394519639646001
228	0xbfc4e1ca438a9380	-0.1631405668059891
229	0xbfb91dfe5662a041	-0.09811391457572062
230	0x3fc11c520c96f996	0.13367677321180044
231	0xbfdab44cfcb52419	-0.41725468328928766
232	0xbfdd99f14b17d561	-0.4625209077197124
233	0x3fcb5073f66ea378	0.21339273007222537
234	0x3fbd208a37310128	0.11377776954123375
235	0xbfbdfa248412bff5	-0.11709812378353475
236	0x3fc59b43353a5722	0.16880073641794363
237	0xbfc077b1982c22c0	-0.1286527627019236
238	0xbfcfc115facdb26d	-0.248080012762688
239	0x3fa012184b529acd	0.031388053126013206
240	0xbfcd918c6929db85	-0.23100428709923562
241	0xbfc04441dc9453e3	-0.1270830466316105
242	0x3fc21691257d0766	0.14131368952262874
243	0x3fb1e829c066af82	0.06994877764981136
244	0xbfdf2362df754813	-0.48653480360110385
245	0xbfd4e50849e0845a	-0.32647902693321884
246	0xbfbd536f34d2979e	-0.11455435790648358
247	0x3f90a9c4d02c9ca7	0.016272616582821666
248	0xbfd6ce965755baa0	-0.3563590863113095
249	0xbfdfd438b645c262	-0.49732797431992115
250	0xbfb6abbb3613ee0b	-0.08855791158924135
251	0x3fd8d4ebb9979fb6	0.3879956543373696
252	0xbfc27e35e4e0092e	-0.14447663951438855
253	0xbfdcb08a667a41ff	-0.4482751847035899
254	0xbfe189ee5498e77d	-0.5480872776308697
255	0xbfd2783c42ebd260	-0.28858858618995065

weight_3 f8 [62, 32]
0	0xbfea5158616e0920	-0.822429838459616
1	0xbfcb2efbfc81f3a9	-0.2123713477084526
2	0xbff07384b7ec0862	-1.0282027420476187
3	0xbfd28d659c8ce5f8	-0.289880183106646
4	0x3fdd892adcfd31ad	0.46149703579865325
5	0xbfdda07b4bbd5a8c	-0.46292002102328733
6	0x3fd9cf04bdf60eff	0.4032604079331889
7	0xbfc2c7e75ad64265	-0.14672557769201258
8	0xbfbff518115c5890	-0.1248335878738962
9	0xbf943c17d7bd3b93	-0.019760487120318592
10	0x3fe851801d775bdb	0.759948785353909
11	0xbfe365d869bb581c	-0.6061822953295208
12	0xbfd0b3b713567446	-0.260968941578373
13	0xbfc5e558a05b9efb	-0.1710615904805691
14	0x3fe407144a214482	0.6258641670084588
15	0xbfd85ffe9e55cc23	-0.38085904562393774
16	0x3faf19eb21565d70	0.06074461729002223
17	0xbfc528182691237f	-0.16528608210708381
18	0xbfd6deda6651e846	-0.35735187523062384
19	0xbfd01ca93044d28e	-0.25174932206872647
20	0x3ff0af7908587329	1.0428400350567222
21	0xbfe1de225e99486c	-0.5583659980423028
22	0x3fe3bdf6accde88f	0.6169389128765647
23	0xbfbbe3eebc213c65	-0.10894672482503294
24	0xbfcecade23c94e8d	-0.24056603190785034
25	0x3f889682e49f5118	0.01200582752418504
26	0x3f956e330a0e67f6	0.020928189743791813
27	0xbfcfadb18c3fdc58	-0.24748820636861768
28	0xbfcc1dc8f0acad91	-0.21965896369634355
29	0xbfdff1317d0761be	-0.49909627160880266
30	0xbfd685c051013a46	-0.35191352759003214
31	0xbfcbc459244c2e0d	-0.21692957184164677
32	0x3fe017e05d536e26	0.5029146025439715
33	0xbfe14b2983d4be2c	-0.5404250693154089
34	0x3ff1d51976dff8a7	1.1145262378263767
35	0x3fb61289ac68aa8d	0.0862203641815233
36	0xbfe29dcdc03344c9	-0.5817631486808291
37	0x3faff7bdcaf39eca	0.062436991714830706
38	0xbfb78da4e1d3ea11	-0.09200506699918544
39	0xbfd5180658f9638f	-0.3295913571251327
40	0x3fa2d6753e703561	0.03679243457018334
41	0xbfc07fd743279b11	-0.12890139369047707
42	0xbfd407ce515cd520	-0.3129764360958962
43	0xbfe079a23b737e80	-0.5148478661685232
44	0xbfbb5208928436e8	-0.10672048165380554
45	0xbfd76ee677ab34d8	-0.36614381491092507
46	0xbfb6ed4f0a10f955	-0.08955854411849391
47	0xbfd4a7516c5322c4	-0.3227122838839416
48	0xbfe1e60b3c038bac	-0.5593315288682468
49	0xbfcc45ee69ee865a	-0.22088413402984736
50	0x3fdca5c3bf4a89b9	0.44761747055795414
51	0x3fda96c44a6c7e7b	0.41545207279157353
52	0xbfc6730261861320	-0.17538480531597944
53	0xbfe0fb81b797791a	-0.530701502397082
54	0x3fe19ff2bb098a3b	0.5507749226638404
55	0x3fd50e7fd7969ea5	0.32900997212935074
56	0x3fd1f6f3154372eb	0.2806976039553734
57	0xbfba67a2d69cc7b2	-0.10314386119423949
58	0x3ff1cb4d7bf83d0b	1.1121344416204149
59	0x3fa4f297d0b960ce	0.0409133379259302
60	0xbfc651a1fbffd066	-0.17436623387004885
61	0x3fade424a624b6c3	0.058381219178369935
62	0xbfdeebcd4f882a4e	-0.4831422115973155
63	0x3fc25ee5c0d67f37	0.14352104106819194
64	0x3fe823411cc83292	0.7543035089634762
65	0xbfd812969d3245bc	-0.3761345419998994
66	0xbfc2f049e8f21142	-0.14795802950187392
67	0x3f9be4e393a269d7	0.027240329633608198
68	0xbfe5f8b10f96e4b0	-0.6866078667145725
69	0xbfd4185a6a3c26a8	-0.3139864003611401
70	0xbfdf2b6d4df17163	-0.48702557193407453
71	0x3fc0bcdc3768a985	0.13076355653295138
72	0xbfd2e8a890944453	-0.2954503452211316
73	0x3fc19f21e4ebfe91	0.137668835428475
74	0xbfb28a33a8d2c9f6	-0.07242129203476808
75	0xbfb3c593d1fa7ffb	-0.07723354221752736
76	0x3fcd0018abe8282a	0.22656544107332027
77	0x3fd26bf5f76b0055	0.28783940469657426
78	0x3fd2ae8ac3959d48	0.291903201103612
79	0xbfce5861db6cc813	-0.23707221235378081
80	0xbf9af88799ed941e	-0.026338690538427405
81	0xbfd402f5021a68d5	-0.31268048482310223
82	0xbfc0bc1f28bf41a9	-0.13074101914982109
83	0x3fd0f31976472045	0.2648376135880464
84	0x3fdd10755e9e9adb	0.4541295455950782
85	0xbfe2e5513a3c242d	-0.5904928338433187
86	0x3fd1bd8091542193	0.27719129745721566
87	0xbfbfb649a97b8a8f	-0.12387524020918249
88	0xbfd7590cafb9fcd0	-0.36481015358726854
89	0xbfd3e7c048546c0d	-0.3110199648232886
90	0x3fb38d8e8c1375f9	0.07637873573136024
91	0x3fd4d6ab16363950	0.3256023137008883
92	0x3fcf658f4a8d26ee	0.24528685703472014
93	0x3fd3293ddeda4292	0.29939219248721216
94	0x3fe3a968793d9077	0.6144296997049555
95	0x3fe7bb79e5eadfac	0.741635273988313
96	0xbfe087c69e6783f4	-0.5165742009959318
97	0x3fb5f0799ef0e2fa	0.08570060854334463
98	0x3fda7ddd0f8f0799	0.413932099527409
99	0x3fa0fc0a7061119a	0.03317291852775668
100	0xbfde0680d23327a5	-0.46914692427946597
101	0xbfe1d951de1661fc	-0.5577782952923935
102	0xbfe0da49fdb043d6	-0.5266466097692681
103	0x3fd919c95a82833e	0.39219888533448344
104	0x3f55630c76ab016d	0.0013053533281635846
105	0x3fd85f17417e701b	0.38080388446701513
106	0x3fda89b480723748	0.414654851375293
107	0xbfd22ae08be90b71	-0.2838670126258683
108	0xbfc38aced6c39720	-0.1526735829021897
109	0x3fd2461c267ae5a2	0.28552917249506937
110	0x3fe5e28232b7b4fd	0.6838999739244681
111	0x3fda506ede86c7b8	0.41115924578764007
112	0xbfda4f4bb9f06c3f	-0.4110898319065121
113	0xbfded25a5bde0ec6	-0.48158892604281467
114	0xbfca3e756e616fd9	-0.20503108873060574
115	0x3fc52dc76030ee2c	0.165459558456733
116	0xbfaf5e47f36b24d6	-0.06126618238847363
117	0xbfd118298b684649	-0.26709974874492964
118	0xbfdce7653a1e6e5e	-0.45162325549765636
119	0xbfd4cc1179dbd633	-0.32495533848063757
120	0xbfe72236068df94c	-0.7229261520404093
121	0xbfd250bc86e74cc9	-0.2861777608315604
122	0xbfb65c1fd062ebae	-0.0873432048564797
123	0xbfc34ee59e1e4d79	-0.15084524365066068
124	0xbfb651b83ed02259	-0.087184443793498
125	0x3fbb3376da9406a7	0.10625403248198016
126	0x3fef56b22052f9cb	0.979332984097533
127	0x3fc83f2758a266c0	0.18942729785776713
128	0xbfc650f5dac8ff75	-0.1743457144057136
129	0xbfc5996afca5eccd	-0.1687444432862776
130	0x3fd3e4f13d7b337c	0.31084853176144356
131	0x3fc9d927cf8c580a	0.20193956026258802
132	0x3fe89c8e496b4f99	0.7691108163803505
133	0xbfca76616dc55671	-0.20673768863587186
134	0x3fe69c479287e7c8	0.7065770971232661
135	0x3fd726c4c83dd9d4	0.36174125246853106
136	0x3fd47f673ce286a1	0.32027607866084834
137	0xbfaf2cac3090461b	-0.06088770001236928
138	0xbfd3b4366ab0120e	-0.30787430208900524
139	0xbfc3424c79070eb8	-0.15046077642010913
140	0x3fbf6b48dca23883	0.12273078333439184
141	0xbfb94e0dc17dd37d	-0.0988472554580095
142	0x3fb546c5c485419a	0.08311115310539777
143	0xbfcfbdfaa6d01106	-0.24798520226625714
144	0xbfca3cee245bed7c	-0.2049844434294349
145	0xbfd1a9c4b0f9064a	-0.27598683626647313
146	0xbfdda6a32f73b7b0	-0.4632957423590325
147	0xbfce86ed3fc280fd	-0.2384926377608351
148	0xbfd21b1bd21c2df9	-0.28290458220064313
149	0x3fe9f4cc1391097f	0.811132467475815
150	0x3fdb1cf041bc7a21	0.4236412660556273
151	0x3fd0893436158cf0	0.2583742645421827
152	0x3faf0bc806b36a3a	0.06063675958440169
153	0xbfdaf0a09825ad2e	-0.42093672617075384
154	0xbfc3ef6c45f028ef	-0.15574410834262362
155	0x3fe7250d5ae827fc	0.7232729697727787
156	0x3fe117a17d29e6d8	0.5341346211054896
157	0xbfd445dc9d811b1f	-0.31676402455598124
158	0xbfa12b6f505adca2	-0.033534506377173715
159	0xbfca7b12d66f69f5	-0.2068809077307631
160	0xbfe2f0f060b3ff1a	-0.5919114960415499
161	0x3fc6c9e835cd2816	0.17803671481152666
162	0x3fd1d3603025bf5f	0.2785263509931521
163	0x3fd590868aa7065b	0.3369461397197477
164	0xbfeb46cc789281a1	-0.8523924212386654
165	0xbfa8673226ec043e	-0.047662322283948275
166	0x3fe141837cefab04	0.5392472686920375
167	0xbfc142bfa37d6516	-0.13484950526143596
168	0xbfd16da5cf8409fd	-0.27231736436092985
169	0x3fd2e87c03cbdab0	0.29543972368939375
170	0x3fe8195c8ede3fe3	0.7530958929437442
171	0xbf91660ee7be1418	-0.01699088372653898
172	0xbfdb242ee08f5912	-0.4240834420173921
173	0x3fe93af180dc4e8b	0.788445235901649
174	0xbfc7fb7f2c037908	-0.18736257218456154
175	0x3fe3bffe36df95d7	0.6171866485353189
176	0x3fd4b5b8ab5f60fb	0.3235913919029511
177	0x3fbf87e0a9d46884	0.12316707750543016
178	0xbfbb48d289def496	-0.10657993188847778
179	0xbfaa64811a15043a	-0.05154803698906858
180	0xbfd391728cec1b5c	-0.3057524086183798
181	0xbfc2157efd0b81e9	-0.14128100734434604
182	0xbfaa3bb3feaeaaa8	-0.05123674854197208
183	0x3fbb66398538c744	0.10702857496724244
184	0xbfe187a096a7a01b	-0.5478060667492203
185	0xbfc3abd27e864d20	-0.15368109872779545
186	0xbfd86088842f6502	-0.3808919230337581
187	0x3fd1146adb6c10ea	0.2668711798471707
188	0xbfbf301542c1bbea	-0.12182743911556285
189	0x3fda646a4156a677	0.4123788488455839
190	0x3fe30559bc21d41f	0.5944031404930036
191	0xbfbd16bdfa5aaafc	-0.11362826692736044
192	0x3fca8327111e6e78	0.20712745986826397
193	0x3fe53dc985f5c4ce	0.6637923828513068
194	0xbfe4d9914e79b463	-0.6515585453722789
195	0x3fd3841dfc796f65	0.3049387898988612
196	0x3fc1dec4174ca94c	0.13961077821415768
197	0x3fc69bb27c70f921	0.17662650181041165
198	0x3feb98a3dbedba73	0.862382821605776
199	0xbfdb6f677f1a3812	-0.4286745778307487
200	0xbfd2ee1a8109dd1b	-0.2957826862470527
201	0x3fbe39886c3482d7	0.11806538240172003
202	0x3fe52665b7538f32	0.6609371739000152
203	0xbf87e30c1bc39f04	-0.011663527104658573
204	0xbfdfd6b50e9f526c	-0.49747969081844334
205	0x3fdb28b850c421c0	0.4243603504878841
206	0xbfbab13ca33dcaf4	-0.10426691995034415
207	0xbfe29e73e34337fa	-0.5818423689577223
208	0xbfc01f3307e494dd	-0.12595212827105842
209	0xbfd0db6607fa354a	-0.26339102534332837
210	0x3f8dd19872db28c3	0.014559927945260736
211	0xbf82c9db3d516628	-0.009174073036933697
212	0xbfc78d1c64e02e78	-0.18399386334964496
213	0xbfd20d571ae684e7	-0.28206422450064256
214	0xbfbbf8f8dce5fae5	-0.10926776307131154
215	0x3fd55ddabcec5df0	0.3338534207300361
216	0x3fd10a102dc816ba	0.2662392088972002
217	0xbfc7f431ee18a738	-0.18713974118991827
218	0x3fc46389633f2e68	0.15928761812243697
219	0xbfd45796c40aafa2	-0.31784600395871554
220	0xbfe115f0b3e029e0	-0.5339282525249551
221	0xbfc220d5b5278d98	-0.141627038435314
222	0xbfd0a268ff4a458d	-0.2599127286021819
223	0xbf9b4d6dc97bf0cc	-0.02666255514394393
224	0xbfabc7cd45ca22c1	-0.054258742112386134
225	0xbfc237f402ce8666	-0.14233255517051474
226	0x3feb942ae760723b	0.8618368643834126
227	0xbfc639d5b3d3d9a5	-0.17363997727052297
228	0x3fc6b3471e8fdafc	0.1773461245754432
229	0xbf86a180a485c639	-0.011050229092435792
230	0xbfa9230eced86ffe	-0.04909559512108784
231	0x3fea92c62d83aab1	0.8304167641593577
232	0x3fd79607cb66f06a	0.3685321318005267
233	0xbfc515bf3c59eeb0	-0.16472616621819247
234	0xbfe265a66cdb3313	-0.5749084592913242
235	0xbfd87cfb4fd7668a	-0.3826282767964605
236	0x3fe0972c4f3eb3f5	0.5184537456276518
237	0x3fb40bef91f9e5bd	0.07830712617751252
238	0xbfbdb5a7a2625dcc	-0.11605308260401798
239	0xbfc4496e599373aa	-0.15849093793704344
240	0xbfd14b58cc912b78	-0.2702238080716408
241	0xbfcfb4e09d924ae2	-0.247707440318286
242	0xbf9fd8a402f70731	-0.031099856072393798
243	0xbfc0ff651157c58a	-0.1327940306360172
244	0x3fe1538fe18693c9	0.5414504437254603
245	0xbfc0ae3d4354ccf5	-0.13031736171397026
246	0x3f8c770ceac7a836	0.013898945727266559
247	0xbfcaefb23820a7e6	-0.21043994656184778
248	0xbfe03aee96fa8cf6	-0.5071938465884205
249	0xbfd9c2f3732425d4	-0.40252386326082257
250	0x3fbb48b3a2b5ee0a	0.10657808992794329
251	0x3fbc3f4fb6c12820	0.11034105502872693
252	0x3fe27b2944c8ae16	0.5775343268809958
253	0x3fd4c7a34b3c88a7	0.3246849283915573
254	0x3fbe6cffee933429	0.11885070395074195
255	0xbfb519ab486501e4	-0.08242292897649112

bias_0 f8 [128]
0	0x3fd0432f523cc0e4	0.25410063773143876
1	0x3fdee96050931a33	0.4829941546308049
2	0x3fe3f97704dba4aa	0.6242022604830215
3	0xbfc56235ddb472d1	-0.1670596439879746
4	0xbfeba5e784e13055	-0.8640019984536688
5	0x3fd00e5b1707e4a5	0.25087620972733254
6	0xbfe7f6975798882d	-0.7488514624458326
7	0xbfbda3020e55e3e0	-0.11576855516422269
8	0x3ff0b5c631479be1	1.0443784642209197
9	0xbffa2848a9333855	-1.6348349198701915
10	0x3fda3bf759f11135	0.40991004737249465
11	0xbf79c29381d2c65c	-0.0062890779492349135
12	0xbfda04ef294f195e	-0.40655116113739165
13	0x3ff3ae13581d84fc	1.2299989168171228
14	0xbf8dc1858bbabb6d	-0.014529269530013622
15	0xbfbc2ed2246a8372	-0.11008942975105443
16	0x3fe1b89e85cf7bda	0.5537865270124442
17	0x3fe777b8b014690b	0.7333644331986603
18	0x3fe301ce2a0bc7c0	0.5939703770838989
19	0x3fe942ce641a97d0	0.7894050555375944
20	0x3fd7b9a577896d30	0.3707059542991429
21	0x3fd2e7c1a2a9f448	0.29539528737206355
22	0x3fd9081af2537630	0.3911197058167515
23	0xbfded0da10b4a538	-0.4814973033085894
24	0x3fe6b93b744a99c1	0.7101113578144621
25	0xbfd9147ea8b75990	-0.3918759009951822
26	0xbfe610d10011e248	-0.689552784096187
27	0xbfa5376b6404ed95	-0.041438442191487436
28	0xbfbbadf86fe8429d	-0.10812332851515767
29	0x3ffe9a01d6795099	1.9125994089018035
30	0xbfd90e74d35958c8	-0.3915073455767808
31	0x3ff0739271813a23	1.0282158311635008
32	0xbff7e57a6f8119b1	-1.4935249667774821
33	0xbfe134ebb9f45383	-0.5377100593492375
34	0x3fa5454025078df7	0.04154396488209138
35	0x3fe0ac5296c611e8	0.5210354752348936
36	0x3fc547f5c7053afe	0.16625854699892523
37	0xbfb2bc0b8e9d5701	-0.0731818411998937
38	0xbfc15e366ecf0797	-0.13568764124471208
39	0x3fd4bba017e8ae7e	0.32395174345831623
40	0x3fc4e74688c45018	0.16330796888416965
41	0x3fb6637b3f6d9232	0.08745546625647974
42	0xbfe05be6ec4bff96	-0.511218511121103
43	0x3fe8dd3f09f3172c	0.7770075983359894
44	0xbfe14ab4aa95d210	-0.54036935155324
45	0x3fca483c308ff8bc	0.2053294407959977
46	0xbfe842bd9c2cf080	-0.7581470537475212
47	0xbfc7d63c48d15a86	-0.18622544818454773
48	0xbfebc6d3ff7891e5	-0.8680210103671554
49	0xbfc969e135841944	-0.19854369271360828
50	0x3f96d2416d7ae691	0.022286436373838262
51	0x3fdbbce90f1ad974	0.4334051749714469
52	0x3ff1154e87fbf2f7	1.0677018463022117
53	0xbfef31cca0bf8ff7	-0.974829019509797
54	0xbfecc06ab5ef0e9e	-0.8984883836169109
55	0x3fe1a2caddc97529	0.5511221248413324
56	0x3fb136adad07873d	0.06724057649946942
57	0xbff145154f4cbf23	-1.0793660257003885
58	0x3f9e1ba11d788eba	0.02940227262855786
59	0xbfea1bb88d677752	-0.8158838998603903
60	0xbfc064a3a7f09689	-0.12807126712975883
61	0xbfd5f6c6907bef8c	-0.3431869898774884
62	0xbfc5738d16229885	-0.16758884030167934
63	0xbfd36f69d1b0b0f1	-0.3036751315837725
64	0xbfe7520ead77c372	-0.7287667644542195
65	0xbff06af4d4466037	-1.0261123935688496
66	0x3fd471ae234ccf4f	0.3194384903647362
67	0xbff15fde63fa52b0	-1.0859054475196608
68	0xbfe0e9839e81ede8	-0.5285051437235184
69	0xbfd85d42c2c4045e	-0.3806921865471561
70	0xbfe57c92cc0c080e	-0.6714567170422485
71	0x3fc52393021cc8a9	0.16514813998361902
72	0xbfb640f125bddeab	-0.08692843600681026
73	0xbfe4b347fde71a39	-0.6468849143064467
74	0xbfaf48947e837ae7	-0.06110061687808415
75	0x3fdcb1a3787ddf7a	0.44834219710127565
76	0xbfea3f4b83be2c2e	-0.8202264378645674
77	0xbf946a0df407cb70	-0.019935815829693337
78	0xbfc9a3bebd4663c7	-0.20030960313741117
79	0xbfe10db339611df5	-0.5329223747912112
80	0xbfd97d1e136d94e7	-0.3982615651824077
81	0xbfd89c99fa32ec1e	-0.38455819543350056
82	0xbfec5faa3f75c5a6	-0.8866778602079435
83	0x3fe14f10c5f9bd79	0.5409015528402242
84	0xbfc34d3b885f6e0d	-0.15079445036722952
85	0x3fd82db062f9011d	0.37778863587665673
86	0xbff151aca0ea17e6	-1.0824400220603763
87	0x3fd4ae3d8fce4f6b	0.3231347946505056
88	0xbfbff62fe7facc48	-0.12485026753965756
89	0xbfdc31f05ab970bb	-0.44054802760889417
90	0x3fb0ba64ef8b5508	0.06534415100334823
91	0xbfe2af633bc33bcf	-0.5839096228827375
92	0xbfe0f9bdbf481860	-0.5304859863251856
93	0xbfe362b65cfe125e	-0.605799848199762
94	0x3f71ca51a6a9d2ea	0.004343337010699536
95	0xbfe3ce1df4a8ef9e	-0.6189107683671755
96	0x3fcf5d32fa9396e4	0.24503171191388795
97	0x3febe9c1d6d33ed4	0.8722848125271079
98	0xbfc56e33355db5fd	-0.16742553811802444
99	0xbfe065edfc66c1da	-0.512442582103229
100	0xbfe51b1f0eb3cfd3	-0.6595607077747395
101	0xbfeac8da2a94dc2f	-0.8370180923146843
102	0x3fcfb588d0b5c2e6	0.24772749129217358
103	0xbff27a8920ab8b0d	-1.1549159313369188
104	0xbfd64a68402ba42d	-0.3482914568581375
105	0xbfec1fd086556008	-0.878883612032042
106	0x3fd6dc5b2ba07405	0.3571994710962943
107	0x3f96aeb798a62717	0.022150868122060432
108	0xbfec7f824dac9e1a	-0.8905650631977011
109	0xbff973ad5146e760	-1.5907414603120387
110	0x3ff512f9fef8c90b	1.317132945998824
111	0xbfe76141023e40a7	-0.7306218189060204
112	0x3fe1acf9ecb4f11a	0.5523652671031727
113	0x3ff05b0b794642af	1.0222277390750312
114	0xbfee4d0c49c352f4	-0.9469052735026637
115	0x3fd09bb0b2cd2137	0.2595025774103478
116	0xbfe1e9e4fc66b9fa	-0.5598015718185814
117	0xbfe653fb92af7be8	-0.697751795287215
118	0xbfecac5aa6c88cfe	-0.8960393197525318
119	0x3ff5e5de57951985	1.3686202450931841
120	0xbfdf07b8652ab0b2	-0.4848462093311908
121	0xbff00f3dec9166da	-1.0037211647926854
122	0xbfe591a9fcf2811e	-0.6740312519432654
123	0xbfd8b1c1a4f92a40	-0.38584939108537597
124	0x3fee2db19b2ded0f	0.9430778532836558
125	0xbfe3cf32148be987	-0.6190424348163085
126	0xbfdd80093b85a226	-0.46093970120139927
127	0xbfc9ef436e948aa5	-0.20261423968721207
