test/trained_model.npz (npz, 502710 bytes, 8 tensors)

weight_0 f8 [64, 784]
0.0778572256464779 0.3955598755336077 -0.44577224584138164 0.03580340892192535 -0.48493065285376336 0.11972316615057055 0.4506217239101463 -0.4609238066443381
0.32102144519502873 -0.23035574478875476 -0.30847626994728805 -0.3204773234110825 0.47773500868911534 -0.21090537858505046 -0.04800928847215902 -0.28884673652822473
-0.06586980179808076 0.2876221495107093 -0.42315440889781614 0.2690394188404213 -0.015093612578904044 -0.19590184806278405 0.20797725537579412 -0.22692844811825105
-0.312016496681721 0.04111066768661342 -0.22688498811465574 -0.43502781290781234 0.4991964847267292 -0.22885617562718852 0.2652340590994322 0.41233531320492617
-0.3041484952620641 -0.34496102603890894 -0.30662269575515855 0.3983752836185504 0.13489076897314653 -0.303448506826759 0.01072101553366881 -0.1960452261724858
-0.265969888526339 0.06048422475214857 -0.21604513867426806 0.4933676651731799 -0.201981657582832 0.04184284433243508 -0.06623591361668604 -0.40278490304146525
-0.24640330511146646 0.38550355412199055 -0.46236002939362036 -0.13512397789627517 0.42216097697460114 0.40170656744208455 -0.30156736139376045 -0.037388594005598595
0.06516154892685522 0.3823629149878596 -0.34303412896714397 -0.07678470768040958 0.23579355191883591 -0.08489111212422562 -0.3862673313685464 0.2700329706954682
-0.3208763426991281 -0.015369442643427735 0.40197207733092655 -0.4133484425252595 -0.23986665967101362 0.06574001609334228 0.34266403189474665 0.011834606350824528
0.05059066145477761 0.3008460898511334 -0.30866306681534833 0.15430457818626808 -0.22651445758094432 0.4408871996198153 -0.16256669964787215 -0.020051797017961275
-0.24210277505787897 -0.033976038112697886 -0.41565540686937447 0.12729437530218393 0.2785342968034165 -0.20877403796989344 -0.2777798431003324 0.10865822574140954
0.3928784331699008 0.15565780114157168 0.08627144158632999 0.14642012691165943 -0.25594558129780237 0.08870396445937366 0.3987730513307251 0.07446719028493415
0.4419929836624013 -0.1093067830916907 0.05058846481239609 0.4255848791448229 0.0006110794818948945 -0.25083725494062986 0.10164387606054831 -0.1740452075483017
0.19000929869973068 0.04236927641239489 0.03410588770245845 0.46314804223672545 0.5213982439268823 0.42525675017435777 0.22722524228447127 -0.36944370398652276
-0.04445374460259116 0.3029992166967927 0.18358754186852538 0.20299121920081817 -0.41303701795937614 0.36308426082841977 -0.257446898153394 -0.3599739229542062
0.2775674461114404 -0.04734292274152195 -0.05244399804151087 -0.42241634762407676 -0.045423952193748125 -0.0884951478435053 -0.18447219454031824 0.22647940849249146
-0.1307730495126205 0.07254362983065755 0.029210789118310404 -0.0910470526535853 0.06096409377497624 0.145162826447498 -0.21643139749226215 0.08754024685674348
0.01543505630808635 0.49201609451249617 0.209322773280183 -0.47071836834081776 0.22524099204314219 -0.46204397153954246 -0.08216037641849941 -0.09010202262490402
0.08388593609127495 0.2426454945460416 0.18294474168134797 -0.06509381511895494 -0.26540909948837216 0.06617651065179939 0.19818335122069436 0.3031449167891409
0.01176043504278052 -0.06287143320085091 0.28417163267159073 -0.11293291641783532 0.0022582395737062453 -0.18188885895505605 0.06462004890280751 -0.005782527584167693
-0.07930633846336103 0.34278909572742466 -0.23139242372096647 0.08334735585184873 0.7705071494094243 -0.05941655533284748 -0.27992988808475383 -0.07144074924903793
-0.3249135075578729 -0.004759216864551246 -0.4118203022705121 0.3024329508785038 -0.37582460227252423 -0.46915251267229185 0.09510180984476264 -0.13641088009508953
0.47301673380154224 -0.28335131137294206 0.10243159966649998 -0.12442659967657657 0.30850696142709133 -0.3460867655803713 0.17755071088059404 -0.2222479569115387
-0.0026686336682406712 -0.21169320245558976 -0.2742044907919918 0.014920093612872774 -0.17910707477725674 -0.037584210036784714 -0.09898791591096355 0.055153200982669376
0.2149993437049163 -0.026384157809231402 -0.37734807997188635 0.47153903086875154 0.09391767875077421 0.14677640660742483 0.4198047383778239 0.06855083616936354
0.05300098597965462 0.25439376784469897 -0.11051091225214153 0.49106211894490487 -0.3725728146952028 -0.010909755016774075 0.38923773693489216 -0.0968366414831687
0.22156952357800522 0.11336274143645492 0.08167138347051867 0.3059688565661126 0.4295217909307137 0.3996674279379247 0.1185054200643611 0.16536687508842857
-0.11536364890803458 0.2220263134214635 0.06356348172578677 0.0884047779610261 0.12277285286952612 0.2779733612494788 0.20854568169140467 0.23097519193675753
-0.1253711068418816 0.27220784903081496 -0.023564281285808182 0.3828552269430541 0.3080795953386886 -0.328498575683253 -0.2250482724872034 -0.032997031447718254
0.35523917688286005 0.11519850562015056 -0.1676320374206731 -0.148933411844222 0.26626681932540613 -0.2677084499793116 -0.1014058244716702 -0.00867004123536106
-0.18948782679859077 -0.11736446833016842 0.1888411509034625 0.22308915486117978 -0.08898914867064382 0.26944379775376226 0.015313623630234226 -0.2218833077037486
-0.025418763390245392 -0.22269366403628868 0.03243483697195035 0.2504206325739111 0.08158343316246397 0.30503133290806117 -0.39833030302387734 -0.13227587334170748
00000000: a8ae e87d 73ee b33f 0eb5 415e da50 d93f
00000010: ee9a 5650 8887 dcbf 105a cf0c d354 a23f
00000020: 106e b593 1a09 dfbf d8b5 306b 2da6 be3f
00000030: 06eb c37f fcd6 dc3f 7e0e df90 c67f ddbf
00000040: f658 1b88 9d8b d43f 481e 280b 4c7c cdbf
00000050: bc00 c140 13be d3bf f440 ca51 b382 d4bf
00000060: 7256 9edb 3593 de3f 9561 c98b f2fe cabf
00000070: 40c8 c867 ac94 a8bf c37b bc05 777c d2bf
00000080: 4f4a 84e4 d7dc b0bf ee3c 70bb 6668 d23f
00000090: 0df5 d73a f614 dbbf 0149 501c f137 d13f
000000a0: 7135 3d63 66e9 8ebf 4eeb 53cf 4f13 c9bf
000000b0: e74f 13ab ff9e ca3f 0397 99cb fd0b cdbf
000000c0: f9de 430a 14f8 d3bf 1022 761a 750c a53f
000000d0: 18f1 f339 910a cdbf 8686 52e5 7ed7 dbbf
000000e0: 5c7c 0bd0 d5f2 df3f 5838 e7be 284b cdbf
000000f0: 5c83 6746 98f9 d03f 69de 4ca7 b363 da3f
00000100: a4cd 1140 2b77 d3bf 79d4 4e69 d713 d6bf
00000110: 74b4 9ecc b49f d3bf 1d4a ab0b fb7e d93f
00000120: 73cf a2c8 1944 c13f 55d2 3549 b36b d3bf
00000130: 13b0 c658 e6f4 853f dd4f 798d 0218 c9bf
00000140: c33f 3c91 a605 d1bf 3402 78ce c9f7 ae3f
00000150: 066b 88fa 5da7 cbbf e3a6 b4f8 5593 df3f
00000160: abe5 daf2 88da c9bf 8977 f5df 6c6c a53f
00000170: bae9 cd3a d6f4 b0bf 11ae 7854 3ac7 d9bf
00000180: 583f 8abc 248a cfbf 9a86 5c19 17ac d83f
00000190: e148 4e85 4e97 ddbf a026 fc14 be4b c1bf
000001a0: 6936 7079 af04 db3f 9423 7076 8fb5 d93f
000001b0: ad8a ae30 e14c d3bf 13b4 fe08 9924 a3bf
000001c0: d8f8 9861 6dae b03f 95de c44d a278 d83f
000001d0: c1d8 546b 45f4 d5bf d1fd 51a0 29a8 b3bf
000001e0: 99ae 0cad 7b2e ce3f 186c 4b86 6cbb b5bf
000001f0: 366e ef9c 9ab8 d8bf 0ba4 7e5e 3848 d13f
00000200: 64fb 7ced 3c89 d4bf ae14 17ac 037a 8fbf
00000210: 24a8 8217 e9b9 d93f d6e7 9f06 4d74 dabf
00000220: b408 5861 f3b3 cebf abcf 2873 56d4 b03f
00000230: 5338 a01e 35ee d53f ed10 e7f9 bd3c 883f
00000240: 6cd0 dce8 04e7 a93f ed90 42f5 0f41 d33f
00000250: 751e 5dbc 22c1 d3bf b46f 779e 40c0 c33f
00000260: 97cf b0fd 6cfe ccbf 77e5 e5f1 7e37 dc3f
00000270: 8300 3451 fcce c4bf ce35 ac51 7588 94bf
00000280: d67c 9246 39fd cebf ff57 15a9 4e65 a1bf
00000290: db35 ba22 199a dabf dd9d 719d 2e4b c03f
000002a0: 2771 e583 81d3 d13f afd2 aa90 1bb9 cabf
000002b0: efa6 661b 25c7 d1bf 7430 0086 06d1 bb3f
000002c0: 362e 7195 eb24 d93f e899 a246 98ec c33f
000002d0: f42a 319c e215 b63f 51e7 470c e5bd c23f
000002e0: 8fb4 4e93 6961 d0bf 0fe9 6092 4db5 b63f
000002f0: 4576 7f67 7f85 d93f d417 e622 4810 b33f
00000300: f10d 79f0 9c49 dc3f 5e1a 9c82 87fb bbbf
00000310: 0f22 d933 bbe6 a93f 1858 665c c83c db3f
00000320: d25c eb31 1b06 443f aba8 a5b3 b70d d0bf
00000330: a4cb 8443 5505 ba3f c105 3905 1d47 c6bf
00000340: 63f5 ec85 3952 c83f 66c4 1701 6db1 a53f
00000350: 7bf3 90b0 5376 a13f 0e3e a7af 37a4 dd3f
00000360: 0473 bb5e 4baf e03f 27bc 9916 6837 db3f
00000370: 5cff 377c b715 cd3f 3f74 9534 f7a4 d7bf
00000380: 9877 8126 a4c2 a6bf 2f49 9bd3 5664 d33f
00000390: e2a0 23ec cb7f c73f fbdc ebc3 9dfb c93f
000003a0: 8d10 0bd1 326f dabf 4dd3 7cc4 c53c d73f
000003b0: 4da1 018e 027a d0bf ab12 a010 d009 d7bf
000003c0: 7de7 de3f aac3 d13f 8e68 bee1 543d a8bf
000003d0: ec67 eb90 f0d9 aabf d8d5 9593 de08 dbbf
000003e0: 6922 41ea ce41 a7bf b7b0 d735 9ea7 b6bf
000003f0: d737 49ed c89c c7bf 97a9 58fa 46fd cc3f
00000400: 296d 6dd9 2bbd c0bf c9e2 a725 3892 b23f
00000410: 3861 d0df 6ee9 9d3f cb59 8b11 dc4e b7bf
00000420: 5fd3 fc89 af36 af3f 40ed 170c b294 c23f
00000430: 9c46 0727 06b4 cbbf f35e 55a1 0969 b63f
00000440: 28f2 7030 6a9c 8f3f 325b c212 317d df3f
00000450: b8f0 c5b0 16cb ca3f 6b9e 69ef 3f20 debf
00000460: 409e 4563 b2d4 cc3f eee1 c4e0 2092 ddbf
00000470: da97 be61 7608 b5bf dc37 7a18 ed10 b7bf
00000480: 323b 1b78 8c79 b53f 556a ccef 010f cf3f
00000490: 338f 3fb9 bb6a c73f 9797 1bff fca9 b0bf
000004a0: 6f41 9772 76fc d0bf b64b 039d f1f0 b03f
000004b0: 5a62 0d72 125e c93f 4cb6 e3ef b966 d33f
000004c0: a3ee 29df da15 883f 1347 739d 5718 b0bf
000004d0: 46a0 3137 de2f d23f a810 a8ee 2be9 bcbf
000004e0: 8201 b323 df7f 623f 19ff 5b56 2248 c7bf
000004f0: 3217 b484 f08a b03f 3da5 cb6d 6baf 77bf
00000500: f3cd 1092 6b4d b4bf ecc7 e4ac 41f0 d53f
00000510: a43c 3656 449e cdbf e17d 9797 4056 b53f
00000520: 7586 019c fea7 e83f 4cb9 fdc3 d86b aebf
00000530: 28ce 9f0c 5fea d1bf c458 a0e1 f049 b2bf
00000540: 7557 3f06 62cb d4bf 5fe8 9a8c 667e 73bf
00000550: ed29 858a 435b dabf 7561 50bc 0f5b d33f
00000560: 94bb f2a1 820d d8bf c6e0 b042 9806 debf
00000570: cddb 129b 9758 b83f b5da 6966 e975 c1bf
00000580: ebda 88fa e745 de3f 2d08 e889 6d22 d2bf
00000590: 5203 a512 f538 ba3f 8206 5df0 6bda bfbf
000005a0: 72bb 7afb 93be d33f 52c0 ef1a 4926 d6bf
000005b0: d08d 4e50 fbb9 c63f 1ed9 44fd 9e72 ccbf
000005c0: 182a 90ca 87dc 65bf a887 aa4a c318 cbbf
000005d0: 4b8c 17fe 908c d1bf 5fe1 f610 6d8e 8e3f
000005e0: 0845 530a fbec c6bf c370 e8d1 3c3e a3bf
000005f0: d76a 89a5 4557 b9bf fc05 fb54 0a3d ac3f
00000600: d2e1 ef36 1985 cb3f ba4e b1db 7204 9bbf
00000610: 5e02 ac8f 7826 d8bf c99a 170b b22d de3f
00000620: 0b35 c02e fd0a b83f 5705 1abd 91c9 c23f
00000630: 4178 82b1 14de da3f 99fb 752f 8c8c b13f
00000640: 2e72 e0fa f122 ab3f abbf 4ccc fc47 d03f
00000650: e35c f971 714a bcbf 9f0f 4bcf 8f6d df3f
00000660: f1a6 9fa5 3bd8 d7bf 900b 0988 da57 86bf
00000670: 4e48 a065 45e9 d83f 0e85 3940 49ca b8bf
00000680: 1567 c7e0 635c cc3f 44f2 0d33 5705 bd3f
00000690: 4c63 0671 6ae8 b43f 26f1 2266 fe94 d33f
000006a0: 79df 3df7 487d db3f c944 11b1 2694 d93f
000006b0: 8c3e 9307 5f56 be3f b25a 2ce4 bd2a c53f
000006c0: 540d 35db 7888 bdbf a091 7fb5 5b6b cc3f
000006d0: 0a6e 3b43 b245 b03f 891a 270e b2a1 b63f
000006e0: a946 e9ab 0a6e bf3f f471 eec7 50ca d13f
000006f0: 0116 4bf9 9fb1 ca3f 1021 c757 9890 cd3f
00000700: e5e5 df11 290c c0bf 9a51 5378 da6b d13f
00000710: d2b8 e725 3c21 98bf 45ad b435 b380 d83f
00000720: 6dda a27a 93b7 d33f d4e5 d5e3 1e06 d5bf
00000730: 794a 2dbd 61ce ccbf 8fb6 dda5 fce4 a0bf
00000740: e911 be19 3dbc d63f 41c6 2f36 a67d bd3f
00000750: e3e7 3d73 f774 c5bf 7789 9302 4010 c3bf
00000760: c9cd 40fc 830a d13f 2389 619f 2222 d1bf
00000770: 3dd0 ba6b bbf5 b9bf 749d 7c3c 99c1 81bf
00000780: 1487 8b19 2341 c8bf aec4 3009 990b bebf
00000790: cb7a a263 f22b c83f 414b 1c78 2f8e cc3f
000007a0: 9342 3d2b fec7 b6bf bc98 dd32 913e d13f
000007b0: 719f 66c5 bf5c 8f3f fad5 0e17 ac66 ccbf
000007c0: fd0b dd55 6007 9abf 81f8 07da 3981 ccbf
000007d0: 4c5b 1788 4c9b a03f 5882 c942 e406 d03f
000007e0: e803 54e1 a6e2 b43f 381b c623 a285 d33f
000007f0: 9b92 1f62 3e7e d9bf 66b7 0673 6aee c0bf

weight_1 f8 [64, 64]
0.11715474544039162 0.09582565447266655 0.23890986413752477 0.2944861633855137 0.26725429521786065 0.014255017778457264 -0.21017279831675398 -0.029174784610358127
-0.018550117242744645 0.056213847428583985 -0.02135333877638778 -0.40544953293494496 -0.2180871222107459 0.09943847400637348 0.026808011065143918 0.2986561516997042
-0.08316943975330986 -0.36977634427303 -0.0947905371874587 0.502847138020747 -0.1338796858866076 0.05576603197957256 -0.040023604211584754 -0.6022885927766838
0.4190957507175753 -0.24342250164209736 -0.060720625284909104 0.47836796621340005 0.23280556329565147 -0.14120963107329 -0.3837462512860913 -0.003565187842963558
0.08706313678721621 0.0414931380879362 0.2970190748846271 -0.06201273555208414 -0.19219348668312436 0.046065804493471856 0.1211026182770236 0.23470768890720897
0.2634522004486655 -0.20912689042010102 0.27747204098410483 -0.16396766011912342 0.09374000414817314 0.2882858610962111 -0.4653973049692847 -0.31176111347182917
0.16799793145622324 0.20911995251366455 0.20118669962736263 -0.3448741840808414 0.1657631624242037 -0.02252042358622149 0.12389133128719663 -0.09030941935199252
0.19777129897014858 -0.06355775629671911 0.277428272093827 -0.010101778497239387 0.17909178060468633 -0.020938397898884343 -0.09832591214519021 0.42722897092347306
-0.389752329857804 0.4604927283972529 0.157710733441074 0.4716754121733358 -0.11458745939683025 0.2862819692056921 0.3065987719476113 0.1729025494703307
0.03093760471064073 0.06399874045293986 -0.30014944892446765 -0.222233201627768 0.3412005492343884 -0.48921864125246994 0.03769867157799856 -0.399742294337753
0.12236903262495086 -0.4319140328524904 -0.05753753161402916 0.4462830959987566 -0.6019901844082742 0.2547440591876368 0.4643623344108496 0.3393294226075235
-0.3400656773583057 -0.04956063052160395 0.356654312231677 -0.22381625664489035 0.24437647386006423 -0.08858904796623472 -0.2923437973131931 0.014139373156126733
-0.23747184246183467 0.2668684147670574 0.20115067228661912 0.5668184569598 -0.05298651847633129 0.3098361898102575 -0.5010870288302746 -0.05585112560152101
-0.09545025588508871 0.27678743283309154 -0.05011517940986567 0.447673385849093 -0.11060803534326513 -0.3887843282464474 -1.0201232282806907 0.44801721678703493
0.3936136037382468 0.2766318166196608 0.32714592894868616 -0.02077031137892281 0.0743991622346719 0.2203022598326133 -0.012574218900308461 0.3313942132342911
0.3806460739118992 -0.2756539193814775 -0.03536034473133396 -0.6633035395851006 -0.5557567974851352 0.16269619775356295 0.09890644764189252 -0.8003096813476912
0.07733635878958921 0.5120452124171198 -0.20635475316436708 -0.1381411170196115 -0.5204888014756412 -0.3464522638692825 -0.2846805106567413 -0.13735851696442497
-0.4575010377934237 0.3391044303521016 0.010659947272301275 -0.1955974786696301 -0.09244931072249785 -0.05450601684350546 -0.43294403731478487 -0.3048888122143546
0.07937864435284046 -0.27772823296873106 -0.7774200978328033 0.33119087336739184 -0.15024770406857935 -0.20531126079132067 0.13049826638680945 -0.15278319467434626
0.19532984305034704 -0.842931896571073 -0.10509521604801318 0.208442754069656 0.531752011260786 0.06395532129682789 -0.100902396447134 0.1951860008347044
-0.15350278498608566 0.04529962400531046 0.06973795258686112 0.41899826086264674 -0.42967124539172297 0.13751622175206082 -0.27073596495764257 0.37703091828516955
-0.05527807583094375 -0.18323847523133707 -0.3298496667428154 -0.2564750488002425 -0.3686943416771079 -0.136171876158365 -0.0705966953488215 -0.023754418104867864
0.47282289341762374 0.4159062767941346 0.41027507565377935 0.11141322781339853 0.14099218158962382 0.1811009607588543 0.2478937148718963 0.46752363290377336
-0.4258472787947639 0.06562327181575653 -0.42645339539457333 -0.1720481648384389 0.08440795402884152 -0.09422123710752901 -0.29113626882971066 0.15759836178632533
-0.1962527836639579 0.46445225184010835 0.37235835702386194 -0.18935002908761348 -0.16300342405750773 -0.18453611555057683 0.1373653744106608 0.06512132500370932
-0.653087339074574 0.20669084193851187 -0.26989858376847947 0.15781748266463513 -0.16686393476106623 -0.20473952408947532 0.1789183278526664 -0.25795751097663994
-0.15366287726080233 0.4321712761123457 0.2682330196532844 0.2185698007283156 -0.37148797559490465 -0.1410782247541567 -0.18805911632448166 0.11916743947022293
0.09712889981078004 -0.1905665560793831 0.40317671394447047 -0.7503810966415553 0.2105042907163095 -0.18284983898684282 -0.11453514517954123 -0.27206150071321084
-0.5764337251481833 0.11950683574991722 -0.3090998677174233 -0.22256379782323638 -0.19763213572557137 0.17167375082364822 0.18463710812395498 0.0038072653896783315
-0.7029934935669164 0.08054699017602687 0.27913348832771484 0.12299557190090843 0.053419420194571306 -0.3522249504496567 0.4056830836576794 0.09379471698921132
-0.03598330973015643 -0.23210067057255016 -0.07148815971977042 0.14199444677761405 0.056630227740979124 -0.37964051568363705 0.2997036627770257 -0.007021475661054405
0.4285944686498953 -0.3013290845656938 0.25201113718535867 -0.16156394747287534 -0.15539848776624662 -0.016320222451198595 0.12026447828361764 -0.14527255465767377
00000000: 10d9 3c78 dafd bd3f 30f1 13b4 0788 b83f
00000010: e3cb 9432 9994 ce3f fa60 377e dcd8 d23f
00000020: 8747 6bc2 b11a d13f f789 4c19 bc31 8d3f
00000030: ddbe a337 f1e6 cabf d6cb 13a7 fedf 9dbf
00000040: f305 944b cdfe 92bf 1882 93b8 0fc8 ac3f
00000050: fee9 d14e a6dd 95bf 7f94 0899 e2f2 d9bf
00000060: d875 c960 47ea cbbf 264f d2c1 cc74 b93f
00000070: 92b1 2e2b 8f73 9b3f 192a 13b1 2e1d d33f
00000080: 3361 c4a7 974a b5bf a92c 5f66 6aaa d7bf
00000090: 82be 3051 3144 b8bf 39f6 95e1 5217 e03f
000000a0: 68a9 3d34 f822 c1bf c5ef 2887 5d8d ac3f
000000b0: aa48 504e f97d a4bf db59 17ba f245 e3bf
000000c0: 1a5f cefb 76d2 da3f 7de7 d4f1 7728 cfbf
000000d0: 852c 9517 c616 afbf 2acc 95ac 949d de3f
000000e0: 5341 579c 92cc cd3f 5085 ab3d 2813 c2bf
000000f0: 8620 cf6f 4c8f d8bf 0169 11a6 bd34 6dbf
00000100: 5732 300d c549 b63f c033 31ae 963e a53f
00000110: c0ba 3a4b 5c02 d33f e86d 431e 22c0 afbf
00000120: 1a74 e7d1 cb99 c8bf 3fdb 86e7 ef95 a73f
00000130: aeb4 f5c8 9400 bf3f 45f4 fccb e60a ce3f
00000140: cd1e 3f9e 66dc d03f ecc4 8881 abc4 cabf
00000150: c630 6517 1ac2 d13f 8319 e86c e4fc c4bf
00000160: d5af 244c 58ff b73f dcac 538a 4673 d23f
00000170: df55 1fc7 11c9 ddbf d3aa a1e2 e4f3 d3bf
00000180: 6937 b3ca f480 c53f 9c5e 7e4e 71c4 ca3f
00000190: d214 a55b 7cc0 c93f 5529 772b 6b12 d6bf
000001a0: b62a bf30 ba37 c53f 35f7 2d0b 980f 97bf
000001b0: d7eb 22a0 57b7 bf3f f636 a3a2 841e b7bf
000001c0: 6105 95e6 9150 c93f 9098 b334 5245 b0bf
000001d0: df3d e882 62c1 d13f 4c75 37c2 3db0 84bf
000001e0: 00fb 56be 7aec c63f ad4b d318 e070 95bf
000001f0: 6c51 0311 e32b b9bf 8748 812e b857 db3f
00000200: 53dc 91c1 b3f1 d8bf cdc4 207e b678 dd3f
00000210: 64c5 2d85 dd2f c43f b127 6711 ee2f de3f
00000220: 0920 a48e 9a55 bdbf 3b11 cb9b 7152 d23f
00000230: 688f a074 509f d33f 315f afb5 ab21 c63f
00000240: 538c cb81 1bae 9f3f 9106 3bb1 3862 b03f
00000250: b1c0 c208 a635 d3bf 42cf 8936 2372 ccbf
00000260: 21b1 15d4 3ad6 d53f 7077 31b4 5b4f dfbf
00000270: a16f 0f83 3d4d a33f ce8d 40b4 6095 d9bf
00000280: 8cd5 2ab1 9353 bf3f 103c 72c1 7aa4 dbbf
00000290: fb4e 2631 8f75 adbf 5ea0 84f9 e68f dc3f
000002a0: 507d 51eb 8043 e3bf 83ea c306 ba4d d03f
000002b0: f07b f2cb 1cb8 dd3f 42df 2ac1 92b7 d53f
000002c0: a3be afd4 a2c3 d5bf ccd3 84ce 0260 a9bf
000002d0: 94cb c09b 6cd3 d63f 5c2d 4dd7 02a6 ccbf
000002e0: e804 9271 ba47 cf3f 1b7b cc97 c5ad b6bf
000002f0: f182 29c2 c2b5 d2bf 6000 558a 1af5 8c3f
00000300: be16 8c32 7a65 cebf cba1 7042 5f14 d13f
00000310: 750c 8523 4ebf c93f 362b ed75 6023 e23f
00000320: 3030 f887 0c21 abbf 288c 962b 5bd4 d33f
00000330: abd3 28aa e708 e0bf 1980 cecb 8498 acbf
00000340: 80d9 6b8f 6d6f b8bf 2d90 fda2 e2b6 d13f
00000350: 9374 3261 b2a8 a9bf 7ebb e045 aea6 dc3f
00000360: f860 79e6 ce50 bcbf 3403 c1a9 d7e1 d8bf
00000370: 2ab0 f5bb 6c52 f0bf e54b 8967 50ac dc3f
00000380: 1941 d41c f730 d93f 5f87 5aef 55b4 d13f
00000390: 57aa 767a f5ef d43f 7c9d 6600 d044 95bf
000003a0: 97d0 a5d0 d20b b33f dca4 9b4c dd32 cc3f
000003b0: 1eb8 9817 83c0 89bf 1032 fb12 9035 d53f
000003c0: 9e5a b359 815c d83f 9b7d 3056 50a4 d1bf
000003d0: fd89 6448 c01a a2bf 7cd9 3a58 c839 e5bf
000003e0: a64e b77a c2c8 e1bf 357e 44a0 3ad3 c43f
000003f0: 6a47 fcd5 ee51 b93f bdef 810c 239c e9bf
00000400: 8f02 cbcb 50cc b33f f6f4 2ca4 ac62 e03f
00000410: b288 1b22 d569 cabf 9383 eaad 9bae c1bf
00000420: 2cb5 8821 d8a7 e0bf 1666 bc1d 462c d6bf
00000430: fb12 c59a 3438 d2bf e239 18c1 f694 c1bf
00000440: 395d cd6e b247 ddbf 849f 9211 e3b3 d53f
00000450: 94fe 4ae7 e1d4 853f 9576 0893 5609 c9bf
00000460: 4843 170e c2aa b7bf a560 8e6f 36e8 abbf
00000470: 1df9 50e8 5ab5 dbbf c21f 585d 4c83 d3bf
00000480: 370b 7fa9 2852 b43f 4eb3 71a3 4cc6 d1bf
00000490: 873d ee1c a0e0 e8bf 1c2f 7634 3b32 d53f
000004a0: 7406 a317 513b c3bf 34b4 4caf a347 cabf
000004b0: 1674 28cd 2ab4 c03f 9e9a 4054 668e c3bf
000004c0: 43c2 ea7b 9100 c93f 7ce5 1050 4cf9 eabf
000004d0: df6b e423 85e7 babf b69e e88d 40ae ca3f
000004e0: 4750 3ecb 1c04 e13f 2703 603d 605f b03f
000004f0: 6c16 d44c bdd4 b9bf 406d 1cd9 dafb c83f
00000500: a619 aeb0 faa5 c3bf 7870 3f27 8331 a73f
00000510: 918b a6b1 58da b13f b719 df14 ded0 da3f
00000520: 724c bfd2 bb7f dbbf 5d1b 8cad 219a c13f
00000530: 5b05 d6f0 bc53 d1bf d666 e749 4621 d83f
00000540: 8969 c26f 684d acbf 5c66 3ebd 5b74 c7bf
00000550: e770 d0c6 411c d5bf 2892 b552 166a d0bf
00000560: a64c ee26 b098 d7bf 1019 5e7d 146e c1bf
00000570: cf96 ba01 a012 b2bf 786b 9503 1453 98bf
00000580: a8d7 01f4 ba42 de3f 2c0b 425c 359e da3f
00000590: 8b00 1364 f241 da3f 5de3 ccc9 9385 bc3f
000005a0: f9a5 7524 080c c23f f8e1 ddf7 502e c73f
000005b0: 811e 2133 fbba cf3f b971 5b3e e8eb dd3f
000005c0: 1ae7 e0f1 1441 dbbf 1e21 4ece afcc b03f
000005d0: ed38 9f2e 034b dbbf 59b1 a89c ac05 c6bf
000005e0: 4a7e 137a c29b b53f ed2a f70b e21e b8bf
000005f0: 8665 5304 faa1 d2bf bb41 e3e0 2e2c c43f
00000600: fbf6 caab cf1e c9bf 8f3c 0df0 95b9 dd3f
00000610: 6bd3 7325 b8d4 d73f 05c7 362b 9f3c c8bf
00000620: 1644 bbd3 4bdd c4bf c53c 9c22 e19e c7bf
00000630: a529 5947 3095 c13f 24c2 2989 caab b03f
00000640: 0039 586b 17e6 e4bf 411a 4173 d874 ca3f
00000650: f36d a1b5 0446 d1bf 440d 64ff 5c33 c43f
00000660: c51f 5723 cc5b c5bf eed9 149c e734 cabf
00000670: 651f 64b7 cbe6 c63f 21be 5938 6082 d0bf
00000680: 5de2 38a4 39ab c3bf 3f14 4bb6 b1a8 db3f
00000690: 4a90 c7d3 ba2a d13f aebb 0261 18fa cb3f
000006a0: 2264 8280 75c6 d7bf 7a98 bfec d90e c2bf
000006b0: 0306 2a35 5212 c8bf 82cd 45df c181 be3f
000006c0: f40a 2f88 70dd b83f 2441 0923 7c64 c8bf
000006d0: a99d 39b4 a5cd d93f 4996 b337 1f03 e8bf
000006e0: 30a9 25fa cdf1 ca3f 6480 439f 9f67 c7bf
000006f0: f9ea c9de 2c52 bdbf 4917 04a4 7469 d1bf
00000700: 3255 ba23 2572 e2bf 24c0 31ff ff97 be3f
00000710: 25d5 c2cf 4ac8 d3bf 4e51 7674 f87c ccbf
00000720: 343c ca83 024c c9bf ac42 afcc 67f9 c53f
00000730: 8d9c 8252 30a2 c73f d75f bf0a 6a30 6f3f
00000740: 5076 0536 ec7e e6bf 9ae6 9840 ba9e b43f
00000750: ed7f e5b4 52dd d13f 0402 de46 a37c bf3f
00000760: 69f7 694d ca59 ab3f 450e c184 da8a d6bf
00000770: 1b69 362e b6f6 d93f d498 013a ee02 b83f
00000780: 3558 fc84 676c a2bf 1990 be8a 79b5 cdbf
00000790: 0932 0c4c 0c4d b2bf b3cd 8fc0 df2c c23f
000007a0: 7d9e 3920 a3fe ac3f 4b42 c6bb 074c d8bf
000007b0: 6799 8745 582e d33f a09b 5705 8dc2 7cbf
000007c0: 5142 867e 176e db3f fdc4 e2c8 f948 d3bf
000007d0: b116 1c52 f320 d03f 9ee8 4d9f 20ae c4bf
000007e0: b7e5 66ff 18e4 c3bf 66ef c396 3fb6 90bf
000007f0: 7840 1921 a7c9 be3f 1d6b a183 4a98 c2bf

weight_2 f8 [64, 64]
0.16533059103876596 -0.1657061938499616 0.14117241727799962 0.0611782709919053 0.02401282316210787 0.24862098433882968 -0.1214096561817923 0.1506949428677694
-0.06098136097125474 -0.05303956628448345 -0.41450422438922513 0.2916839817162979 -0.3635369025777635 -0.4719638004014141 -0.281676649903581 -0.250440385365805
-0.27463244220242256 0.18749272903407943 -0.03178149707865967 -0.12824129093971168 -0.2403511901725019 -0.0996728456674806 -0.20812695311747217 -0.5545009132322894
-0.027071304348161736 0.08634970328597229 -0.34562937445803926 0.6781689627392018 -0.16456361519183166 -0.13596142431323774 -0.22517258975024412 -0.11246770836676186
-0.7137617977761512 -0.3116054915316194 -0.3019362718420344 0.0812813839860097 -0.37253916338280957 0.3103735288377078 -0.3087028733982981 -0.12483460845624465
-0.09522719179042556 0.6176434669475964 -0.1998793883475488 0.011890713901418975 -0.19856958424998572 -0.043729001171248526 -0.18750483649331773 -0.1268475330213809
-0.16612749262836413 0.19787451890667043 -0.621137310801039 -0.23613567164509405 -0.27835725628998775 0.2867355687143525 0.5913403154983701 -0.5823617249528598
0.279169503150113 -0.15642696199412393 -0.17527249311953302 -0.09707367387366189 0.3700276912721754 -0.12299026264459187 0.5298703144919563 -0.1497686866260402
-0.012911637228394862 -0.2820579400597026 -0.4334919703844992 -0.4315734254507882 0.15582049541223164 0.05030987925352797 0.019482898601598027 -0.24959284063292383
-0.7133898787715379 0.04854273969526583 0.2229306311820062 -0.2435684214617096 0.10104914256052426 -0.06304963241081805 -0.14525800146213835 0.38628915095136795
-0.22252944577971215 -0.19863763500776735 0.02280462292189858 0.45701046424734715 -0.48707243722100213 0.0919177016393434 -0.38820217323998085 -0.5338122785895468
-0.4177775852080958 -0.11104068176644515 -0.13648406750850578 0.025889179274645374 -0.35031416646258506 0.09860170844549628 0.32194540582609166 -0.12723961323589758
-0.07555799267195633 -0.4284279243863541 -0.2664167835680739 -0.3872977317893977 0.20561171053392324 -0.3503210460254291 -0.4935278940108531 0.21096559100005655
-0.408348616681811 0.09456438677263516 -0.006436985279334397 -0.2763975180114092 -0.02913862318427023 0.12100790131234246 0.05239357306156025 -0.4682566598332081
-0.346231684307266 -0.15429352726744291 -0.4791195101762933 0.14358934363443324 -0.15007197325696223 -0.2247027242297854 -0.27944039012777944 0.10530728856177665
0.2271278257348992 0.002116308364541885 -0.2748009373061583 0.34526650548834437 -0.006455319256824496 0.02830955254136655 -0.19721687110519578 0.2085573544826189
-0.28799588496680095 -0.13087470737109808 0.13502848794004024 0.07560407613223627 0.10835036975723163 0.07793988619136806 -0.2580775186141122 -0.5733999868217617
-0.08334501175168499 0.3943059683465346 -0.5827495086189323 -0.37773888371784226 0.09902605144767584 0.05441336814969845 -0.13608186917209658 0.2118917888821739
-0.2974853360250286 0.03309952998230365 -0.46630852735385675 -0.35303866032821546 0.07048747997354075 0.1362369915688345 -0.06349001353716252 -0.021063347756087168
-0.2124813945191553 0.2288162377075068 0.1785631478114622 0.016152828787978208 -0.1479948013805327 0.04739878686288567 -0.02447125615921244 0.34884340944547804
0.4248908089389079 0.3567910461014774 -0.0701310017255785 -0.4851229965105882 -0.5183338981861499 -0.24605408475430066 -0.22090227368075374 0.13552073572127654
0.24251224110061187 -0.19832410595324865 -0.12741935232586377 -0.5612811164001889 -0.4604035627205773 0.07448572724839717 -0.2742052992454172 0.3952837224581093
-0.4291861009121632 -0.3443437068581008 0.21515526545379313 0.03169714728685061 0.004797861377009791 -0.4048435830606559 0.17318853685284172 -0.36665878963170234
0.11128910624420338 -0.23403485865173648 0.05592417596142798 0.22352486944717134 -0.2461175018103769 -0.343656050536851 0.18853051902227502 0.2966286821026506
-0.5465451040400979 -0.20973480296830171 0.1399806338863267 -0.3691524852437013 0.10277921069342955 0.28950351141506214 0.023979166364354293 -0.31736887967855537
-0.2999139232007668 0.22647747502899152 0.16442960634808265 0.004673750880353685 0.21086983424288436 -0.23820731799276107 -0.3636893010992569 -0.2785124993861747
0.1250415435754148 -0.19900277463138866 0.33274556871695377 0.4058645809730289 0.29193468490440644 0.34904406230393864 0.2980464135128102 -0.4384714935274407
-0.10120488972891498 0.3782723953372319 -0.4543231254868494 0.20404403952319677 -0.13348888858540972 0.0007523332841276983 -0.09455167843699336 -0.19389063192059994
0.24975716597447273 0.11361836302875891 -0.456834070193122 -0.3313395805750206 -0.0706971211029564 -0.16243267419300744 0.480926002600212 -0.4709127174830455
0.05710619651843943 0.131896143762012 -0.366767931961728 -0.2400028118484719 -0.23237473500547826 -0.4446204206593783 0.18984563674795338 -0.26299960195185806
0.3662324196749064 -0.1930785799130299 -0.09664131569506838 -0.067450331627629 -0.2136673582592908 0.4895357263567228 0.02022299893022407 -0.0961579400501865
-0.4107303967089827 -0.06611661604177889 -0.4359032092725054 -0.33327715686384524 -0.012323160344913774 -0.20190627508420578 -0.38898195939731933 -0.030756557195062182
00000000: d219 c584 8d29 c53f b244 aa4d dc35 c5bf
00000010: fa33 a711 f011 c23f 7ea9 4522 c252 af3f
00000020: a8dd a948 d196 983f 3ad4 6afa cfd2 cf3f
00000030: bd2a b806 b414 bfbf 8413 a5cd f849 c33f
00000040: 1200 13ee f238 afbf 8cf8 2b85 0028 abbf
00000050: 6b8e f3b9 3c87 dabf 9744 8f4a f3aa d23f
00000060: 007b dd48 3044 d7bf 2fad e7a7 a734 debf
00000070: 847e d87f fd06 d2bf eb99 2f1c 3707 d0bf
00000080: 5e85 6bf3 9393 d1bf 6c36 b801 c3ff c73f
00000090: 063b 2415 aa45 a0bf e79b 4aeb 356a c0bf
000000a0: b63b acea d3c3 cebf e9ea 70dc 2884 b9bf
000000b0: 2320 876c e7a3 cabf 05ea fdb2 78be e1bf
000000c0: 9f77 577b 94b8 9bbf 1bef a19f 031b b63f
000000d0: cd63 f5aa ca1e d6bf 5211 8465 8fb3 e53f
000000e0: 1623 aea8 6b10 c5bf 1bb2 7817 2f67 c1bf
000000f0: 086a 7796 74d2 ccbf 2593 4a09 afca bcbf
00000100: c4a5 52fb 22d7 e6bf c677 d828 58f1 d3bf
00000110: bc69 4283 ec52 d3bf f857 fe55 dbce b43f
00000120: e655 cd80 aed7 d7bf 7bbb f9ee 28dd d33f
00000130: a352 5bb2 c9c1 d3bf 5381 ba30 29f5 bfbf
00000140: 3507 6e2a cf60 b8bf 7118 643b bcc3 e33f
00000150: 3b71 0cd6 a595 c9bf d657 a99a 285a 883f
00000160: b0c0 2a67 ba6a c9bf dba2 d5cb a563 a6bf
00000170: fc51 4a92 2800 c8bf aeda f33a 8a3c c0bf
00000180: 3c14 e769 aa43 c5bf a93b b5c5 f353 c93f
00000190: 3ee8 865a 5be0 e3bf fb3c 9195 b139 cebf
000001a0: 9aaa 17f4 9ad0 d1bf 4599 8e24 e059 d23f
000001b0: f6e5 7b86 42ec e23f 75ab 630e b5a2 e2bf
000001c0: de7f 84c3 e9dd d13f 5a1b fd76 cc05 c4bf
000001d0: 961b eb3c 546f c6bf cc06 97fe d1d9 b8bf
000001e0: 5837 28a0 88ae d73f f6f3 c833 4a7c bfbf
000001f0: 6ca7 fb96 b2f4 e03f 1a09 83cd 9e2b c3bf
00000200: 10f7 119d 6a71 8abf 198c 08bf 3c0d d2bf
00000210: 5352 f81a 55be dbbf a990 0825 e69e dbbf
00000220: 64c8 eb0d edf1 c33f 6785 1e6c 37c2 a93f
00000230: 82f3 4c31 53f3 933f 5bc5 ea7f a8f2 cfbf
00000240: 8be0 d302 17d4 e6bf c618 e60e 98da a83f
00000250: 8507 1aad fd88 cc3f fa18 4202 402d cfbf
00000260: 5317 964a 5bde b93f 6fb2 3a4d 0524 b0bf
00000270: ea8f e16e d097 c2bf d8af 8821 f6b8 d83f
00000280: d5ab 024a d87b ccbf 8d7b 0e41 f56c c9bf
00000290: c7b2 9656 185a 973f 08d1 77d1 a83f dd3f
000002a0: 026c 29df 312c dfbf 36e7 7622 eb87 b73f
000002b0: 6a51 93ed 4dd8 d8bf ddd9 d77c fd14 e1bf
000002c0: b81e 5e32 debc dabf 8361 b680 296d bcbf
000002d0: 22e2 2f57 4f78 c1bf 3833 3869 b182 9a3f
000002e0: 4011 121c 8c6b d6bf f566 1a29 f63d b93f
000002f0: 76b6 47e7 c09a d43f 934b cd3c 6349 c0bf
00000300: d33a 7ac3 c457 b3bf edae fbf4 5c6b dbbf
00000310: dff1 21fb f80c d1bf a76d f66c 7cc9 d8bf
00000320: 187b 350a 7c51 ca3f 13e7 f1f6 a86b d6bf
00000330: ff2e 1c05 f695 dfbf 5999 f6a4 eb00 cb3f
00000340: 56f9 803c 6222 dabf f304 8e24 5f35 b83f
00000350: c237 2714 ab5d 7abf 227e 2337 7fb0 d1bf
00000360: 2df4 81e6 83d6 9dbf f4b0 b1b2 5ffa be3f
00000370: 73d5 a395 54d3 aa3f 748a 07c8 eaf7 ddbf
00000380: b913 3cf0 a828 d6bf 3b90 ccea e3bf c3bf
00000390: 444b c5e0 e4a9 debf 3d64 7bb7 2261 c23f
000003a0: d1a8 97f4 8e35 c3bf e7cb f111 0fc3 ccbf
000003b0: 56f0 31f2 59e2 d1bf 6a3c 6720 6bf5 ba3f
000003c0: 5880 c54b 8612 cd3f cbbf d866 3856 613f
000003d0: 56f7 a8ab 5696 d1bf 5481 5eaf d818 d63f
000003e0: 6328 7e91 e470 7abf f878 51e9 2dfd 9c3f
000003f0: b7e1 ce05 673e c9bf 97eb 6be4 01b2 ca3f
00000400: c428 d44a 866e d2bf e026 049e 80c0 c0bf
00000410: f68a dd0d 9d48 c13f dea7 6eea c95a b33f
00000420: bde7 9d8e d9bc bb3f 81f2 3e4e def3 b33f
00000430: c8f2 9191 5784 d0bf 3ba4 dded 4a59 e2bf
00000440: e21a c243 1956 b5bf 5f9f aa19 4f3c d93f
00000450: 86e8 284c e2a5 e2bf 36b9 ffb5 df2c d8bf
00000460: c876 6b74 c559 b93f 7219 56a9 11dc ab3f
00000470: 361b d674 216b c1bf 911a c527 451f cb3f
00000480: a617 51ef ff09 d3bf 29ed 92ed 6bf2 a03f
00000490: c82a b5b8 ffd7 ddbf 6955 1577 2f98 d6bf
000004a0: 3789 43ad 770b b23f c493 a5b7 3670 c13f
000004b0: 0ec4 c3ab e140 b0bf 56d4 0657 a191 95bf
000004c0: 79ef 3b20 9732 cbbf 34ae dfb8 d949 cd3f
000004d0: 607e 0f40 28db c63f 856d 87fd 5d8a 903f
000004e0: cd25 f45f 7ef1 c2bf 2f70 e45e a744 a83f
000004f0: 465b 9533 fe0e 99bf f194 bf4e 7353 d63f
00000500: b9de 3038 6931 db3f fcbb a01c aad5 d63f
00000510: 2fda d8f6 1af4 b1bf 5e3b 2353 410c dfbf
00000520: 43c4 a3f8 3096 e0bf 4791 8843 b37e cfbf
00000530: 8f12 8994 8646 ccbf a426 ed53 be58 c13f
00000540: dc11 3420 a40a cf3f 2bf0 892e af62 c9bf
00000550: b0fc 8eff 464f c0bf 45a3 d9d0 03f6 e1bf
00000560: 6331 3681 4077 ddbf def6 8c22 7f11 b33f
00000570: 9188 2962 948c d1bf 6e51 2619 544c d93f
00000580: 1931 d4fa c877 dbbf 387e e22f ba09 d6bf
00000590: b7d6 572e 358a cb3f 0471 f2c5 9b3a a03f
000005a0: 97ac 471b eca6 733f 296c 4f0f f5e8 d9bf
000005b0: 1b9b e9be 0a2b c63f 2f95 906d 5677 d7bf
000005c0: de4c b85f 717d bc3f 993f 04b0 daf4 cdbf
000005d0: 23c3 9ef5 17a2 ac3f 7d23 0f82 769c cc3f
000005e0: 56d8 9f3e c780 cfbf 0a36 88f2 75fe d5bf
000005f0: 60d1 bf9e c421 c83f 0aef 2bde f6fb d23f
00000600: 3484 7428 4c7d e1bf 607a ca0b 97d8 cabf
00000610: 56bc 4eaa e2ea c13f e7f6 d6be 31a0 d7bf
00000620: b010 a304 bd4f ba3f f0b5 66bc 3987 d23f
00000630: 48ee 479d fe8d 983f 1734 bf8f c54f d4bf
00000640: 54ca f02a ca31 d3bf c8dc 43c2 36fd cc3f
00000650: 732c e182 070c c53f 626f e472 c824 733f
00000660: e29f e460 c8fd ca3f 2030 39d0 937d cebf
00000670: 0617 887d af46 d7bf 8703 1917 26d3 d1bf
00000680: 2e1d 267e 5c01 c03f 0673 6d44 ec78 c9bf
00000690: a3ce e111 b44b d53f de91 786f aff9 d93f
000006a0: 20e1 0ed1 0eaf d23f 7956 1de8 bc56 d63f
000006b0: 3391 ae43 3113 d33f bb6e 3bbd ea0f dcbf
000006c0: daba 944b 90e8 b9bf dafd bc6b 9d35 d83f
000006d0: d814 724d a113 ddbf fe11 5976 1d1e ca3f
000006e0: c746 6df5 2916 c1bf 633f ee6c 07a7 483f
000006f0: 2436 abee 8934 b8bf 9fc4 8c81 68d1 c8bf
00000700: 14a8 e6f5 0af8 cf3f c6fe 6ed1 1716 bd3f
00000710: cd64 cbf7 c43c ddbf 1d2a 9ced aa34 d5bf
00000720: 14fd 0edf 3419 b2bf 2cfb ba07 98ca c4bf
00000730: e4b0 3ddb 7dc7 de3f fd0c 3718 6f23 debf
00000740: c42b e4fc 053d ad3f d592 f60b f9e1 c03f
00000750: b7d1 3f34 2079 d7bf 4a2a eb81 69b8 cebf
00000760: edf1 a18f 74be cdbf 2569 7735 a974 dcbf
00000770: eb74 8fa0 dc4c c83f c3a1 4f48 fcd4 d0bf
00000780: 5e46 4f1a 5a70 d73f 506d 2485 ccb6 c8bf
00000790: 874c 5a3a 7cbd b8bf e6ec 71c8 6c44 b1bf
000007a0: a322 f9b5 7359 cbbf 283f bba7 8d54 df3f
000007b0: c421 217c 56b5 943f e72a c487 ce9d b8bf
000007c0: daa4 5525 6849 dabf 1923 9fbf 04ed b0bf
000007d0: abff 0293 d6e5 dbbf 1ffb 4eb6 6954 d5bf
000007e0: 4672 5195 e23c 89bf 1003 2c98 10d8 c9bf
000007f0: 731c 9696 14e5 d8bf 5950 299d a57e 9fbf

weight_3 f8 [62, 64]
-0.13393412150584658 0.45171034067827714 0.02569542996355183 -0.4717757107981327 0.10307772936000931 0.41971728546254583 -0.053603904684993875 0.06601581345375501
0.27878066036552057 -0.048812253257521504 -0.10268163652323631 -0.2223740974468599 0.056508194813969674 0.1250483200601724 -0.18499088812672454 0.024859091337934527
-0.16484124947723214 -0.15654251476719963 -0.24873267093908746 0.38140310481827794 0.36160743534281864 0.23994835503863762 -0.04140269291923576 -0.30399259716270033
-0.10325314541728624 -0.0664138420921014 0.2827082374760287 -0.2770802429411362 0.1058520531900778 0.031975138328085004 0.19670813678263227 0.1325031268851554
0.05254125737604688 0.32428283412342523 0.8825359331462376 0.282869924189487 0.006949999643539748 -0.13180438591622562 0.2732841448521946 0.4216497613412505
-0.30824247272183586 -0.26249451927709333 0.09639598202933229 0.36902608188153097 0.3634035843654859 0.8045406875065096 -0.36326659166510916 -0.10655978514593122
0.10213148183896892 -0.41472825878619696 -0.1527454759631975 -0.14511026032046617 -0.07101982023735545 -0.2952078012251123 -0.29013264106616854 0.09018864654578797
-0.6253403840941683 0.33568716855145625 -0.2467814761738307 0.046997686885093794 0.2983397950240524 -0.00853494455369019 0.10057691638391503 -0.16166670172833517
-0.15945093629365775 -0.29651265378900243 0.1477065767830538 0.11858112482835007 0.20703612912004832 -0.056305706935976814 0.33649056733351235 -0.3451986219879165
0.13566475413849555 0.34804843486301607 -0.3713956652306788 0.4743313923813703 0.22566402079310477 0.26200866081444985 -0.17220444290667614 -0.27723979788997444
0.05083671176799877 -0.11653305912604066 0.26212465982636424 -0.27977611423612314 0.1518366712830812 0.15279233065158324 0.0455296735028287 0.15580430617886998
-0.06515006329188146 -0.5027046810167882 -0.3398634140495588 0.2553949968571293 -0.38801125938339315 0.4500523746728201 -0.184640098894017 -0.19111237982027396
0.22427302579058112 -0.1764136150128597 -0.4000362545084809 0.1641972327078717 0.10233143573259537 0.026096745974687786 -0.19847872742341074 0.38154245060229525
-0.670407507877535 0.24763570246187905 0.06470442340169837 1.0223450928548683 0.4603473074228959 -0.08237397519841995 0.6308936024473741 0.295845199052211
0.07311808348075545 -0.4348214037330924 -0.28589110955045766 0.1837593976796717 0.1746563013083924 0.23013955807645028 0.14069269039218807 -0.2705551717609973
0.5025241386800898 -0.005262508377252908 -0.21065073768663714 0.06614113835742129 0.04026220501048113 0.07981631001804217 0.3679047013923439 -0.21824681193597678
-0.2162724993275959 0.21542338113348045 -0.28112690118335387 -0.3353093154280399 0.4560937718899014 0.40311489676438883 0.43017356282993696 -0.1839069115036014
0.1058180008525968 0.4675811553170317 -0.189760911819671 0.2368780861157336 0.4303232945379889 0.09391307385510471 0.5901675619815919 -0.33743729470259437
0.30994020373044834 -0.33047613893419286 0.36471994257767815 0.41241100621762106 -0.2721034706118701 -0.311349798735086 -0.12666544063956625 0.34540168918075076
0.270106845828534 -0.10397935788082051 -0.13125386108693168 0.07069852999745135 0.09278380684756889 -0.20088889981128674 0.3158181983960132 -0.27517867045278666
-0.009308082212306201 0.3946860173471877 -0.2580665208381423 -0.2932053584606365 0.07384537442838678 -0.2809137879084914 -0.25358855013833376 -0.07575733562596228
-0.28860981372646854 -0.15956603806201092 -0.17274671404054096 -0.20323232663781104 0.3574503010816663 0.13553114984560188 -0.18601614849711573 -0.11100971210947133
-0.08444239428452935 -0.0836333019583134 0.07671005402649701 0.4222768351337869 0.38435429215426303 -0.06964949452327814 0.5849447165468428 -0.16410353950176051
0.658572682475142 0.33524382516045537 0.2259046933581142 0.3050621123212607 -0.09199813595786736 -0.16151639200570134 0.20606261944292578 -0.1990888213207673
-0.19307830528751813 0.23771821222477948 -0.01354455831173032 -0.14823838016606047 -0.06061077212836021 -0.15803308340197386 -0.22341433038467085 0.12916538988902043
0.4115840268844556 0.240561524855308 0.5557324930261759 -0.33020013352789984 -0.26182540271659493 0.6604841643931464 0.6104122247475068 0.3409400362905367
-0.17767241468871048 0.41237976836887835 -0.15353993463282686 0.4512704589932825 0.46567365988202797 0.4352757706994318 -0.060503331482338045 0.187170374035031
-0.22091997957393264 -0.5825247871461379 0.5037973393349918 0.23762904181216904 0.049573830450072576 0.3576795322156589 0.10551765183119431 -0.06744477925562858
0.27916264464296003 0.13321935515689534 0.013171344163183128 -0.27868734581281385 -0.20541886165453035 0.1833013290810473 -0.2381028632417937 0.3144771509586358
-0.4134203697262433 0.2865449985253563 0.1602545958428194 -0.17113044100140745 0.15848633123542902 0.30030613316708255 0.04427231859160982 -0.4540343144627345
0.025986205239947966 -0.0030135617050160474 0.2723940885636792 -0.157839503343505 0.036594435019404424 -0.4232829379993659 0.29396610512442106 0.1468898748566902
0.052498049174231225 -0.3413555396488787 -0.2922365411733488 0.28838716225944744 0.4218784999619556 0.10387170878334367 -0.03863712622240328 0.11041573231650563
00000000: 2bd2 d7d7 c024 c1bf 239b 1e7d d2e8 dc3f
00000010: 2d84 661d e74f 9a3f 6535 3bc0 9231 debf
00000020: ec13 8c54 4d63 ba3f 7629 a8e3 a5dc da3f
00000030: c0b1 1e93 f871 abbf b47e cd8f 69e6 b03f
00000040: 8dbd c1d6 8ad7 d13f 042f c56e ebfd a8bf
00000050: fc5d c4fe 5749 babf 0582 0122 c176 ccbf
00000060: a72e 5d61 a4ee ac3f d801 8a56 9501 c03f
00000070: aef8 470b c8ad c7bf c404 3861 a974 993f
00000080: adab c49f 8419 c5bf 85ea adca 9509 c4bf
00000090: 74a7 90df 78d6 cfbf 2b64 7291 e868 d83f
000000a0: fb6b 3283 9324 d73f 5f5a cfb0 a0b6 ce3f
000000b0: a8e0 1bd8 bb32 a5bf ba8d c25d 9d74 d3bf
000000c0: 9fc0 c652 cc6e babf 6d8b c95f 7f00 b1bf
000000d0: f23c 914a e417 d23f ce31 73c5 aebb d1bf
000000e0: 4574 aac2 1e19 bb3f 76f3 ce9a 0b5f a03f
000000f0: fa53 2b73 bb2d c93f 1b74 4bca dcf5 c03f
00000100: c2de 3d0c b0e6 aa3f 29b7 cdc9 0cc1 d43f
00000110: c90d 4dff bb3d ec3f 389d 5a74 8a1a d23f
00000120: b0c6 d152 9a77 7c3f f661 7d53 f7de c0bf
00000130: c1f3 29c8 7c7d d13f 89eb d447 4ffc da3f
00000140: 7105 e5a2 3eba d3bf ac28 ebcf b5cc d0bf
00000150: 1f23 4836 68ad b83f 2457 4392 1f9e d73f
00000160: 0455 861b 0142 d73f bf89 a41c ccbe e93f
00000170: ff95 bb84 c23f d7bf 7f43 4588 8047 bbbf
00000180: 90f0 63ee 4925 ba3f edad 0d65 e88a dabf
00000190: 8bdb efeb 298d c3bf 39fa 3117 f992 c2bf
000001a0: 9a88 49dd 5a2e b2bf 9d4c f242 afe4 d2bf
000001b0: 3a67 387f 8891 d2bf 4179 6267 9a16 b73f
000001c0: 56ae 51d6 c902 e4bf cd61 a708 e67b d53f
000001d0: 276d b610 8996 cfbf f578 51b0 1410 a83f
000001e0: 4250 aecb ff17 d33f 7ea5 d9dd c47a 81bf
000001f0: 14f8 99a6 68bf b93f db3f 6396 7eb1 c4bf
00000200: ce52 5966 e368 c4bf 91ee b735 10fa d2bf
00000210: 65fa 5792 0ce8 c23f 3a87 0f25 555b be3f
00000220: fc9c d4ed 2880 ca3f 3182 bc03 1ad4 acbf
00000230: f408 87bb 0f89 d53f d6fd 03f6 bb17 d6bf
00000240: f452 1f71 765d c13f ee47 4af1 6c46 d63f
00000250: faae 0253 f2c4 d7bf cf9f 6f0e 725b de3f
00000260: 145a 9802 8fe2 cc3f 5ce0 5df9 bfc4 d03f
00000270: 144a 4191 cb0a c6bf e292 45fe 4bbe d1bf
00000280: 929f f5fc 4407 aa3f cb63 d94d 1cd5 bdbf
00000290: a07a 5b82 a6c6 d03f a626 3613 dae7 d1bf
000002a0: 6846 bf50 626f c33f 9f34 9df7 b28e c33f
000002b0: f668 6255 aa4f a73f ac9e ce3f 65f1 c33f
000002c0: 19c4 2baf acad b0bf 476c 9020 2816 e0bf
000002d0: e6c8 1c7a 52c0 d5bf a20e c441 6458 d03f
000002e0: 3903 622d 2dd5 d8bf de3d ad79 a8cd dc3f
000002f0: 54d7 2369 49a2 c7bf d42a 98d6 5e76 c8bf
00000300: 16a0 927f fab4 cc3f a951 86a9 b894 c6bf
00000310: 2e02 95a9 319a d9bf 2d79 4938 6a04 c53f
00000320: 4600 d399 6432 ba3f 9a24 f9f9 1ab9 9a3f
00000330: 971c 9e3d c067 c9bf ebd7 d706 316b d83f
00000340: c375 2a72 fa73 e5bf 2ca8 b2d5 86b2 cf3f
00000350: 79b5 6a16 7890 b03f 989a 3087 865b f03f
00000360: 35b6 8b8d 5476 dd3f 69cb 84f9 7516 b5bf
00000370: 108c b8c7 4730 e43f 1fe7 a6b3 20ef d23f
00000380: 71c9 4be1 ddb7 b23f bc9a 2827 1dd4 dbbf
00000390: ab20 6f39 0a4c d2bf e2f4 ae8d 6d85 c73f
000003a0: 8976 143f 235b c63f c124 ba89 3675 cd3f
000003b0: 56a6 02d4 3702 c23f 9089 9ea3 c650 d1bf
000003c0: 189c a280 ad14 e03f 4fee 00d6 238e 75bf
000003d0: 5906 9f76 9af6 cabf 6f53 2a2a a0ee b03f
000003e0: abd9 916b 3f9d a43f eb02 3779 d76e b43f
000003f0: b695 2129 c08b d73f fe52 dcf3 82ef cbbf
00000400: 366f d137 d1ae cbbf 978a 614c fe92 cb3f
00000410: dbee a6af fbfd d1bf 62af f333 b575 d5bf
00000420: 504a 8bee a330 dd3f b68a 886c a2cc d93f
00000430: 1b56 fdb1 f687 db3f 704a 35fd 428a c7bf
00000440: dc70 fd74 e316 bb3f c800 9482 d9ec dd3f
00000450: 5f8d 29e7 154a c8bf 71c9 8068 0552 ce3f
00000460: 4cd9 2fb7 6a8a db3f b7df dfec af0a b83f
00000470: 27df 3b15 a7e2 e23f e1b1 4c98 9298 d5bf
00000480: fb38 af6f 0fd6 d33f 5d2a 3564 8526 d5bf
00000490: f07c 6450 9257 d73f c6c4 0d22 f164 da3f
000004a0: 34fd d9ac 246a d1bf 71bc cbb4 27ed d3bf
000004b0: 7249 8aba 9236 c0bf 44ed c0af 0f1b d63f
000004c0: d797 5039 6e49 d13f eba4 8e25 649e babf
000004d0: e3c9 6b30 edcc c0bf 3cde 3682 4c19 b23f
000004e0: 7539 02f8 adc0 b73f 9fd1 683b bab6 c9bf
000004f0: caeb 6588 5d36 d43f dab1 89ff 869c d1bf
00000500: 13ce 85a5 1d10 83bf 4f75 2c24 8942 d93f
00000510: 084f cc70 2984 d0bf cd6c 6668 e0c3 d2bf
00000520: d77b 21cc 87e7 b23f 32ff 03d3 7dfa d1bf
00000530: 21fd 5e78 cb3a d0bf 1513 f22e d564 b3bf
00000540: 20a1 d04b 9578 d2bf 16aa 83f1 a86c c4bf
00000550: cfd5 a577 901c c6bf 261f 3352 8403 cabf
00000560: c0d4 453a 77e0 d63f 9c8b 16b0 1559 c13f
00000570: ca57 298d 60cf c7bf 126e 0ceb 216b bcbf
00000580: ee15 d949 049e b5bf 8677 c4f8 fd68 b5bf
00000590: 6975 5125 45a3 b33f 0c83 306b 9506 db3f
000005a0: 774e b8be 4299 d83f ad10 299d 8cd4 b1bf
000005b0: 7b2c 71fb ddb7 e23f 21b1 a843 5801 c5bf
000005c0: 9ba1 a804 0713 e53f 9a01 5084 a274 d53f
000005d0: 8a35 feea 71ea cc3f 98c8 ea3c 2386 d33f
000005e0: 7b64 3b99 308d b7bf fc58 b7b2 91ac c4bf
000005f0: 27bd b789 4260 ca3f 7733 4914 be7b c9bf
00000600: 8c74 6337 cab6 c8bf 4ba2 95e5 8c6d ce3f
00000610: 50b3 e6d7 3fbd 8bbf 9fa1 69a9 79f9 c2bf
00000620: 233a 2708 6008 afbf e0e1 7296 6d3a c4bf
00000630: 04de 3a3d d798 ccbf 6a99 acd2 7d88 c03f
00000640: 0a95 c187 6457 da3f dbf7 f654 b8ca ce3f
00000650: 35e7 5b82 8fc8 e13f 47c7 a8bd ff21 d5bf
00000660: ec81 7b55 bfc1 d0bf bf05 b3af af22 e53f
00000670: 06d0 cb37 7f88 e33f 42f4 7028 f6d1 d53f
00000680: 66a3 3e3d f8bd c6bf f049 ab1c 6e64 da3f
00000690: 4b61 f052 32a7 c3bf 4fbb c17d 9de1 dc3f
000006a0: f152 f3e4 98cd dd3f da4b f9e7 8edb db3f
000006b0: 6708 08ec 4afa aebf 9059 a1e5 32f5 c73f
000006c0: a5c9 a61b 1b47 ccbf 60dd bc05 0ba4 e2bf
000006d0: e92d 0899 1b1f e03f e4df 94e1 a06a ce3f
000006e0: 6080 0ab9 bd61 a93f 3b26 54b1 38e4 d63f
000006f0: 8704 c46f 3403 bb3f 6459 30a1 0f44 b1bf
00000700: 9468 40ff ccdd d13f dde9 cbf2 540d c13f
00000710: 0ce0 66e3 93f9 8a3f 14ce 0473 03d6 d1bf
00000720: 33d5 644e 2a4b cabf 0ab4 dbfe 6a76 c73f
00000730: 328e 5a95 277a cebf de38 adc5 6420 d43f
00000740: 485d deb5 7a75 dabf e8eb 5fd5 c056 d23f
00000750: 97dc 16fc 3883 c43f babd b92f 9ae7 c5bf
00000760: d974 c2b4 4749 c43f ee69 2f37 3738 d33f
00000770: 3c28 f080 dcaa a63f 3745 f8f0 e50e ddbf
00000780: b962 9cb6 209c 9a3f 89f0 f59e e5af 68bf
00000790: 7e4d 809d e76e d13f 4a49 70b8 1534 c4bf
000007a0: f374 3f7b 81bc a23f 645f ea51 1117 dbbf
000007b0: ab14 e935 57d0 d23f 06bf 4f94 49cd c23f
000007c0: 373f 9d38 06e1 aa3f 636c c6e7 c4d8 d5bf
000007d0: c148 c2e4 00b4 d2bf 8965 9f6d ef74 d23f
000007e0: 7c37 0eae 0e00 db3f b43f 3418 5697 ba3f
000007f0: 47c3 12d3 3ec8 a3bf 7366 4397 3444 bc3f

bias_0 f8 [64]
-0.25448465758036404 0.5492935550428034 0.6618363557139171 -0.2738216875228217 0.0837959282776453 0.14519779567175203 -0.34289201562681515 -0.13996082637849813
0.17502288184851342 -0.4362219701512993 -0.7031039344066131 0.20286996284076894 0.08207372459703857 1.0331958113168236 0.029071630797236937 0.4610733094722215
0.0421189334733598 -0.03486955515980841 0.2178590426950812 0.15126084925205113 0.32871031707399073 -0.14012939769166474 0.8002598719046901 -0.16956729748261348
-0.09349188302666042 0.5761543040095743 0.09763906678549018 0.09165442079581447 0.19197662041450764 0.2932281453660432 -0.7483394175758467 0.42725643286447174
0.08980812448134178 -0.12597285685804457 0.28499305939577213 0.3436640575906443 0.35965345345282274 -0.511252694834679 0.21201704859892412 0.5275532005715711
-0.7202272267742585 -0.47131143429809463 0.13481820085814092 -0.04783904559033408 -0.04885892184880374 0.3215028550298877 0.014981572262377294 0.3130023557357419
-0.22495494942931257 0.16480004666116477 0.5710366715251061 0.22048099027589438 0.7397786111395558 -0.3358908968812055 0.02050581120176113 0.5556888611397277
-0.09991159733326253 0.19530986819900784 0.4381383351748774 0.7108912803790944 0.9873359365543258 -0.2531148590395583 -0.16379779644425685 0.44308908034234584
00000000: 0f0d 6904 7a49 d0bf 51ff d913 d093 e13f
00000010: 080b e36f c32d e53f b125 3666 4b86 d1bf
00000020: 038e 7d63 a673 b53f 7f44 ee63 d795 c23f
00000030: ec4e 4b5a f1f1 d5bf f725 0282 3cea c1bf
00000040: 1ba7 cb58 2667 c63f 5d2d e68d 0feb dbbf
00000050: 01e4 7ed2 d37f e6bf 8bf4 de97 a4f7 c93f
00000060: 3a54 019b c802 b53f e484 bf54 f887 f03f
00000070: 3ae4 0f1e f4c4 9d3f a977 4fa0 3982 dd3f
00000080: 3df7 9ee3 9c90 a53f 042c 131e 6cda a1bf
00000090: e5b1 c11b cee2 cb3f 92f3 59f8 835c c33f
000000a0: 7932 6cff 9609 d53f cb9d 2596 c2ef c1bf
000000b0: a637 4497 ba9b e93f c157 9496 61b4 c5bf
000000c0: 9e7c 0a84 15ef b7bf e576 a526 db6f e23f
000000d0: 09d8 a7b6 dffe b83f 8b12 da03 aa76 b73f
000000e0: fe71 239d b092 c83f f749 a7fb 3fc4 d23f
000000f0: 6a78 9981 65f2 e7bf 4925 8a5d 2b58 db3f
00000100: 5ffd 8f4d aafd b63f 73ca 31ea e01f c0bf
00000110: e446 6c87 533d d23f 0966 0a88 97fe d53f
00000120: 124b 1eeb 8f04 d73f 6cd1 899c 2e5c e0bf
00000130: 18a2 f6e8 5f23 cb3f 605c eb3f b7e1 e03f
00000140: 19e5 15f8 190c e7bf 84a2 226f f729 debf
00000150: e1ae cb09 b941 c13f 978e 9000 5c7e a8bf
00000160: 97b7 ea5e 0904 a9bf c322 fbb5 8093 d43f
00000170: 45cd 4697 a8ae 8e3f 9b2e 5d08 3b08 d43f
00000180: 47a5 6fe3 52cb ccbf 30fd 64fd 2a18 c53f
00000190: 788b a0b2 ee45 e23f dff4 4f99 b838 cc3f
000001a0: 7dfd a331 44ac e73f ab3f 4888 3c7f d5bf
000001b0: 4b43 f5b1 79ff 943f 7a17 ab01 34c8 e13f
000001c0: 8398 0973 ce93 b9bf 831a 40ec e9ff c83f
000001d0: 8dcc 2c5f 750a dc3f 41ac 0712 9fbf e63f
000001e0: d352 b588 4198 ef3f 2a38 6daa 0833 d0bf
000001f0: fc45 7181 53f7 c4bf f23e 524d 925b dc3f
