trained_model.npz (npz, 442016 bytes, 6 tensors)

weights_input_hidden1 f8 [64, 784]
00000000: 285c 41c3 110f c0bf a8ac 77d1 80d8 dc3f
00000010: 449d 793c fab1 cd3f 8065 19b3 ae41 b93f
00000020: 3eef 6e64 ca03 d6bf 5a40 338f 2f04 d6bf
00000030: 5275 53ac 5b48 dcbf 6a6f ab12 6e6f d73f
00000040: 685d 9264 ace2 b93f 080a 6a4a 1fa2 ca3f
00000050: 1878 8c5f beae debf 4aa7 c6c5 0013 de3f
00000060: 0eea 8a8b bd46 d53f 529b a41d 0969 d2bf
00000070: 64f3 0fd0 fa5c d4bf dc65 0fbb 1943 d4bf
00000080: 30ab 3616 970e c9bf 608c e700 c059 993f
00000090: 9812 431f 0d6c b1bf e485 9ae7 00b9 cabf
000000a0: 38a9 cb2c 64a2 bc3f c26d a057 8812 d7bf
000000b0: 587f 6b10 019b cabf 9091 461c 0e1b c1bf
000000c0: 2081 33ba fe7d a6bf 5c74 f2ac 5240 d23f
000000d0: c6b7 f074 8b38 d3bf c004 b5fb f126 8d3f
000000e0: b8b8 ef2e 7ba8 b73f 92d7 1ed9 f406 ddbf
000000f0: 5014 c535 0f88 bb3f a660 65fc 2116 d5bf
00000100: 58d5 e4d7 31d6 dbbf a92a fc7d 95ba dc3f
00000110: 21bc d627 f4ec dd3f c737 a711 4eec d33f
00000120: 03e4 88b1 9a4a c6bf 99dd c42b 4e64 d9bf
00000130: 1416 9d1c 9ec7 c73f 8a0d 77c4 f2b7 adbf
00000140: 9f0c 17b0 9dfc d7bf 2bd6 eb1d 0c24 6abf
00000150: 8217 d0eb 45a2 debf 0683 61c6 281d d93f
00000160: e338 0281 2f9f cebf 9bd4 4bbc 2804 c53f
00000170: 70c3 8c26 da1e c8bf 2ae9 66fa ee80 973f
00000180: 9425 ad9e 6530 a93f 19bf 063a ab05 d4bf
00000190: a1b7 672d e93f de3f 92d3 a0cf 15a0 d13f
000001a0: 8644 292b c020 dc3f 1ecc 69ef d944 d93f
000001b0: e8cf 4517 f90f b93f 68c1 9cca fcff da3f
000001c0: 12bb 6f8b 2356 dabf da54 d54b 0475 d3bf
000001d0: 0c85 4f00 ff1a ddbf 5e2c 70e4 2154 c6bf
000001e0: 9c78 2c7c 597a bcbf 63d0 01aa dc43 cdbf
000001f0: c732 d1d1 b529 d53f 67bc 2770 ce60 bfbf
00000200: ac76 446c a819 c4bf d366 c383 e258 af3f
00000210: 2fd7 6c0b 0b5e d4bf 0d8f 5a0c 5db5 d63f
00000220: 6687 927f 23d0 d9bf b0df ef86 8acc df3f
00000230: c5cb f0db 3a87 d03f 1b5a 6e67 a84d d4bf
00000240: dc8e 179c b9ea dfbf 7e41 37fe 364e d43f
00000250: 9c39 d0ff d140 ca3f 9d26 4a40 69df cc3f
00000260: 5152 c5db 44ad d03f 8eb7 2553 6f9e dbbf
00000270: 38c5 a098 a892 c1bf 7fab 07ba a940 d8bf
00000280: 8867 5de8 7c1f d73f 419b 82dc 5f11 bf3f
00000290: 4033 792e 22a5 c5bf 7290 08f5 a8ee dbbf
000002a0: 206d 4c35 bb31 c8bf d061 5895 6460 c6bf
000002b0: a8f4 7539 bc63 cd3f 2749 9b13 b6b1 c13f
000002c0: 7bd4 e733 4dcb d83f 58e2 90dd 961a 9cbf
000002d0: aa95 6fe6 cb69 d8bf 2e4b 4013 067b c93f
000002e0: f79a ac48 6a07 d23f 403b 8f83 2169 c03f
000002f0: cfa3 86b4 8e89 d03f b4aa e57b 6cd6 8abf
00000300: 95c7 2c29 756d 893f 0c61 1850 97dc b6bf
00000310: 863a c75f 3205 debf 4982 651e 51d5 d9bf
00000320: f5b4 6e85 2310 debf 0581 b460 d3cf bd3f
00000330: b264 586b 1f7a d0bf 2723 b7fe 8c16 acbf
00000340: 759f 8b58 4baa d63f a4be 1983 f1cd d3bf
00000350: fc8e 9945 6f0a c2bf 0c93 1e12 2d9e cf3f
00000360: 0eba d3fe c486 d1bf a7c0 8ef0 bf35 dbbf
00000370: 5409 e133 fee4 cabf 48cd f4e8 8cae d5bf
00000380: 54ad fe94 2a80 db3f 3075 5d8a 3eb8 d33f
00000390: e507 30f6 1c13 c13f 112e 7f59 c1c4 d73f
000003a0: a27c 2dc7 6162 d33f 980b d204 0349 d4bf
000003b0: 5639 a643 4287 d73f 53dc 607d fbd8 8f3f
000003c0: c2bd e9d9 642f d53f 0f1e 7077 bfe0 d93f
000003d0: 4153 3a8c 7317 c9bf 9a90 1753 5394 d9bf
000003e0: fcda 1928 497f d1bf 2114 9706 70cb b9bf
000003f0: 9403 9fce 6b26 ce3f daec 30a6 486f d13f
00000400: 89f1 45cb 60c4 e1bf 14d2 a3ad f0af 9ebf
00000410: 6de0 5b87 0238 c8bf 1f82 528d e5b8 d7bf
00000420: 4084 594a d2fd dcbf b2a0 7414 450b d1bf
00000430: 1676 a94e 30ee d33f 964e b5c2 c936 ccbf
00000440: a111 a88c ebba 8c3f 68e9 4032 3f01 c73f
00000450: a7b5 36ec bafc c2bf cd01 da64 4fc4 dd3f
00000460: 289a f989 bc98 dd3f 10f0 db04 99c5 cfbf
00000470: 3007 c56a cbce 66bf fb7c 3bc5 8fac c9bf
00000480: bda1 756c 418e cabf ebb0 2cd2 96e7 ddbf
00000490: 1880 6d07 ee0c b03f b396 7c72 f295 a1bf
000004a0: 46d3 87d0 7205 debf e458 696c ba02 d0bf
000004b0: 97b2 d087 076f d53f f72c 8f4e a9fb d2bf
000004c0: a080 2903 8fc9 dabf 854a 95a6 d760 b9bf
000004d0: a618 b954 177f d33f ff9e 3bef cdc0 d7bf
000004e0: e004 7792 53bb c13f 72cc 92e5 d898 d03f
000004f0: e736 f31e 4b5a dabf 37d5 ecce d0e3 9c3f
00000500: e29d 6051 03b6 d0bf 1504 566b d222 863f
00000510: 4ca4 b78e aaf2 9f3f e2d8 c1f7 5834 9ebf
00000520: 8c3b 04ea ea66 dabf cef0 239d 9be5 d13f
00000530: 6fb6 67ba 108e c9bf 0e7d 899f b5b0 d4bf
00000540: c814 22a9 f063 ddbf ccea 43b8 f343 b73f
00000550: cdfe 9fd7 b0ac c63f e816 c885 c4ec debf
00000560: 8d53 f41f f0ad 963f 1042 674d eb0e d2bf
00000570: 3c70 49ee 6b33 b93f 11c8 d524 c7b9 d6bf
00000580: 438d d5df 33a4 ca3f c2d6 a1dc 52a2 c2bf
00000590: 76d3 fe3f 5760 d43f fb34 ef02 323d ddbf
000005a0: ece6 f1bc 0371 d0bf ceef 6b3c 37d2 e0bf
000005b0: 7bbd befd 2477 d23f 1562 6f92 075e d13f
000005c0: 2877 fd32 b3a0 d5bf 6411 68a6 ea19 c83f
000005d0: e000 32fe f3ee cd3f 054f 912d c366 babf
000005e0: 6842 a5ed ffb4 b8bf e3a3 53f1 790d d7bf
000005f0: eead 2c24 c9bb e1bf 4db4 d07b 4a90 d43f
00000600: 1626 e99e f9c6 dd3f 20aa bc69 acd9 bf3f
00000610: 1203 3adc 5adb c2bf 4d6b ec3f 9224 c3bf
00000620: 4938 c29a fbeb cc3f 4750 d379 7262 d93f
00000630: e97e 7403 0f80 d83f 3ea7 c0ee 5e48 d13f
00000640: db2b d65c 0a2d c23f aeed 8cb8 b74d ddbf
00000650: 06e2 d455 afb3 dbbf c0f6 e66d 8038 d43f
00000660: 7054 91c4 0327 bc3f 59b2 43bf 1a61 e1bf
00000670: 24df ac71 e550 debf 9e33 2223 f8db 963f
00000680: be8c d993 80a1 e4bf 7b58 1ffd 8fa8 d8bf
00000690: a871 bb3f ff31 ab3f 20e7 c620 a6bd b23f
000006a0: 60fd 305c 9350 c23f 4947 fa7f 25e4 d4bf
000006b0: d702 b62e a41a b73f b6c8 d11f a4fb d0bf
000006c0: e59f a49d 29cd b1bf a7d2 a5c1 ae87 d73f
000006d0: 84b2 28f3 3f24 d03f 4ed1 f054 0936 d93f
000006e0: c703 4df2 387e c83f 3fbd 5ffa 8b95 b13f
000006f0: 5f3d 4cb1 c88f d9bf 9a02 de33 2cd7 c0bf
00000700: 096e 15af 7079 cebf b616 899b 496d d0bf
00000710: fc52 7ea8 57f3 dc3f 56e9 049d d01c c2bf
00000720: 523b 2c20 4627 d63f 3bdb b55e 23ba 9d3f
00000730: 7e76 3371 288b c73f b085 8538 a417 adbf
00000740: 2130 e8f6 01e2 b13f eb31 f14c 4f8e c4bf
00000750: f588 8f46 4c97 debf 89ce b765 efad 763f
00000760: f3b8 f77c ff49 d1bf 2477 d0c5 4e8d d5bf
00000770: 4a53 002d 100c b43f 2e3c fcdc 9891 ddbf
00000780: cb69 c183 9bd2 dc3f e510 8316 5e73 de3f
00000790: bddf 3b6a ce17 e23f ba48 6485 1827 c63f
000007a0: 10f0 ef67 0f0f cdbf 7df8 5877 5720 e23f
000007b0: 763a 4f91 966d 9e3f 38ed 81d5 4263 e03f
000007c0: 8cdc 78f9 1e8c e03f 2c0e a8ca c3a1 d73f
000007d0: 999f ee2a 5cad c8bf f5d5 9561 2460 bdbf
000007e0: 88a6 c2ba fa78 d63f 0ad5 1896 1777 c7bf
000007f0: af9d 547a 1656 d6bf 0ef6 5020 b197 943f
-0.1254598811526375 0.45071430640991617 0.2319939418114051 0.0986584841970366 -0.3439813595575635 -0.34400547966379735 -0.44191638783180054 0.3661761457749352
0.1011150117432088 0.2080725777960455 -0.47941550570419755 0.4699098521619943 0.33244265200815526 -0.28766086478065234 -0.3181750327928994 -0.3165954901465662
-0.19575775704046228 0.02475643163223784 -0.06805498135788424 -0.2087708598019581 0.11185289472237947 -0.36050613934795817 -0.20785535146478185 -0.1336381567063083
-0.04393001578296407 0.2851759613930136 -0.30032621784164026 0.014234438413611605 0.09241456886204247 -0.4535495872800023 0.10754485190143837 -0.32947587631270847
-0.4349484070147205 0.44888818076348486 0.46758750811108213 0.3112979099649888 -0.17415174168289135 -0.39674715303723357 0.18577934643887828 -0.058044039232778635
-0.37479345508854495 -0.0031910168321427532 -0.4786543658122967 0.39240474103102974 -0.23923295783283213 0.1641894263663389 -0.18844153292004817 0.02295277980167857
0.04919736444442005 -0.31284599939952923 0.47265080865951786 0.2753958251590173 0.4394989415641891 0.3948273504276488 0.09789997881108514 0.42187423502311683
-0.4115074979480805 -0.3040171375808548 -0.45477271108946193 -0.17444251684387074 -0.11124190599045608 -0.22863348294379468 0.33067079057654464 -0.12257089841999545
-0.15703301702972305 0.061225012382875164 -0.3182399379323781 0.3548195477144283 -0.40332877596130456 0.49685919930879674 0.2582537792069924 -0.3172398576802224
-0.4987014793716591 0.31727385354772497 0.2051031588639035 0.2255679668344798 0.26057549917212436 -0.43154509658676765 -0.13728816463984983 -0.37894671599377
0.3612968701541992 0.12135886319684365 -0.1691019751473508 -0.43644164971397637 -0.1890176782843378 -0.17481667797325295 0.22960617833806407 0.13823581654885084
0.38740854329018476 -0.027445180199921232 -0.3814573049879423 0.19906688632962627 0.2817025861462947 0.1282083408718453 0.2583958399723629 -0.013104293376007582
0.012415805167254304 -0.08930345254373523 -0.4690671859106391 -0.4036448284951218 -0.4697350314189202 0.11645241843189431 -0.25745378001154073 -0.05485954865759473
0.35414394042026426 -0.3094447880057294 -0.1409434404223403 0.24701465019929747 -0.2738506783051954 -0.42515562526660705 -0.21011331113011045 -0.3387787127459956
0.42969765234257307 0.30812037956441696 0.13339578648452668 0.3713839887611537 0.3028797574133454 -0.3169562861514179 0.3676305447233025 0.015550579799407915
0.33101769714900453 0.40434252418387556 -0.1960281786638465 -0.39967806925256755 -0.2733939067469888 -0.10076046143429142 0.23554751957820186 0.27241722325898154
-0.5552219362430587 -0.029968033407344732 -0.18920928582497556 -0.3706601982212607 -0.45299203167639135 -0.26631285665144866 0.3114128845389542 -0.2204220009540349
0.014028396825786884 0.17972555116450484 -0.1483377126109364 0.46510681961811146 0.46244729494211123 -0.24821770417463584 -0.0027841542234065195 -0.20057866220938778
-0.2074662952029608 -0.4672600796209411 0.06269729310361105 -0.03434713027517713 -0.4690825497084926 -0.25016651713430194 0.3349016977615888 -0.29661019012264894
-0.41855216320801425 -0.09913394753429301 0.30463202737554196 -0.3711428486117114 0.13852924968345004 0.2593290559700058 -0.4117610742804189 0.028212797765452904
-0.26110918948185546 0.010808605099329719 0.03119913574292736 -0.029496564981365554 -0.41253159382989035 0.27963915200940626 -0.19964799024403443 -0.323285489843287
-0.4592248584452361 0.09088061569847666 0.1771451046806675 -0.4832011515103276 0.02214789576563052 -0.28216059264107773 0.0984408814196635 -0.3550889835088365
0.20813606671718263 -0.1455787255578596 0.3183801770167557 -0.45686006819308006 -0.2568978638806658 -0.5256611042127532 0.2885220029811177 0.2713641099958591
-0.33793334941388986 0.18829091191595204 0.2338547698200335 -0.10313052999964263 -0.09651183654683282 -0.360197530432343 -0.5541730600866097 0.321306820786792
0.4652694751608534 0.12441518384427086 -0.14731918099644098 -0.14955356713547943 0.22595162445617437 0.39663373848930344 0.3828160794964633 0.2700421649520769
0.14199952633893428 -0.457868509507274 -0.4328420961569751 0.3159485886825273 0.1099703173543547 -0.5431035743363949 -0.47368751622296856 0.02232349123419263
-0.6447146308604699 -0.3852882358454576 0.053115822343645036 0.07320631313532688 0.14308397294551423 -0.32642495630090146 0.0902502645531159 -0.2653589544999123
-0.06953678225238454 0.3676564112750306 0.25221251245492504 0.3939231233118975 0.1913520033940854 0.06868815291067153 -0.39940087618102454 -0.13156654865817502
-0.2380810599232606 -0.2566703814412493 0.452352442306889 -0.14150436083748258 0.34614709035752356 0.02903037324491751 0.1839342644442929 -0.05682099523506723
0.06985485342028187 -0.16059294945661348 -0.4779844941205192 0.005536971231311257 -0.2701414795291292 -0.3367497379093598 0.07830906962074127 -0.4620115430888657
0.45035446039915134 0.4757914752810975 0.5654060435181162 0.17306810868519112 -0.22702210021077507 0.5664479571348832 0.02971492063425748 0.5121168298786989
0.5171046135427715 0.3692483405177167 -0.19279052826209123 -0.11474826223805919 0.3511339973289087 -0.18332190350489724 -0.3490043825754254 0.02010990867369427

bias_hidden1 f8 [64]
00000000: fa94 e9d5 447e cb3f 7a87 7e91 2377 d5bf
00000010: 3b9c c1a3 63f1 d83f b72a 267a fbef db3f
00000020: f02a b962 c4e8 bcbf f38f 6eaa ed4e c03f
00000030: fc43 0ef8 f761 ce3f 896d 0e2d 8d8d ddbf
00000040: 6e0e e90f 4952 dabf 6674 eebd 3533 b53f
00000050: 3ddf ad27 c0f6 e53f b7ab 3a20 b0a2 bf3f
00000060: 5f96 e35b 0ea1 d8bf e636 3e07 d39d d3bf
00000070: e741 9fba e02d 94bf 6986 7316 4465 d73f
00000080: 4a85 ab13 6ab4 bfbf ca62 c8c6 1529 e7bf
00000090: 9afc 2b86 2f79 d23f b08a b819 6330 e0bf
000000a0: 7452 45f8 0c72 d4bf 78e6 0616 29d0 dfbf
000000b0: cc29 4fe3 4ebf e53f 9fdc 55e6 74c5 b03f
000000c0: 1ddf b69a 3925 e4bf 4a74 ad38 739a b3bf
000000d0: 1850 3b4e 1eab cdbf a745 b432 e6a2 dbbf
000000e0: 0727 f66b 3a9d cbbf 7a45 a49f 4dfa e1bf
000000f0: 5a48 c44a d7e1 d63f 4896 e87a 992a dbbf
00000100: f566 8850 915f ca3f 1eda 3201 2438 c1bf
00000110: 9b59 f188 b4fb e03f 2a0d f637 2967 b0bf
00000120: 61a4 061b 74d9 e0bf 865f 1b43 86b8 b03f
00000130: a9e5 3dd5 51dd ad3f 9d3a d2b3 1611 d2bf
00000140: d85c 2da8 6efc 85bf dac1 2b9b c0cf de3f
00000150: 300c 00a7 3855 d0bf a283 9db9 f4c4 dc3f
00000160: 3e87 6a9e 872f e03f 977f d295 6364 e0bf
00000170: 82ee fba3 b76f c13f 6d13 b315 75af dc3f
00000180: cb35 ff81 6713 d13f 8f5c c9a0 dd67 d9bf
00000190: f748 f262 a010 d3bf caad 1fbd 0ad0 b93f
000001a0: cb34 4924 b5c7 e7bf 3631 dd8c c93f db3f
000001b0: fbdb 5894 8f40 b9bf 672a 2090 bab1 d5bf
000001c0: 78ce 8b10 5a35 c4bf a989 8d13 1708 c33f
000001d0: b74e a58d 74ee c6bf 3634 f2e2 af24 eb3f
000001e0: fb7f fb88 89e0 a5bf 69fa 35ef 7759 babf
000001f0: 68a3 d6b8 8e0c dc3f 467a fffb 7fe2 dfbf
0.21479092068617672 -0.33539666374610244 0.3897332286055108 0.4365223591673088 -0.11292674455868812 0.12740870305890403 0.2373647652825922 -0.46176461601290747
-0.41127230218646715 0.08281265151022552 0.6863709235176213 0.12357617174954681 -0.3848300835946698 -0.3065078325970333 -0.019706260099896424 0.3655557841540032
-0.12384665470337555 -0.7237652666545611 0.28864658453671554 -0.5059066297875088 -0.31946110005564 -0.49708010817594284 0.6796030463822773 0.06551294921324534
-0.6295440694584361 -0.07657547124604594 -0.2317846185675314 -0.4318175788076481 -0.2157357241779254 -0.5618045919419921 0.3575342397826994 -0.42447506907260335
0.20604149276987696 -0.1345257764675844 0.5307257342017694 -0.06407411209334116 -0.5265446212625983 0.06531561983444875 0.05832916000413075 -0.2822930103365396
-0.010735382563935067 0.48143019822512445 -0.25520149525272284 0.4495212376260104 0.5058019727768863 -0.5122545171943668 0.13622184283291366 0.4482090675267532
0.2668093461514586 -0.39696446134389246 -0.2978898016236963 0.10083071820525116 -0.7431283673010055 0.4257682681680025 -0.0986413705039552 -0.33897270273943153
-0.15787816818157174 0.14868439154367977 -0.17915207783027196 0.8482284004727549 -0.04272870824001981 -0.10292768087490746 0.43826644945743576 -0.49819945916343433

weights_hidden1_hidden2 f8 [64, 64]
00000000: 2a6e 0ace 2c75 ccbf 890f 9a99 e79b e33f
00000010: 1b5b a32f d0db a23f d63d 4b15 979d d23f
00000020: bdcd fd0e 8f09 91bf 14f8 58da d9c5 d4bf
00000030: 18d6 84c0 5cc1 d53f 3787 48fa 4fdd c4bf
00000040: 992d 47d9 c689 c33f d8bf 9f98 7b64 d3bf
00000050: 2844 4635 c38e b03f 4866 c31a 977b e53f
00000060: ba56 c846 0143 b1bf 4960 4609 5dbe dabf
00000070: 96a6 9bb7 7b47 e5bf 089d 0949 cbb6 c93f
00000080: 9c10 60d2 1cc5 e53f ba46 e5db c977 e8bf
00000090: 7c67 ad86 8534 ea3f 2e1c 0537 6319 dabf
000000a0: dd27 89a1 c84e 80bf cbba 7f64 ec74 e8bf
000000b0: 45c2 1db8 5994 9cbf a1ab f25e 5c24 e4bf
000000c0: a64c 60f2 7f75 c43f 1f05 48cd 8201 693f
000000d0: 1226 7051 dfb7 d6bf 6ce4 130e caf8 bb3f
000000e0: 9bc6 add5 ee1f c1bf 80cb 6405 781c d03f
000000f0: d054 bcc5 a110 e5bf a224 9849 adb7 c03f
00000100: 450a 5f20 d6db c8bf 3efd 5ae8 9dfd b93f
00000110: 63b7 45d1 c747 b6bf 6d3a 1a9d 1222 d13f
00000120: d4c4 7d7e 1b61 d73f 7446 c986 e7e9 a73f
00000130: 181a 0d6f 5cfa e23f 2710 0d8e 219c cb3f
00000140: a2cc f3a0 c8b7 abbf 119a 5ba3 3d9c e4bf
00000150: c952 4880 5705 d33f b189 fbbe 2d4d a53f
00000160: f569 27c3 effc e1bf ae8e bd26 c1f3 c13f
00000170: 74f2 1375 2a41 e2bf acfe e3ad 53d0 d03f
00000180: 3c2a b193 53b6 c73f 849d 0b0d c3ab dfbf
00000190: dca4 fd12 a0f3 a5bf e408 312d 0f67 cbbf
000001a0: ddcc fa29 adcc b03f 6225 547c 5512 8abf
000001b0: 488a 4e7d 20c3 c3bf 89d8 87c5 b6c5 ca3f
000001c0: 093e af1e 67be e0bf 5424 aa38 7f12 b13f
000001d0: 2ada 4768 17b2 8cbf 92a5 b925 9812 d9bf
000001e0: aa37 c702 f455 debf b94f 3bb6 e639 da3f
000001f0: bf11 df1a c861 e2bf ce5f 9a8e d92f cebf
00000200: 7684 7d7f 4fd0 d5bf b816 9a81 1512 d03f
00000210: 2a17 6751 283f ddbf 7bd8 0e54 386e bb3f
00000220: e91d d943 d741 d2bf 3ba6 aa38 d967 cf3f
00000230: c6cf 410c 75c7 dabf da39 4d44 e575 d3bf
00000240: 5e9d 3dc9 bbe7 d33f 8b6b 7d8c 9ae3 c1bf
00000250: 9f07 00b6 3852 e2bf 589c e404 b9dc b63f
00000260: dd17 7213 4ae2 bfbf 5b53 fb3a 66c4 bcbf
00000270: fd5c 640d 7160 bbbf eea0 319b 7e8f dcbf
00000280: 1937 6ff8 59d9 dcbf 0f09 e62c aba7 df3f
00000290: 2e48 53ed a254 dbbf cd0e 0bdf 1d92 d5bf
000002a0: fcec 0cb4 3a92 e13f d97d 2a01 51cf d3bf
000002b0: ff68 4647 74ce dabf b97b 7ac1 08c0 d6bf
000002c0: abea 7f5a c624 e9bf c8e7 35a3 4d9f 9cbf
000002d0: 090e 0fd8 530e a13f 3de0 1dfa 3811 e23f
000002e0: 5759 b9b9 0ad8 dfbf 7fb5 d23a 0925 d43f
000002f0: 81b4 c7e2 e1d2 d9bf 12ee 94be ad41 a4bf
00000300: a046 21cc a1a1 c7bf e656 2d06 2099 a33f
00000310: 4e72 1c71 6556 cabf f443 0faa 3782 e43f
00000320: 1d0a bfaf 1294 d13f dd41 7d68 4406 bdbf
00000330: f06a 359a 7188 e1bf 3263 00e3 a964 bdbf
00000340: 93c1 06e0 403b b63f 5888 870e 7ff7 cdbf
00000350: 8cf0 4735 2dce c7bf 4ec8 fdee acf3 dfbf
00000360: 76b9 8005 a5a4 cebf a427 a9ad f801 d8bf
00000370: 1450 50e7 c6ec cb3f 3f93 6ed5 82c7 d2bf
00000380: 2a1e f528 6116 dcbf 7aeb 65c8 bdcb 6d3f
00000390: 1277 0ff9 30c4 d73f 9b70 b989 860b b13f
000003a0: 3696 107c 44ab dbbf b268 8725 fc63 833f
000003b0: 1ba6 04c4 5731 e3bf 38d8 2d5d c0de a63f
000003c0: 8ffe c90f 7597 c23f 0dc5 4397 5059 923f
000003d0: 4fc8 c292 0f83 d1bf d1ed 8ac0 11d3 a63f
000003e0: 5be8 e2b4 b8fb 94bf 34d8 ec37 4736 c13f
000003f0: d082 088d a426 d7bf 6f64 a64a dfe0 d63f
00000400: b431 e03e 9b22 bcbf 5ae3 509e af69 c4bf
00000410: f648 23f5 180f c0bf 1c58 da16 3c1d dc3f
00000420: a1f3 ce31 cfed ca3f be8e 8eb2 3844 d0bf
00000430: 06f0 9b0d 576a c73f f9de 2134 cb86 d7bf
00000440: 8860 300f 2105 e1bf 5605 6d76 45b5 d63f
00000450: 442b 9cd4 a693 d8bf 365e 604a a471 d6bf
00000460: d627 ee98 ee00 8abf f2ac e968 93ad bb3f
00000470: 53e9 d72b 2ec1 d7bf 31e2 dd10 bdf5 d1bf
00000480: 9fa2 c3be 4905 d9bf 4848 2d91 0b9e e2bf
00000490: 7c56 1d28 556b d7bf 815c 7f3a 46a2 e03f
000004a0: aacc cd16 e567 dcbf 4963 93af 6863 bebf
000004b0: 239a a5ba 1c63 d53f e1a8 c2b0 9f99 cd3f
000004c0: 58ef 35c1 17df dfbf 5ed0 794b 9d09 b5bf
000004d0: 73f1 7e3e 09ed d33f 29fc 506c c031 cfbf
000004e0: d4f6 93d0 8023 ccbf 2e22 b0f3 40ef c8bf
000004f0: 2c81 abd9 1318 a03f 93a6 5563 5906 d2bf
00000500: 362f 27cc 3598 c83f 8479 2ac1 4c53 c23f
00000510: 26b8 2ef9 b0c6 bbbf 0f29 f844 149c d43f
00000520: 1246 2bf8 2682 dbbf 0139 c881 000f d43f
00000530: 7d15 b95c 536f babf d5cc 34ff 6677 7e3f
00000540: 514c dd91 7fc1 debf 08a5 b60d 8346 a03f
00000550: cf0c 679a 7509 b2bf e38c 909a 88f5 bd3f
00000560: 0ee2 0331 c46d c7bf bbdb 84d9 479f dfbf
00000570: e927 29b9 7345 b9bf d579 cec3 7d6f 92bf
00000580: 071c 670c f3d6 bcbf 8d91 7740 e197 a43f
00000590: 50bf 0c3a a3c2 cdbf 00f1 e4af 500c d1bf
000005a0: 82b5 e097 8575 98bf 5be8 3945 bc3a ac3f
000005b0: eaef 8721 56f2 cb3f c7ab 9596 a8f8 d73f
000005c0: 8c34 fc80 f27c bf3f 877b 7af4 5d21 e2bf
000005d0: 454d b2bb 81e6 ae3f 53e0 b531 4604 8fbf
000005e0: 4627 048a 4137 d1bf 674b 4fbf 2b24 dd3f
000005f0: 9a1e a1d0 ab97 97bf 6828 0e16 e0ed c43f
00000600: 746b 2cc9 35a7 d03f dbad de5a f1e5 b53f
00000610: 2797 c37d 5cc9 bbbf 3875 2aed da3d d8bf
00000620: efcb 766f f932 87bf e746 9b63 2908 e0bf
00000630: 185e 0545 b697 c63f ee6a ba09 5b57 d13f
00000640: 1e34 381a c0e6 dc3f 5cf8 b9dd 7cca ca3f
00000650: 52fd be13 a49b ddbf 3b24 4bbc f896 d23f
00000660: 1837 da5e 2612 d4bf 8b1d 15b6 2fd7 d6bf
00000670: 8a1d aef0 1cd5 e0bf 70c5 5ecf 2eac 993f
00000680: 5dd4 973e a06b bcbf 6af0 0591 69cb bcbf
00000690: de55 ca29 e303 dd3f f4ac edb7 47a1 ab3f
000006a0: b2bd 48ea bc8c b73f 7450 4924 9c89 dabf
000006b0: 1e32 8e6c ef1d e03f 7976 d105 0733 e0bf
000006c0: e61a 7dfc 5923 d33f 0b45 f746 abfe d1bf
000006d0: 8b77 7fb5 8598 d03f 1c9b 2037 1039 d03f
000006e0: be27 f3c0 dee4 e33f 31d1 97da 4503 e9bf
000006f0: 72b0 e5f6 200d debf c8dd ecbd 51ca d93f
00000700: 398a 9a0b 0eaa b03f 51ce a666 9db2 d73f
00000710: 6d0a 55f8 39e4 e53f 368c a50c f088 d0bf
00000720: ed7d ff75 c2f6 dc3f 3ce3 2804 1d68 a4bf
00000730: e9d4 eadb 113b dbbf 27a2 e137 842a c8bf
00000740: 67dd 05fb 25a2 43bf 9b6e 135a 535f c23f
00000750: c281 a20d cf65 c83f 8116 b718 f20a c23f
00000760: caf0 802f cde2 9abf 0530 0c57 12dc b43f
00000770: be87 b97b 6408 ccbf 9a4a 396a 8eda e1bf
00000780: 9a35 25c8 b79f cdbf a876 0648 037f 8fbf
00000790: 85a6 ecea 7ecc bd3f 446c 4218 55c0 e43f
000007a0: 4595 13d8 4bf6 c13f 0747 df7f dfb4 e3bf
000007b0: 16af 5be5 7353 e23f adc5 ea64 9a2e a2bf
000007c0: 31f3 d792 7fda ddbf dee6 2ab3 2b97 ba3f
000007d0: d02d 68e6 258d 8cbf c9d8 970e 7f77 f1bf
000007e0: 0988 cc52 6f51 8a3f 0253 fed8 aa5f d23f
000007f0: 17ef fc5f 5d8f b43f e9a4 0467 3f4e cfbf
-0.22232589779456308 0.6127813339266918 0.03683329183120617 0.29086854056819555 -0.01663802651405687 -0.32457586596490384 0.3399268989627173 -0.16300391884674933
0.15264211282042764 -0.3030079832524257 0.06467838335653708 0.6713367006988813 -0.06742866495218439 -0.4178688612532864 -0.6649759851545294 0.20089093271528946
0.680311594857375 -0.764622621043791 0.8189113264481729 -0.407799533586913 -0.007962768010788263 -0.7642728770132065 -0.027909662115634743 -0.6294385771228584
0.15983580908559708 0.0030524782871458457 -0.35497267678201283 0.10926497310346556 -0.13378701623473863 0.25173759962779485 -0.6582802640938556 0.13060537427398794
-0.19420887547137702 0.10152613566150578 -0.08703278407275898 0.26770463315998577 0.3653019652620746 0.0467064239534353 0.5930616539924953 0.2157022422417196
-0.05413653340101489 -0.6440723600943007 0.2972010376700323 0.04160445171671102 -0.5621260463333885 0.14025129691719002 -0.5704548155477611 0.26271526319031113
0.18525166236425317 -0.4948585154911245 -0.0428743384534955 -0.21408261973016984 0.06562311434645403 -0.012730281693182636 -0.15439230078216526 0.20915875096369899
-0.5232425307567051 0.06668849118627068 -0.014011557454961372 -0.3917599075708377 -0.47399616500194475 0.4097840098959256 -0.5744362377959574 -0.23583526099241542
-0.34083926630234573 0.25110376030384485 -0.4569798273990836 0.10715057422825851 -0.2852686083392358 0.24535670535014895 -0.41842390248279704 -0.3040707747467458
0.3110188927880325 -0.13975841388568386 -0.5725368075074931 0.08930546159227626 -0.12454665159938778 -0.11237181606277373 -0.10694033219293782 -0.44625821262026377
-0.4507660795323872 0.4946086824858335 -0.4270407979612426 -0.3370432546764562 0.5491002575503496 -0.3095285903345633 -0.4188509651227292 -0.35547083753948133
-0.7857391135761039 -0.027951443754751698 0.033312435268751335 0.5646023640720227 -0.497561150904763 0.314760501331726 -0.4034962381982226 -0.039563588632940974
-0.18462011782917376 0.03827762675670758 -0.20576160452846398 0.6408956834294472 0.27466265833587206 -0.1133768801785275 -0.547905732334895 -0.11481725494412556
0.08684163541216199 -0.23411548814243832 -0.18597951032268545 -0.49924777354238337 -0.23939955490773074 -0.37512032469805434 0.21816335959067656 -0.29342718928301176
-0.4388659381843093 0.0036371905036366977 0.3713495666723797 0.06658211576854216 -0.43232833972647045 0.009468049903194806 -0.5997732952575378 0.04466820847930858
0.14524710913609737 0.017918833954301983 -0.27362431842914686 0.04457908130049371 -0.02049149135630333 0.13446893912049662 -0.36173356793191846 0.3574751118663419
-0.10990305218746849 -0.15947528105041436 -0.12546073884602266 0.4392843459294242 0.210382365532408 -0.25416390835946945 0.18293274082668648 -0.36760215846105343
-0.5318761154803875 0.35481392445588733 -0.3840119434614062 -0.35068614257167796 -0.012697090189039455 0.10811730681750811 -0.37116579324324056 -0.2806236901010691
-0.39094775800053044 -0.5817926249967593 -0.365926064657607 0.5198088781861686 -0.443841240186155 -0.11870435987965523 0.33417433001742064 0.23125072604063404
-0.4979915034125404 -0.08217795460387964 0.31134253600227807 -0.24370579995044864 -0.21983347115013052 -0.19480144404248406 0.031433697052991455 -0.2816375227035703
0.19214508503352484 0.14316710884027029 -0.10850053866917672 0.3220263169793193 -0.4298188613439332 0.31341564821276796 -0.10326119436020594 0.00743808968700251
-0.48056020016264706 0.031787963317876644 -0.0704568387946438 0.11702779553938884 -0.18303730386084321 -0.49409672014320066 -0.09871600409056182 -0.01800343043907467
-0.11265486767580067 0.04022125160171006 -0.23250236830198867 -0.26637665917566267 -0.02388581027496662 0.05513561577841194 0.2183330215192421 0.3745519133141752
0.12300029419948738 -0.566573121544807 0.06035237709252298 -0.015144871131937665 -0.2689975593390169 0.455332695794985 -0.023039517029501334 0.16350937916678565
0.26020569463587795 0.08553989857198678 -0.10854127951060076 -0.3787753406594052 -0.011327694620240051 -0.5009962983551447 0.1765048825279656 0.27095676374453503
0.4515838867235419 0.20930443598257653 -0.46262456825566745 0.2904645766071245 -0.3136077810566902 -0.35688393384449374 -0.5260147763046217 0.02507088795363671
-0.11101724174643963 -0.11247882643323384 0.4533622654065236 0.05396484489650702 0.09199124069049594 -0.4146490434989183 0.5036542053435971 -0.5062289346348755
0.29903268487070844 -0.2811687653566685 0.25930922245412863 0.2534828699448768 0.621688248496177 -0.7816495198626737 -0.4695513163667392 0.40297359034908853
0.06509483130734219 0.37027678513115797 0.6841096735227673 -0.2583580134871143 0.45256101153606104 -0.039856821782854074 -0.42548033214855124 -0.18879749992926628
-0.0005991635753578695 0.14353410623777027 0.19060695806275701 0.14095903593822715 -0.026255804085153746 0.08148302674470649 -0.21900611916777096 -0.5579292368587006
-0.23143670342180372 -0.015378976474319586 0.11640160785159466 0.6484780763452211 0.1403288655339258 -0.6158292291167705 0.5726870994235209 -0.03551180345437941
-0.4664610799807632 0.10386918186386704 -0.01394109353443343 -1.0916739053769098 0.012850637163470695 0.2870890730930996 0.08031257241685484 -0.244575429250552

bias_hidden2 f8 [64]
00000000: 09bb f836 c6e1 c63f ad92 e309 94c8 da3f
00000010: 8831 3764 f6e2 9cbf 16f6 91fd e1f9 e13f
00000020: 2147 a280 12cf a1bf f1e1 8d04 e3f2 e13f
00000030: 1e44 ed05 1bec 973f 2499 69d6 22be e4bf
00000040: 2832 7713 ce15 debf f16d d548 d6df a83f
00000050: 5934 f812 6aae 533f b244 7b96 7702 d6bf
00000060: 1cff 7709 3633 dbbf 0092 4024 641b e23f
00000070: 01cb a112 cdaa d3bf 3951 f922 0abc b23f
00000080: f3a8 ad7f 82c2 cf3f e1c7 e3ca de72 adbf
00000090: fe87 b84b 53e6 dbbf 7f35 e46d 8c55 d43f
000000a0: 1c13 d1a2 7dac dbbf 5b6a 1c2d 311c cd3f
000000b0: a8f1 c49e ee67 cc3f fc2a 44f5 8ef5 b63f
000000c0: ad46 c94e 2dcb d43f dffd 1964 1e98 b33f
000000d0: f6e4 2653 30bf c83f b97c 87e5 d8ef cfbf
000000e0: 12bd d9c0 fc8a c63f a544 3e06 7c1f e2bf
000000f0: 2e67 80eb f6c9 d73f f942 d9fa d298 cb3f
00000100: bfec d3b6 e3e9 d03f 85a4 1b9d 7d6e b6bf
00000110: 297d 0baa eb21 dabf 69fa 1228 9b45 9bbf
00000120: fa75 cd7c f5c5 d23f bd6d 4384 ddb0 a23f
00000130: faef 951d 8279 d93f 7a42 3bf4 3035 d53f
00000140: d100 57c9 7a97 d2bf 1f07 3188 6eac d73f
00000150: d359 5df3 9e8e b8bf 495b 0c43 28c3 debf
00000160: 2002 27cf a791 cc3f 15a7 9119 7841 de3f
00000170: f9c4 7a19 c215 b3bf e6be cc5f 423b c3bf
00000180: 903d 95da 10b9 ba3f 8940 76d5 6e0c d43f
00000190: 927d ec68 63b2 e43f 16ee 023e 8f2d d6bf
000001a0: 29a1 fe97 a8aa ad3f b506 3002 6bdc c93f
000001b0: c605 d5c2 4ed2 73bf cdf6 8e0f 95a4 c0bf
000001c0: 1ccd 4d7f 8d7c c83f 0f8b bb1b 0cd7 b5bf
000001d0: 2089 b3c4 49c0 debf ff46 4819 51fc e2bf
000001e0: 26f7 c295 ef7f c2bf 619a fe65 ecc9 bebf
000001f0: 8fff 9e86 db3c d83f 6468 aa93 044e d2bf
0.1787650841156039 0.4184923264095158 -0.028209543101000573 0.5617532684843265 -0.034782961084728344 0.5608992661428244 0.0233616087310261 -0.6482099712127689
-0.4700808706373061 0.04858274115641937 0.0012012515907173975 -0.3439005822702469 -0.42500067639046946 0.5658436496783565 -0.3072998697236216 0.07318175653319238
0.2481234668187607 -0.05751701571161028 -0.4359329452000792 0.31772146922670425 -0.4324030008322539 0.22742285444913332 0.22192175629051047 0.08968442428537665
0.3249009389302085 0.07653989738354693 0.19333461818840875 -0.24950705726130254 0.17611655632524809 -0.5663433191240484 0.3717019367046416 0.21560132263632406
0.2642754826953925 -0.08762345395702383 -0.40832034688897295 -0.026632713623934743 0.29333245456459134 0.03650562514823317 0.398041275875357 0.3313715348313405
-0.29049558317275365 0.3698993997569335 -0.09592622224349805 -0.48066145465547955 0.22319505324232214 0.47274591919868786 -0.07455075380382316 -0.1502459495327379
0.10438638054369265 0.31325884672060816 0.6467759179394525 -0.3465307336407205 0.057942646554979334 0.20203912360016366 -0.004839236889269077 -0.1300226522416125
0.19130104747782972 -0.08531261136117173 -0.4804863377486459 -0.59330038965183 -0.14452929318024949 -0.12026860704518462 0.3787144484194806 -0.28601183338617475

weights_hidden2_output f8 [10, 64]
00000000: 9c6d 0471 a7ea 7c3f b627 1cc3 54a1 dc3f
00000010: ae9a 0e38 bc50 d3bf 637d 0928 be76 c43f
00000020: bd6e eb55 47a9 dcbf e15a d493 6942 d63f
00000030: 8507 4563 d72c dbbf b406 efb8 f0d0 b73f
00000040: 6a19 c197 5f34 e0bf 7c97 b000 fad3 cabf
00000050: 5484 b6f6 9c4b c3bf b010 3a6e 3130 aa3f
00000060: 8ff8 b404 c59b da3f 6de2 f03b 2e33 c1bf
00000070: d74b 16ed 4c32 bd3f 85bb 1212 c104 cb3f
00000080: a90e c4f8 d1c0 d7bf ef7e d4dc f96a d4bf
00000090: b9ef e802 c3e2 e4bf f7f7 5214 f7f1 e83f
000000a0: cfb7 18bc 6bb6 e43f 6d38 4432 6fef b2bf
000000b0: 6f99 bd84 7cbf dfbf c96e f84b d259 c8bf
000000c0: f4bd ebde ad3d d33f c706 2bdc 2565 b8bf
000000d0: 00b8 1274 4bfc e23f dacf 7793 abd5 e13f
000000e0: c7f6 3c43 c324 b43f 30f2 5c2b 4d84 d1bf
000000f0: 2341 8ed8 fe84 d53f 7a20 c251 9459 d63f
00000100: c9fb bb3e 405b d33f 073e 926a 3cc0 e63f
00000110: 100f 2db7 da20 e03f 8865 f980 59ea d1bf
00000120: 10a7 5ffd b032 d6bf 3b85 abea a39c b33f
00000130: b9c3 22c9 08a5 e8bf 3185 0295 047c d43f
00000140: 08ed 4692 939c e03f b6ee ebf6 3b33 e13f
00000150: 4dbf e73d d78e da3f 0de2 1ef1 9fb7 d9bf
00000160: a8e2 da3a 70f6 de3f 175e 2ac4 271a e03f
00000170: 97fd dcaa f07e a6bf 4b11 9a78 1796 bb3f
00000180: 63f2 a963 1d34 f3bf 948c 4c00 c88c e2bf
00000190: 2096 a2ab 4e3e 983f 7d0d 0b90 40f1 a73f
000001a0: 396b 6f84 c9f7 93bf 4933 5f5e cf41 f13f
000001b0: 8272 9cf9 06ed c13f 8d5d 72f0 d1f4 e33f
000001c0: 30fe 3a59 7f14 d1bf f3e8 b05f 73d5 b0bf
000001d0: 5a3f 452c e404 9cbf 6f56 9f96 dff2 eebf
000001e0: bc76 5e2e a5db e1bf 93e7 ac0f bcd4 dc3f
000001f0: 710c f1a1 8b4a d0bf 62b5 acbd 7456 dbbf
00000200: eb31 5c1e 2f1a e6bf bf9f 9e4b e145 b2bf
00000210: 46f1 e28a 3804 8d3f e0be 17a1 dca6 d13f
00000220: 422e 9095 5a2a ec3f 35d7 898e 1678 e0bf
00000230: c911 1de7 dd44 dfbf 7140 5a6f eb01 ddbf
00000240: f1ce 0841 4fc2 d6bf ff2c c6a2 cd38 b1bf
00000250: 5711 6158 1dd7 ddbf 7a2d 47e0 1da6 c6bf
00000260: 5947 c593 f769 e33f 7ecf 4108 a4e2 dd3f
00000270: eeb3 f687 992b cebf 4602 a843 8173 bbbf
00000280: b9f6 8633 a109 d0bf 7598 6488 1ab6 babf
00000290: 1fa2 c700 0908 f0bf dd7a 9bde f963 c43f
000002a0: 64e0 ea45 f8dd ccbf ee1f 1027 3bc2 ce3f
000002b0: df74 d879 2eec bdbf 787a c264 275c b83f
000002c0: 13c3 ecc5 ac8c eabf 47bf 0fd0 1e17 e3bf
000002d0: 4449 a272 ef6c e63f 06bb 27ea d100 da3f
000002e0: 1756 5845 334c d0bf 8a6e 8ad3 3938 c03f
000002f0: 56da cc4f f3d0 d0bf c9e1 6f33 c8ab d63f
00000300: 63d3 684d 5c67 c4bf 7885 59b9 5e50 d7bf
00000310: 0943 dfea f0ed db3f 3da4 1680 a7e2 e63f
00000320: fde8 cf9c aa7f e4bf 93cf d24e 5f7e f23f
00000330: 91e1 7627 ec8f c1bf 901a f099 7b57 b0bf
00000340: 334c cb90 1ba8 cbbf 83da 3f79 7eb0 eb3f
00000350: 0186 aa11 d701 d6bf f2be 64fc 045d d13f
00000360: a127 9c91 5857 e4bf 3c24 e697 d583 b53f
00000370: 3a93 5559 fa7a a2bf ef7c 7f86 aefe d93f
00000380: 95db aab7 904d e53f 90a0 5a91 3bec c3bf
00000390: f932 0162 62b5 c63f 6d95 bd5a 8272 cfbf
000003a0: 7383 d8a4 3351 d73f 78cb dec8 1739 bcbf
000003b0: bd24 d4a0 13b0 e03f 3980 8277 5f00 e2bf
000003c0: fb18 8d44 37a4 e0bf 1501 f3ea 54ea e13f
000003d0: 250f a448 97a7 e8bf 2601 89a4 a5ce e33f
000003e0: 8aa9 daf7 095c e53f b9aa c188 99e3 e83f
000003f0: e277 b5ee c041 d5bf 1949 52dc 25a8 d3bf
00000400: 3973 0eac 71e6 dbbf 800d d734 d0bb e73f
00000410: a20b 578e c7a9 bdbf 092a 5c72 e9fb 923f
00000420: 907d c766 e111 f43f d706 aa00 dedb cd3f
00000430: 8705 a369 2bb6 e7bf ddd1 947e f909 e73f
00000440: a545 26ad 8dd4 dcbf 4b5a f11a 1cc0 b1bf
00000450: 91b5 3014 79c3 dc3f 5805 b5fa e223 e5bf
00000460: d97d f379 64f9 ed3f ffc8 91d8 c93f d03f
00000470: 4b76 82be 2e40 e43f 3e9c bf30 c958 d4bf
00000480: f4ef a5c8 e0b6 dd3f 30f2 07f1 9bc5 d53f
00000490: 4719 ff7b c12b e43f 667f df2a 9d36 dcbf
000004a0: d0cb 5ad6 a3ba e63f 82de 00cc 2861 59bf
000004b0: 5e18 2ed7 6bf4 e93f 1ea0 ef83 e6e5 e43f
000004c0: abfb a1c4 d670 f3bf 0682 f420 bdd7 e2bf
000004d0: e48d 1560 bc6e dcbf 4fd1 45ee bc66 de3f
000004e0: 3d83 b549 1408 d83f f1a9 cb7e 3ebb b63f
000004f0: 8159 c160 034d dcbf 4cc7 c49f 900c b9bf
00000500: 907b 51dc c1d7 e43f af12 a973 8114 e5bf
00000510: b047 108b b70d d4bf f11c ba99 2e91 de3f
00000520: c5df ecfe d04b d43f f3eb 1987 df75 cebf
00000530: 4650 0e48 153c e2bf f9b6 bb97 3fb2 d7bf
00000540: 3bb9 1cc6 e053 b83f 91b3 8092 c7c0 dabf
00000550: 8097 157d b17f c1bf d772 79e0 6e51 debf
00000560: 3042 2269 36af bb3f e65a e680 06db a63f
00000570: 9829 3e39 781e c2bf c0a0 e4ae 0efd e1bf
00000580: ebd1 db60 18b5 debf 0f0c c8ab 444b eabf
00000590: 4dd3 18b0 18be e73f d4bf 5eb7 27c2 8c3f
000005a0: 4ef4 98dc a8fd c2bf 279c e363 5ef0 d03f
000005b0: b4f1 ddb1 e0b0 dcbf 02ee 1da9 a942 d8bf
000005c0: cc59 78fd aba5 cbbf 85bc 7230 6317 d3bf
000005d0: a6e7 77c8 da56 95bf b68b 874c a6ba d7bf
000005e0: ac62 4e20 4e73 dd3f 7662 0107 7419 9cbf
000005f0: 1e83 0c42 603c aebf 1414 f327 1184 de3f
00000600: fd6b baf3 e8f6 e2bf 4d7f aca5 e3c3 de3f
00000610: 13d2 53ef b0ae db3f 12bd fe43 7d33 e8bf
00000620: 0e22 2937 6894 c63f 3699 cca6 2fff dc3f
00000630: 435d 2c13 1ffe 71bf 264a 2c1e 7294 ca3f
00000640: 27e7 e806 a299 ebbf 3ff7 6fc4 1886 d4bf
00000650: 1986 9a0a 4a05 d0bf 5190 f859 b094 e73f
00000660: 291c 4033 3e6a d63f 197a 3be3 46fd ce3f
00000670: 474b 2fd5 dbe4 e1bf 1e0a 60a7 af5e be3f
00000680: c0ae fb10 5127 e53f b22d 6282 306c d4bf
00000690: 662c 5933 380a d63f f191 1239 480d d3bf
000006a0: 7100 0f30 5465 c83f f394 1abf 60c4 f03f
000006b0: 1876 4731 a667 e33f 035e 4f89 aabf d3bf
000006c0: 53a6 88f7 53f4 95bf d8cf 5fd5 0546 9d3f
000006d0: 0a5a 1820 8479 ccbf 677f 2e1a e17d c0bf
000006e0: 0fef 6162 2633 da3f 3bea 481c 36f6 d9bf
000006f0: 345e 650c 85f5 dbbf cc94 62b9 d952 f03f
00000700: 4f07 72d2 0ce9 cc3f 71cc 27d0 c2de e5bf
00000710: 7f9b 38e0 c040 c93f e7a3 0f49 e82e f03f
00000720: ec3d 1ad4 2398 cd3f 2bba bf8e 3b41 9f3f
00000730: 6619 fcdb 65d9 c33f 6b6c c903 f223 c1bf
00000740: 91cc a774 0c20 e5bf 5d7e 7002 8a43 d4bf
00000750: 2f84 172d 0680 cd3f bd4a 83f1 b66b d33f
00000760: 8484 e513 95aa d2bf cc7d 13e3 143d 8f3f
00000770: 0814 8b0b 5680 e83f 353f 896d c4d5 b83f
00000780: 2ba1 bf95 3122 e13f 5ddf 6264 54b6 d83f
00000790: 55d9 bd1f 4121 e7bf 38eb 8f61 e300 e83f
000007a0: 8cf5 9da3 a642 b6bf 1ca0 097b 6780 e0bf
000007b0: 1a1b 184c 77b6 a73f e32c 4c4a fd8c d73f
000007c0: 3315 f7a4 921d b83f c2ff fa3d f0f2 debf
000007d0: 6977 3732 8e0b ee3f 0d9c 4443 7178 b3bf
000007e0: c860 5fc0 0061 e3bf bc60 6840 b647 c23f
000007f0: c862 4674 f59e c7bf e9ec de32 509c cebf
0.007059721058137038 0.4473468690272243 -0.3018026874000651 0.15987374262747797 -0.44783194914428376 0.3478034919402671 -0.4246118993215691 0.09303192629797757
-0.506393238444429 -0.2095940116279812 -0.15074502989321792 0.05114893408338739 0.4157574220624917 -0.1343744080238766 0.1140487746072688 0.2110825861213607
-0.3711438111642829 -0.31902929845271805 -0.6526808792909754 0.7795367619471553 0.6472681688080629 -0.07396597840508586 -0.49606240237189686 -0.19024113378042376
0.30063959855667055 -0.09529339432904314 0.5932976977398994 0.5573327903971361 0.07868595496708074 -0.27370003924059727 0.33624240062728655 0.349217490999315
0.30244451643369225 0.7109663087339307 0.5040105416923968 -0.27992856593262916 -0.34684395545501534 0.07660889128921593 -0.770145790904386 0.32006945182554875
0.5191133362745015 0.5375041792571753 0.41496830983577554 -0.40183256670891937 0.48379140613136906 0.5031927901608836 -0.04393722615941014 0.1077589673460057
-1.200223340331967 -0.5796852117386089 0.02367518351151976 0.046762483199496586 -0.01949992056675429 1.0785669027711313 0.14004599750559882 0.6236352630830183
-0.26687606538687003 -0.06575699888427149 -0.02736240883069683 -0.9671476308673855 -0.558062162937595 0.45048429041673294 -0.2545498925648593 -0.42715185664095234
-0.6906962960215969 -0.07137878509695293 0.014168206919173653 0.27580943805422287 0.8801701470524181 -0.5146591934160144 -0.4885782963722503 -0.4532421672274785
-0.355609715948261 -0.06727299903848304 -0.46625455504206087 -0.1769444794757467 0.6066854368348046 0.4669580536494705 -0.23570555819369993 -0.10723121549381984
-0.25058774978593196 -0.1043411810865978 -1.0019617109738943 0.15930102700709528 -0.22552398122730033 0.2403024616944544 -0.11688509440178362 0.09515615663483767
-0.8296722284049757 -0.5965723098470129 0.700797771353145 0.4063000475570536 -0.2546508958051574 0.12671587781084198 -0.2627533225344555 0.35423474333904587
-0.15940431384810969 -0.36428039646678867 0.43639777123193874 0.715167761013738 -0.640584284089783 1.1558526114504033 -0.13720466544124268 -0.06383488186120645
-0.21606773920083952 0.8652946823265925 -0.3438623116036013 0.2713024582653666 -0.6356623500771442 0.08404288252326436 -0.03609449711328812 0.4061695397812874
0.6657184207204973 -0.15564674947132007 0.1774104097879883 -0.2456820433682582 0.36433116052835784 -0.11024616865215175 0.5214937344727769 -0.5625455221343209
-0.5200458849801913 0.5598549450733424 -0.7704578799025269 0.6189754689767468 0.667485221948753 0.7777831717515574 -0.33213828383838806 -0.3071379329277462
-0.4359401874769904 0.7416764289886686 -0.11587187981699157 0.0185390926408591 1.2543653502287704 0.23327231438093207 -0.7409874976366816 0.7199676010409878
-0.45047323140269163 -0.06933761270315945 0.449430722920476 -0.6606306931136414 0.9366934186800179 0.2538933386741888 0.6328347893610923 -0.3179190612849573
0.4642869910674101 0.34018610513865877 0.6303412839704742 -0.4408333700830468 0.7102832018484779 -0.0015490435034858645 0.8110865786300214 0.6530640198589059
-1.2150485688177735 -0.5888353007940743 -0.4442587793657522 0.47502063053913884 0.37549311826846915 0.08879461856455585 -0.4422005123973563 -0.097847975736639
0.6513375571338305 -0.6587531336777682 -0.31333721714428986 0.47761120808031793 0.31712746520088003 -0.23797220322361987 -0.5698343665449179 -0.3702544194955944
0.09502987705920855 -0.4180163317385502 -0.13670939071306165 -0.4737202827580353 0.10814228121513092 0.04463978122219263 -0.14155485911426235 -0.5621407905464579
-0.4798031755338161 -0.8216880183321126 0.7419551314729717 0.01404219654418163 -0.14836607714997502 0.2646709418754107 -0.4482957589132426 -0.37906877055476695
-0.21599340321036065 -0.29830245715397324 -0.020839136586779404 -0.3707671878202591 0.46016266970540687 -0.027440846374107562 -0.05905438238392534 0.4768107309467393
-0.5926403770748717 0.4807061307819723 0.4325373017484548 -0.7562853172329673 0.17640402501480462 0.4530753258608401 -0.004392739664374648 0.2076552054719098
-0.8625040183025917 -0.3206846159299523 -0.25032282863148364 0.7369004971738012 0.3502345562450864 0.2421043977291937 -0.5591868556751728 0.11863229595477562
0.6610493976308689 -0.31910336239590287 0.34437375082479205 -0.29768567632188964 0.19059231134997703 1.0479438271516386 0.6064024889453234 -0.3085733738821263
-0.02143984983755438 0.028587428234416595 -0.2224583775248024 -0.12884153154754616 0.40937194450064934 -0.40565254938306666 -0.43686033449691597 1.0202271691899112
0.22586212421088667 -0.6834425035034554 0.19728861759469038 1.0114519933651935 0.2312054429680609 0.030522280299857634 0.15507195702975735 -0.13390946564581738
-0.6601621893336348 -0.3166222595045605 0.2304694862532712 0.3034493788265243 -0.29166151946089536 0.01525322263699893 0.7656660294966295 0.09701183008405397
0.5354240345741678 0.3861285190900981 -0.7228093738511158 0.7501084237586388 -0.08695451254421566 -0.5156743434026825 0.04631398013957817 0.3679803109705075
0.09420124556989577 -0.48357778599529067 0.9389105778497938 -0.07605655567441279 -0.6055911786343353 0.14281347412975787 -0.1845385377644304 -0.23914530261922742

bias_output f8 [10]
00000000: 469d 39f4 45fe dfbf 0f35 aeed 3fdc d2bf
00000010: e18a daa6 bbdf 783f cff9 dbcf 439f d03f
00000020: 1d0b e94b 77e4 d0bf 4adb 7596 ac8e e63f
00000030: f671 0a52 1077 e4bf 764a 1587 dbd8 d9bf
00000040: a026 2692 e875 e93f 1302 bce7 a98a d03f
-0.499894608021766 -0.2946929761026959 0.006072743429885037 0.2597207574725901 -0.2639444581329132 0.7049162806205029 -0.639534149394932 -0.4038609332248265
0.7956431250069791 0.2584633601218524
