trained_model.npz (npz, 904886 bytes, 8 tensors)

weight_0 f8 [128, 784]
000000 88 e5 ad dd 3e 92 ca 3f 00 dd d8 e4 28 ce 74 3f
       0.20758806060966273 0.005079421750955548
000010 28 5c d1 e3 5c 02 cf bf 8c b5 1e 29 83 7f d0 bf
       -0.24225960849682449 -0.25778273597355716
000020 44 89 47 e5 c2 89 c1 3f 20 8f 59 31 d2 a0 d1 3f
       0.13701664157185622 0.2754407388622315
000030 44 2a 33 41 1e 3a d9 bf 62 14 d8 06 31 fb da bf
       -0.39417225234197795 -0.4215815131031545
000040 d0 b7 e4 d7 42 45 b9 3f c2 32 22 2a cf 94 dd bf
       0.09871309061847389 -0.46220759501083475
000050 e6 64 25 c4 48 60 d3 3f fc 5e d2 f9 aa c6 d2 3f
       0.302751723812959 0.2933757247605937
000060 a0 6c ed 0e e6 de d1 bf 48 3d 2f 6d d2 a6 bb 3f
       -0.27922965486295404 0.10801425138128196
000070 cc 6a 66 05 a3 84 b0 bf 5c 75 25 68 0a b3 de 3f
       -0.06452387697064949 0.47967777414836177
000080 d5 d6 e7 bc 91 87 d9 3f 1b 61 6a 9a a9 f1 c1 3f
       0.3988994927197898 0.14018745460340018
000090 09 a3 eb 9a 32 c3 d1 bf e3 0b fd 8b 9a 0d c8 bf
       -0.27753892067862346 -0.18791515193342354
0000a0 2a fa 78 e6 85 03 c2 bf 56 9c ae b6 c6 bd db 3f
       -0.14073251489203759 0.43345802154585067
0000b0 fc ff 28 3f 92 db d2 bf b0 a7 7f 3b 6a 7e ca 3f
       -0.29465156715377794 0.20698287873466148
0000c0 88 7e 1e 0e 89 98 d6 bf 00 87 aa 19 f4 da d2 3f
       -0.35306002024479044 0.29461386209924
0000d0 1c 91 32 f5 0b fb c4 3f d0 b9 72 1b 1d af a3 bf
       0.16391133759055598 -0.03844538650570295
0000e0 00 1f 94 47 ef 39 db 3f 74 08 dc f2 82 f1 d7 bf
       0.42541105260941947 -0.3741156932520717
0000f0 c4 0b c9 e0 67 66 cd 3f e7 87 e3 2c cf b5 c5 3f
       0.22968767619940256 0.1696108788665349
000100 cb 22 97 0d 25 dd d0 bf 57 53 a4 b0 43 17 c2 bf
       -0.26349760367569947 -0.1413349735745679
000110 41 80 1a dd 38 dd da 3f 34 1f 1f 28 c6 38 ae bf
       0.4197523268903787 -0.05902690162434823
000120 74 01 09 6c 22 c9 d2 3f 7b de c4 05 76 1b cf bf
       0.29352627325353997 -0.24302554399195117
000130 f4 1a 35 c5 59 92 da bf 7f da 78 b3 83 76 99 3f
       -0.41518253572978314 0.024866159276110352
000140 9a 93 20 dd c4 1e be bf a3 65 29 f8 bd 29 bc 3f
       -0.11765699766745144 0.11001193340907504
000150 36 fc 7c 68 6e 7c da 3f 24 39 cc ea 8e 34 c9 3f
       0.41384468273094244 0.1969164511178373
000160 e6 68 d6 db f8 5a d5 bf 0d 5b 6c 5b 9b 21 d9 bf
       -0.3336774966097792 -0.39267620018056065
000170 f1 c0 b6 0e 29 c0 97 3f 70 b9 99 5a 6f 47 b6 bf
       0.023193971179069576 -0.08702751123357699
000180 1c d8 15 43 27 3d c3 bf 35 62 42 44 a4 fd df bf
       -0.15030375266695806 -0.49985605874965994
000190 43 d1 c2 07 e0 4a d3 3f 0a d5 9d 75 7e 9f b7 3f
       0.30144501455221845 0.09227743503091204
0001a0 64 d8 a2 6e 3b 2f dc bf 89 ec 69 8b db 86 df bf
       -0.44038282207782786 -0.49260605444551026
0001b0 0c 95 cf d0 f2 0b d6 bf 44 83 86 40 13 45 df 3f
       -0.3444792784851678 0.48859101582825226
0001c0 54 b5 9c b4 40 77 cb bf ab 63 67 a6 c0 6a b0 3f
       -0.21457680529548873 0.06412891447634077
0001d0 4d 97 b7 63 5a 3d c2 3f f7 c7 34 41 9c ad bf 3f
       0.14249734753610213 0.12374283401439344
0001e0 8a 21 04 05 b8 e5 c2 3f fa 1a e7 e7 80 1d df 3f
       0.14763546223572305 0.4861757530856462
0001f0 c3 b1 e2 5e e7 18 b3 bf ef 9a 7b 5b e4 31 a3 bf
       -0.07459875170270096 -0.03749002091153907
000200 8e 78 11 85 c2 7d bf bf bb a7 36 28 c7 b1 d6 bf
       -0.12301269291626424 -0.35460070540522864
000210 d5 e4 60 2d 5b e7 d5 bf 26 54 59 ca 4f 2c d5 bf
       -0.34224585944646196 -0.33082957039488503
000220 7e 89 d1 44 14 26 c8 bf 56 17 86 fa c6 97 ca 3f
       -0.18866208420065428 0.20775687439543827
000230 1e b2 07 ef 3c 21 9a 3f 24 29 85 32 77 2b a5 3f
       0.02551741799281803 0.041347241322528455
000240 bc 46 b8 75 cd 8e d9 bf 0c ef ad e4 a3 23 dc bf
       -0.39934097763135035 -0.43967530567145796
000250 62 79 0f 4f 68 3e c4 3f 12 10 e7 f6 aa 5c e2 bf
       0.1581545244252523 -0.5738119909588042
000260 b5 62 81 f5 94 6f c0 bf c7 6d 33 74 23 74 d0 bf
       -0.1284052084690949 -0.25708853099578416
000270 22 2a e9 a2 57 ce d9 3f 47 a7 7d 32 99 42 d1 3f
       0.40321913632638673 0.2696898453783558
000280 7e 70 d8 bf a4 5f be bf 6f c1 62 fb 48 ca dc bf
       -0.11864690479018411 -0.4498465018214323
000290 a7 57 9a 0d 0c ae a8 3f 42 72 da ce d9 33 d4 3f
       0.04820287385989213 0.3156647224475685
0002a0 9c 55 00 f5 77 8e de 3f 63 1e 27 4d d3 2f ca 3f
       0.47744559217366045 0.20458451525904583
0002b0 70 f4 26 a2 4c c9 db 3f be 6e 43 b9 bb d4 c0 3f
       0.43416133723423567 0.1314921049696433
0002c0 08 ee 29 f5 86 f0 a7 bf fb 1e 5d b3 e0 5b b8 3f
       -0.04675695173952127 0.09515194300649547
0002d0 35 7d a5 d9 2b 88 a1 bf 1a 72 bc 9c 71 08 d0 bf
       -0.03424202949349323 -0.2505153685213216
0002e0 69 cf 84 a7 19 66 aa 3f cc ed 03 64 d6 65 cc bf
       0.05156021280200102 -0.22185783275186421
0002f0 4a a3 5f 49 08 93 dd 3f ab 9a 80 28 e4 5c dd 3f
       0.4620991436518592 0.4587946315317974
000300 d3 ed 60 e3 09 5f ce bf a5 2a 3b ad 17 16 de 3f
       -0.237275348686906 0.4700984183988715
000310 0e b9 84 7e 98 9b da bf eb b0 37 10 09 70 d3 3f
       -0.4157468066722608 0.3037130983709761
000320 7b 87 33 5d 8b 3e d9 3f 7f 67 b3 53 6d a8 da bf
       0.39444240667045677 -0.41652997182756474
000330 82 6b 92 d0 cd 62 cd bf 07 8e ba e0 bd 6b d7 bf
       -0.229577757684492 -0.3659510321251393
000340 2b b0 24 72 25 f2 c2 bf 2c 99 f1 2f f1 eb cf bf
       -0.1480147178020855 -0.24938788262370204
000350 f8 0e 2e 94 2d b5 c1 bf f0 c6 a2 0f e6 0b cd bf
       -0.13834161506030518 -0.2269256187769808
000360 64 c2 4e f9 50 2c d7 bf 2c a4 c5 cb 0c d2 c1 bf
       -0.362079852547174 -0.13922271680647336
000370 93 ac 00 d2 45 06 b9 bf fe d3 9d 29 19 f4 c9 bf
       -0.09775196434991278 -0.20276178867393918
000380 bc 8b 3e 07 46 f1 df bf 7b 5c 61 f0 e9 08 b9 bf
       -0.49910116870358556 -0.09779226416263669
000390 19 ec eb be f1 4f da 3f 51 7a 34 c5 5e e2 9a bf
       0.4111294140308828 -0.02625415877002474
0003a0 5d d1 78 86 0f 2d d9 3f 71 89 53 ea cb 25 c7 bf
       0.3933752835466942 -0.18084095899309774
0003b0 a6 94 89 99 83 ad c1 3f 00 67 8c 8c 16 85 a1 3f
       0.13810772892899087 0.03421850648574143
0003c0 9b 17 62 f6 64 05 c0 3f 5f 0f a9 c0 b4 53 c6 3f
       0.12516462355068544 0.17442950637097973
0003d0 a2 3f 37 95 19 53 df bf 56 a6 f2 52 c8 93 bf 3f
       -0.48944701740128427 0.12334873223394402
0003e0 07 54 9e a1 e3 fa bf bf 25 b8 28 1c b1 b4 b6 3f
       -0.12492201514972133 0.08869463860966727
0003f0 f7 f4 52 9b a1 f4 c8 3f 24 bf d3 1b 7f 41 b6 3f
       0.19496555408651492 0.0869368975579588
000400 b2 76 f5 e2 65 f9 d7 bf d1 8d da db e4 7d c9 bf
       -0.3745970455546327 -0.19915447936101185
000410 85 e3 1e 53 c4 34 e0 bf 50 79 40 65 07 06 c9 3f
       -0.5064412711573004 0.19549648708284417
000420 c8 73 78 8a f5 54 b8 3f b6 68 72 6b fb e3 d1 bf
       0.0950463736593995 -0.2795399235998376
000430 4d 11 16 fd ae 41 bb bf 56 81 48 14 a4 10 d9 bf
       -0.10647100142347661 -0.3916406820371966
000440 19 9b 5e c6 7f 4c c2 bf 57 ec 9c cd 9a e8 d7 3f
       -0.14295956789029488 0.3735720642031927
000450 d6 26 86 cc ac cf dd 3f bf c1 ea e4 fd 67 79 bf
       0.46580047581720174 -0.006202689909216407
000460 5b 1d 19 d5 38 26 dd bf 13 c8 02 b2 d9 95 cf bf
       -0.4554578858410047 -0.24676057044922625
000470 08 f9 7a 6a 9f 5b d6 bf 83 41 4d d3 db 7a ac 3f
       -0.3493422069403924 0.05562483744018023
000480 e2 7f f0 01 42 cc 9d bf 71 2b 8c 32 67 c1 e6 3f
       -0.02909949433171722 0.7111087786919211
000490 3a d9 fa 55 ce 48 c2 bf 7d a2 0d 28 58 78 d6 3f
       -0.14284686277614772 0.35109523688746674
0004a0 05 1a 6b 1a 89 99 d6 3f c1 c0 90 63 8e 88 c5 3f
       0.35312106685560735 0.16822986470788773
0004b0 b2 92 71 62 33 50 d6 bf 18 a4 0f 12 ac 45 e5 bf
       -0.34864506353032276 -0.6647549011951268
0004c0 10 e6 d5 a4 9c c0 da bf a7 11 6b aa 95 a5 c6 3f
       -0.41800609681340095 0.1769282419319442
0004d0 57 a2 9f cb 88 47 c5 3f 25 c1 8d ac 3b ea dc bf
       0.16624555532986804 -0.4517964539618496
0004e0 ad 4e 50 28 04 85 92 bf 41 d9 37 11 b6 59 e2 bf
       -0.01808554168753911 -0.5734510742466129
0004f0 1f 8c d5 f5 de 97 c8 3f a8 41 96 f4 8e d9 b6 bf
       0.19213473323461103 -0.08925717803345512
000500 5f 46 b6 50 c4 16 b4 3f cc 23 12 68 e3 47 b9 bf
       0.07847239466198051 -0.09875317850868653
000510 22 2d de 66 a9 08 cd bf e5 d6 3f 98 55 17 e1 3f
       -0.22682683489652172 0.534098431932503
000520 1e 2d 6d 02 e7 a8 d1 bf b4 11 da 60 54 ac da bf
       -0.27593398320159845 -0.41676816423594265
000530 d4 2e 45 b3 47 6c d7 bf 95 7f 42 4c d4 f0 de 3f
       -0.3659838915525431 0.48344905326120485
000540 9b f0 d3 65 2d 51 ce bf a0 25 db fd 4c 44 ca bf
       -0.23685233566346117 -0.20520937342943757
000550 de b7 ec c6 d1 66 d0 3f ab ca e1 c1 51 ab df 3f
       0.2562756006835779 0.49483150419033944
000560 b8 de 18 16 52 14 d1 3f 65 65 f9 d0 c2 f2 e3 3f
       0.2668652740280595 0.6233839112784777
000570 11 77 fd 60 40 cb b4 3f 76 49 c0 92 22 a2 b7 bf
       0.08122637145922008 -0.0923177345542053
000580 6e cf bd af 99 b1 b1 3f 6a 9e 98 fb c4 dc d7 bf
       0.06911621609270721 -0.3728496987336941
000590 3e 6d 62 0a 21 ed e3 bf 1c 06 52 c8 f5 81 e5 bf
       -0.6226964190313209 -0.6721142685420918
0005a0 c0 3e 68 1a f1 68 e1 bf af d9 94 f6 7d f9 a3 3f
       -0.5440602794423839 0.03901284823443817
0005b0 7d a6 43 0f 16 50 dc 3f 86 1d 26 bf ce 4e da 3f
       0.4423880719246894 0.4110600344360694
0005c0 9c d0 83 51 5d b2 d2 bf 7f 98 c1 89 92 a7 e0 bf
       -0.29213650665702473 -0.5204556170035771
0005d0 47 ac 6e d7 3e 1d 95 3f 2a d2 be 1d 8a c3 ca bf
       0.020619375132508357 -0.20909239246761163
0005e0 6e c3 27 d3 af 70 cf 3f 0b 13 99 bb c1 d1 a8 3f
       0.2456264287025322 0.04847531714452743
0005f0 34 ad 6f 09 32 46 db 3f 7f d3 d6 84 ca 5e cd bf
       0.42615939065463526 -0.22945529447829568
000600 67 a0 70 99 bd 23 d2 3f 2a 28 6d 2f 09 d8 d7 3f
       0.2834314344822872 0.3725607836864834
000610 99 4e 11 1e 85 ec ca bf 42 a3 07 05 75 cb cd 3f
       -0.21034301727433016 0.23277151818845182
000620 0e 03 e6 1d 32 07 c8 bf 63 2b 67 ea 6d e7 d6 3f
       -0.18771959743391914 0.3578753270236829
000630 8d 38 b7 a6 67 53 d3 3f e5 8d db 67 a9 95 d7 3f
       0.3019656303484986 0.36850962774607715
000640 47 96 71 04 9d c8 ba bf bc 8c af 0e 59 a9 d4 3f
       -0.1046236167763591 0.32283617433695233
000650 74 ef 93 d2 32 8c de 3f 2b 64 a5 d4 2b 44 cc 3f
       0.47730703891988147 0.22083042033298858
000660 89 40 6f d3 f4 4b 92 3f c5 5b a9 99 4d 72 c7 bf
       0.017867875485365423 -0.18317575457578364
000670 18 11 4f 24 40 ae cb bf b7 ea b4 37 1b 3b d3 bf
       -0.21625520489590921 -0.30048256340129903
000680 2b ff 75 ea 7a 3f d0 bf e1 d1 2e f9 13 82 b4 bf
       -0.2538745202691525 -0.0801098330837884
000690 f2 fc aa 6e f8 ba e0 3f a2 5d 5c d8 df 18 86 3f
       0.5228235398753027 0.010789631643588763
0006a0 50 68 a5 7e 30 7b dc bf 5d 16 f2 bb 18 a1 d6 bf
       -0.44501888625894015 -0.35358255724017856
0006b0 7a 8a 55 5e 87 49 b4 3f 5b 3c 6f f6 e4 ec c3 3f
       0.0792469601924867 0.15566694291053093
0006c0 a1 6d ab a1 82 dd d9 bf 15 fe 8a ca 25 28 cd bf
       -0.40414491451312 -0.22778770818511931
0006d0 b3 a1 57 ce 44 be c8 bf a8 19 1d 40 6b b8 e1 3f
       -0.19330654216106566 0.5537620784969493
0006e0 03 61 ce 42 32 c4 d5 3f 21 71 de b4 d4 26 e0 bf
       0.34009987377204726 -0.5047400982471438
0006f0 44 db 53 dd 7a 5f af bf f2 b7 78 ce 0f 84 d3 bf
       -0.0612753291297197 -0.30493540919530837
000700 5e 9c 95 c4 ca 4f df 3f d7 b3 2b 43 5b fa d5 3f
       0.4892451209802341 0.3434055477107995
000710 ab 19 89 ea 02 f0 c8 bf 18 e3 f0 f1 c8 42 cb bf
       -0.19482456638270426 -0.21297561467670145
000720 1d 41 15 a0 89 d6 e5 3f 06 89 0b f1 c3 b0 d5 3f
       0.6824386717435434 0.3389139036136303
000730 1b 23 ac 5d 99 b2 d9 3f 0b 12 17 f8 69 6c ce 3f
       0.4015258230943332 0.23768353093886704
000740 46 9e 68 66 6f 53 df bf 6e 4a 09 c3 bf f7 df bf
       -0.4894674778065319 -0.49949640318405997
000750 f7 0c 5f 7a cb de ba bf b1 8e d3 df 5e 5f c1 3f
       -0.10496207940655099 0.1357229798223805
000760 9a 4c e3 8a f0 f6 db 3f da bc a3 66 44 24 e5 3f
       0.43694699824590943 0.6606771473579116
000770 a9 a0 4d 23 34 e7 9b 3f 96 5f fa e6 d5 34 c6 bf
       0.027249159483660055 -0.17348741319869693
000780 8f f2 64 73 d9 5d d4 bf de 4f 85 53 d3 f2 cd bf
       -0.31822811383225597 -0.23397294595872514
000790 2e 62 06 c1 fb 91 d3 bf b5 43 9b 3c 6e 31 c4 bf
       -0.3057851204880845 -0.15775850257207727
0007a0 83 db 22 68 4b 5e d0 bf e7 2d 39 90 9f 15 e1 3f
       -0.2557552830652911 0.53388956230759
0007b0 f2 59 11 51 2a bf c5 bf ff f3 61 fd 4f 91 cc bf
       -0.16989640196216232 -0.22318458435248087
0007c0 91 9e 94 8a b4 20 a2 3f 97 01 b0 ea 64 d8 cd 3f
       0.035405771175928476 0.23316632708884974
0007d0 7e 01 79 e6 c2 32 dd 3f 11 fb 2b fd da f6 de bf
       0.4562232256612545 -0.4838168594723565
0007e0 23 a7 49 75 44 17 aa 3f a6 7f d6 d1 dc 1c b9 bf
       0.05095876628622722 -0.09809665797229047
0007f0 df 46 7f 1b d8 7d c4 bf ee ba 1e 8e d4 5b a2 3f
       -0.16009045927653795 0.035856859539640115

weight_1 f8 [64, 128]
000000 39 1e 4e 42 26 cc be bf f0 42 03 0f 02 9e b8 bf
       -0.1203025733831219 -0.0961610113765905
000010 52 7a 25 96 27 8b c8 3f 10 62 15 af e7 ef ba 3f
       0.19174666243903232 0.10522316002369103
000020 61 7e ea 3b b5 60 c4 bf 25 4a 94 0e 93 c9 c5 3f
       -0.15920129228196614 0.17021406375768425
000030 8c cc bb ab 36 07 d8 bf bb 13 36 31 ed c2 a6 bf
       -0.37544028063639057 -0.04445592141841056
000040 9c 92 24 78 c7 19 c5 3f a9 a8 54 c6 44 90 b8 bf
       0.16484921804762542 -0.09595136491830893
000050 fd 48 20 e0 c9 3b e4 3f 1a 24 8c e9 9c 0d d0 3f
       0.6322984101737174 0.2508308678375798
000060 46 fd 78 5a 50 14 bd 3f 72 ae 5b 15 24 88 d7 bf
       0.11359121521762913 -0.3676843842101568
000070 34 78 7a 09 da ec b5 3f c9 29 da 0d f0 e7 94 3f
       0.08564532023817223 0.020416022153350064
000080 6c d4 a4 f2 82 81 c3 bf ad 0b 89 c8 04 5b ca 3f
       -0.15238987777562174 0.20590266982807517
000090 ff ee 64 6a bb eb 98 bf b6 3e d1 f1 56 84 db bf
       -0.02433674656752682 -0.42995236983277196
0000a0 30 d7 25 27 88 43 b8 3f 35 ea cb 8c 45 22 54 bf
       0.09478045421368786 -0.0012288741301619392
0000b0 a1 25 c1 bc 20 8b c5 3f e6 d8 77 e7 42 50 d9 3f
       0.16830834595229496 0.39552376369773723
0000c0 a7 20 73 64 3d 12 c1 bf ca 26 ec b4 41 51 c0 3f
       -0.13336913494845712 0.12747975668053463
0000d0 08 5b 2d ab a0 de 94 bf 42 07 7e 4f 98 69 c2 bf
       -0.02038050694258245 -0.14384750253162265
0000e0 0c 30 47 2f 3d d2 d8 bf 0e a6 6e 3e 7b f3 e1 3f
       -0.3878319703769655 0.5609718531970331
0000f0 23 e3 19 48 d4 44 c4 3f 17 3e 1c b4 10 ea c7 3f
       0.1583505012565861 0.1868306045002874
000100 9c c7 cf f0 2a 99 97 3f 9d 6f 7d f5 79 3d b1 3f
       0.023045226047493025 0.06734430545242139
000110 e6 b6 40 2b 40 ff e2 3f ae dd 70 32 e1 9f e6 bf
       0.593658527830226 -0.7070165620015609
000120 58 2d c6 79 99 75 c9 bf 84 93 1e 1e 68 00 af 3f
       -0.19890135236742412 0.060549977947892436
000130 69 d6 38 6f da 22 b3 3f d6 00 78 c6 f2 a9 bf bf
       0.07475056853658092 -0.12368695588520792
000140 51 04 41 30 97 48 c0 3f 87 2f de 37 52 ff 95 bf
       0.12721528869772894 -0.02148178544989279
000150 6d 7d 20 8f 80 8a 5a bf 57 18 56 84 3a 62 a9 bf
       -0.0016199355563982457 -0.049577549604734976
000160 f7 36 0c 71 25 09 c4 bf 6b 08 b7 5a 2d fc e1 bf
       -0.15652912158878227 -0.5620333453919221
000170 88 46 83 1b ff 6c c0 bf 4d b1 89 31 5f db c2 bf
       -0.12832630961797897 -0.14731969755974675
000180 b9 6a d4 62 f7 62 d3 bf 68 16 cb ff 5c b5 d4 3f
       -0.3029154267439185 0.323569536016612
000190 0f d3 05 9c f3 f4 d5 3f 74 6c ca 97 79 36 c8 bf
       0.34307565914723254 -0.1891624442258465
0001a0 c6 cf e0 67 d3 b4 c6 bf 43 d8 06 5f f4 b0 d0 3f
       -0.17739336559463775 0.2608004501338465
0001b0 bc 5b 39 2c eb 28 d4 bf 59 c4 6f 63 6a a6 d0 3f
       -0.31499747580295057 0.26015720091442557
0001c0 e9 81 93 d5 c4 da ce bf 5c 42 b7 20 d6 0d b3 3f
       -0.24105129650617066 0.07442987726904832
0001d0 1e fd c4 8c 80 02 55 3f f2 c7 f8 59 f7 49 df bf
       0.0012823348398141652 -0.48888953958805736
0001e0 e2 38 61 f6 d6 7f dd bf 66 5b c1 9a 60 d1 ea 3f
       -0.4609277158787234 0.838058759933898
0001f0 4a 85 b0 0b 24 a0 9b bf 6e 7f 12 4a b6 f4 e2 3f
       -0.0269780761847234 0.592372078583123
000200 9a 48 cc 42 c4 f9 d2 bf f7 a3 c3 35 fd 93 cb 3f
       -0.29649454615822324 0.21545376897054755
000210 c5 ce 97 42 88 be e5 bf 1e df 5e cb 0e 24 de 3f
       -0.6795083332676418 0.47095079288873076
000220 62 ff 27 e4 65 10 ce bf df 95 6f c1 06 6e d5 bf
       -0.23487542763177333 -0.33484047785017695
000230 54 db 4d 48 21 9c e4 bf dd 8c f2 ec c3 5c 97 3f
       -0.6440588390531539 0.022814809167027817
000240 f2 a7 72 a5 c9 d7 d2 bf 7a 4f fd a6 3b 9a c8 bf
       -0.29442063481349046 -0.19220681813987622
000250 21 26 b4 43 2e 1d d7 bf 52 81 63 56 1b 0c c5 bf
       -0.3611560498398792 -0.1644319698161874
000260 de 9c b9 73 3f d7 e1 bf c4 bd 44 9b c0 54 d3 bf
       -0.5575253734831696 -0.30204787409726586
000270 b1 49 0e 57 7c 8e cb 3f 81 b0 73 e4 ee 9c c9 bf
       0.21528581858417575 -0.2001017203796245
000280 55 c3 42 6e bc 14 b9 bf 45 2a 9e f2 1c 7b ce 3f
       -0.09797265712655918 0.23813211294721462
000290 06 b2 60 43 94 f5 dc 3f f2 ae a7 39 39 b1 e5 bf
       0.45248896198134536 -0.6778837324213483
0002a0 cc 12 6f 91 95 2c a8 3f 4e 14 73 18 44 cf d0 bf
       0.04721515083614278 -0.2626505125775268
0002b0 5a 66 76 00 05 92 d1 3f 01 ab 91 4c 9d 43 bb bf
       0.2745373253361315 -0.10650046462403041
0002c0 e3 79 c8 fc 50 cd aa bf 00 5d 62 26 58 e8 cc 3f
       -0.05234768949252435 0.22584058641653115
0002d0 2b f3 28 c8 63 95 ce 3f 02 6f b2 7a aa 5b c1 3f
       0.23893401406703538 0.13560992232384456
0002e0 0a 6e 0b 22 fd 19 ab 3f 05 64 65 6c 73 c6 bb bf
       0.05293265381416397 -0.10849687000644799
0002f0 c5 c1 c5 23 3a 9a d0 bf 22 bc 5d 0f 62 da d1 bf
       -0.25941327565581346 -0.27895404339409613
000300 95 c8 dc 2e 16 10 db bf 6c 64 7e 88 28 82 d1 3f
       -0.42285685135278445 0.2735692341753466
000310 48 26 b9 ce a9 21 b9 bf 4c b6 14 7b cb e8 e5 bf
       -0.09816991135553466 -0.6846673396991689
000320 ca 97 9b ea 7d db e8 bf 64 8a f7 e4 c7 01 c0 bf
       -0.7767934400733278 -0.12505434684779282
000330 41 d7 fb 3d 27 85 b2 bf b9 b9 72 b0 a0 db cd bf
       -0.07234425795817591 -0.23326500526077412
000340 ac e6 d0 31 84 b8 c0 3f 5c 5a bd 0e db f3 b0 bf
       0.1306309931986126 -0.06622094259123784
000350 bc 45 23 30 ea b8 f2 bf 38 9c de 39 0d 2b c7 3f
       -1.1701452141172544 0.18100133252775819
000360 9f 2c 8d 83 ab c5 9b 3f 1d 77 c1 c0 c2 30 a1 bf
       0.027121238617195172 -0.03357514002776283
000370 e8 00 2d e1 2c 88 a4 bf f7 35 a2 b1 f2 d2 b1 3f
       -0.04010143517234771 0.06962506138571443
000380 12 80 51 48 b7 4d be 3f 8d 27 36 9b 3e 92 b9 bf
       0.11837335124573681 -0.09988776482910407
000390 f8 05 42 e3 76 f6 bd bf b7 34 0b 09 b6 d3 b6 3f
       -0.11704199837006246 0.08916795464320414
0003a0 d0 a6 d3 9e 8e 01 d1 bf ff ab bf 33 09 89 dd bf
       -0.2657200385134333 -0.4614890103682114
0003b0 af 8f ed 87 8e d3 e2 3f af fb db 44 41 3f b2 3f
       0.5883247999995457 0.07127769404540517
0003c0 55 ab 0e bb ae 5a c7 bf 48 d1 6b b9 9e c4 c0 bf
       -0.1824549115529758 -0.13100036672370607
0003d0 5a fa 89 a9 b5 e6 c6 3f 74 e4 66 a7 88 0b b0 3f
       0.17891569879789665 0.06267599188767453
0003e0 64 72 47 93 25 dd 7a 3f 4a 11 2b 10 65 63 cd bf
       0.0065585582528596455 -0.22959578790153962
0003f0 1b 8c e8 b3 51 d1 9a 3f 55 f4 31 47 b1 7b d3 3f
       0.02618911419461876 0.3044245906128869
000400 3d eb 45 32 42 ab b2 bf a2 bf 18 7e 8c ba be bf
       -0.07292569854136573 -0.12003400877506334
000410 cb 58 94 91 16 83 77 bf 37 e4 6f 0e 90 b8 da bf
       -0.005740249785296035 -0.41751481447096545
000420 a1 90 6d 31 bd cc dc bf 81 4c e6 78 01 b2 81 3f
       -0.44999627901985134 0.008640300275862824
000430 91 09 97 99 18 46 ba 3f fe db 95 72 7c 26 96 bf
       0.10263208150630578 -0.0216311879098292
000440 95 f9 76 48 ff d3 b2 3f ea e0 9b 2a 8b dd bd 3f
       0.07354732054861864 0.11666173734909405
000450 5d 03 13 8b a3 1d d2 bf a0 ec 2a 61 1a 4c d5 bf
       -0.2830590112826508 -0.33276996125250413
000460 90 9a b9 b8 5e ce f1 bf f9 99 92 58 1e c0 dc bf
       -1.1128833022900473 -0.4492259850470926
000470 0e 9f 10 26 ea d0 a5 3f 5c ef 4b d1 d0 9d ce bf
       0.042609517237279446 -0.23919115275918557
000480 47 07 24 2b 62 cd b0 3f c4 d7 2f cc a5 8f b9 3f
       0.06563390305748583 0.09984813914328955
000490 cc a8 7d 04 50 3d d0 3f 33 dc 6f 38 f7 a8 d5 3f
       0.2537422222000145 0.33843784820004713
0004a0 c0 01 fa 5f 12 7d c6 bf 27 3a 7e d4 4c 51 c3 3f
       -0.175691887725419 0.15091858268392963
0004b0 8f e5 70 55 3f 19 b1 bf 0e f6 4f 7b 93 77 cc bf
       -0.06679149471246702 -0.2223991729842258
0004c0 ef 26 e3 10 58 83 c7 bf 7a 48 ef aa 1c cd d1 3f
       -0.1836958010156233 0.2781440419468094
0004d0 cf 73 bd 18 8d a5 d9 bf 5e 28 dc 5d df 1f d7 bf
       -0.40072944084186884 -0.3613203446008181
0004e0 53 22 98 a0 9d 4e 9d 3f 91 ab 85 86 c5 d3 b1 3f
       0.028620207716843215 0.06963762792808682
0004f0 75 72 46 3d 84 ed d2 bf 76 0f 92 74 d3 4c cf 3f
       -0.2957468603506535 0.24453204337998685
000500 67 52 07 7e b4 9b 73 3f 0b 8b 97 e3 e1 7c d1 bf
       0.004787163780254212 -0.273247215516833
000510 45 0d d0 3b 68 2c c5 bf 9c 0d 35 db 6c d4 c5 3f
       -0.16541769905607331 0.17054520324209654
000520 e3 8d 51 f4 42 e1 c1 3f 7a 78 55 db 3a ee d2 bf
       0.13968693666093576 -0.295790399735672
000530 32 2f 68 eb 35 5d e0 bf 42 d5 3a 24 44 4b c7 3f
       -0.5113782499115358 0.18198444146188747
000540 b3 b1 bb e8 91 ef dc 3f 22 71 b0 d0 a8 7a d6 bf
       0.45212218978738433 -0.35123653774077657
000550 24 2c 9a 21 be 24 b9 bf cb d3 73 6c e3 3f b4 3f
       -0.09821689911238757 0.07909985921635536
000560 ef e3 1e 37 56 53 da 3f 54 1b ba f8 97 07 c2 3f
       0.41133647330167283 0.14085673947212263
000570 bc f3 28 33 78 c0 c8 bf 08 35 d9 45 33 09 d5 3f
       -0.19337370393796316 0.32868654080523685
000580 7d f5 eb 82 a8 43 ab 3f 42 e9 ad b7 b4 6d d6 bf
       0.05325056646504842 -0.35044591844020456
000590 a4 2c f2 5e 1a 9c df bf 1e fb 8c c3 25 65 d5 3f
       -0.4939027716834039 0.33429855438946443
0005a0 99 05 50 b8 41 af bb 3f 37 79 de f7 c9 1f e2 bf
       0.1081429553014658 -0.5663804856483584
0005b0 e3 e6 7a b3 d9 06 cf bf bf 81 cc b8 35 4f d4 bf
       -0.2423965574615102 -0.3173345856357876
0005c0 d3 4a 5a 85 5f 2a c5 bf e9 26 40 e7 e8 1b d3 3f
       -0.16535562526094924 0.2985784776979999
0005d0 75 f8 76 15 7b 0c cf bf 01 40 c9 ac 52 87 d4 bf
       -0.24256838367540792 -0.32075945733686245
0005e0 b8 c3 d6 87 e8 61 d1 bf 55 fd f4 f5 a1 f9 92 3f
       -0.27160084977645793 0.01853039802267394
0005f0 1d 6c ce 5f f8 ef c8 3f 7f 9d 22 b5 0e d5 ba 3f
       0.1948233096889859 0.10481349870916822
000600 7b 4a b0 07 83 8b ca bf 7a e9 9d 41 aa 8e c2 bf
       -0.20738256335660651 -0.1449787922281976
000610 ac 7a e9 f0 24 4c ac 3f 16 4d 61 ca 9d ed e3 bf
       0.05526843491383224 -0.6227559044586168
000620 b1 ab e7 08 55 7e c4 3f 54 32 a7 6d a4 cc b5 bf
       0.1601053517800586 -0.08515384366109774
000630 e6 7b 4a f0 66 a3 bb bf 2e 07 c4 88 dc bc c6 bf
       -0.10796206823805185 -0.17763859441770918
000640 67 9a bc 24 d8 2c c0 3f 75 29 65 0b d8 c2 de bf
       0.12636853975091641 -0.48064232933815926
000650 4e cf 61 b0 28 b1 db 3f 70 37 bd 23 c1 f4 d8 3f
       0.4326879236680171 0.3899386261954225
000660 7b d2 30 74 ef 6d b3 bf 02 bb 53 a1 02 bc bf bf
       -0.075896230570672 -0.12396255911492562
000670 b0 79 2b cd b7 d7 a9 bf 70 cb 63 75 99 51 c4 bf
       -0.05047392253412697 -0.15874021751332235
000680 ce 38 35 af ef f0 bb 3f 8b 68 89 7a b9 ae ca 3f
       0.10914514567886899 0.20845716937293832
000690 b9 10 75 a1 99 58 a6 3f f9 55 5d d3 6e db b7 bf
       0.04364471527017728 -0.09319203052776705
0006a0 94 5e bb 76 cb 37 ce 3f bb c7 7a 41 1b c6 d2 3f
       0.23607772157150875 0.29334145922177485
0006b0 d2 8d 4c 49 9b 74 e3 bf 47 fa 80 6b 72 0d bf bf
       -0.6079842025396209 -0.12129893421750025
0006c0 79 63 37 f6 15 7e df 3f 28 9c 38 00 ce f0 a4 3f
       0.4920706657845169 0.040899693991655106
0006d0 97 cb a7 c9 31 3e da bf e5 54 a9 56 e6 5a d1 bf
       -0.4100460500041491 -0.2711730810454596
0006e0 1c d5 fa c7 b1 cd de bf a2 dd 4b 70 a7 3c d4 bf
       -0.4813045933654665 -0.3162020298618363
0006f0 6e 8e 1a d0 0f 02 87 bf 0e 0f a8 1d 10 41 db 3f
       -0.011234401262590423 0.42584612747326467
000700 11 8f af f9 19 27 ba 3f 06 7d 98 30 b1 0a da 3f
       0.102159141024057 0.406902596909234
000710 98 e3 e5 a5 64 81 d7 bf f2 0c cc 64 29 b8 ad 3f
       -0.3672725315187164 0.05804566722329153
000720 ca 47 38 95 17 0e 9e 3f b6 69 89 f8 43 d6 c8 bf
       0.029350632174164372 -0.19403886447510182
000730 a4 84 35 49 ba b1 a2 3f 08 cc d8 ad 07 09 e0 3f
       0.03651220458665108 0.501102294487624
000740 98 f9 7e bc 98 de b2 bf bc 65 4e 15 d5 c5 86 bf
       -0.07370905496552493 -0.0111195227744244
000750 d9 f1 60 a6 4b 1f cf 3f 99 5b bb 13 1b d3 d3 bf
       0.24314256309470642 -0.3097598736471184
000760 fb de ed 71 49 11 b7 bf 10 18 81 67 47 33 e8 bf
       -0.09010752707933627 -0.7562596341674652
000770 8b c8 0b 39 24 94 bc bf 05 72 61 62 56 94 db bf
       -0.11163545983052552 -0.4309287987469193
000780 19 76 5d 7c c4 43 d1 bf 8e 0f c7 e8 c3 85 cc bf
       -0.26976120133426346 -0.22283219209759547
000790 12 dd 73 13 67 63 95 bf b5 94 06 be 6e 61 d1 3f
       -0.02088700348118972 0.2715718131751815
0007a0 2a 54 a0 11 63 51 e8 3f be 4d 46 ad 5a e8 db 3f
       0.759934935022675 0.43605677529668785
0007b0 ee 32 fe 4b 98 87 c6 3f 83 25 fe 13 05 63 c2 bf
       0.17601302824586845 -0.14364684559067706
0007c0 14 b8 63 51 09 e4 c9 bf 8e 7b f6 90 72 dd eb bf
       -0.20227161859605813 -0.8707821685128339
0007d0 a7 dd 1b 99 29 e0 b2 bf 62 a4 0f e2 ce 88 de bf
       -0.0737329481888681 -0.4771001060131025
0007e0 5e aa f6 af ce ef ba 3f db d7 f9 1c 0a 8e ba bf
       0.10522167011246483 -0.10372985083981183
0007f0 55 f7 29 63 c0 16 bd bf b7 9f 56 20 36 7e b1 3f
       -0.11362841053957358 0.06833208360205743

weight_2 f8 [32, 64]
000000 d0 d1 f9 f7 87 e9 bd bf e1 a5 84 fc 65 c1 d1 bf
       -0.11684465221498574 -0.27742910060859854
000010 78 4e 93 db 81 67 a7 3f 5b 17 c5 53 d0 aa c5 3f
       0.04571157269824949 0.16927532282187027
000020 8b f3 69 2d 5a 75 e0 bf 34 6c 34 83 be 64 c6 bf
       -0.5143252264966675 -0.17494946867449956
000030 60 24 4e be 31 30 b7 3f ff 8b 2b 19 cc a0 c6 bf
       0.0905791368114861 -0.17678214291581182
000040 30 3f 0d 84 af 83 d4 3f 48 05 3a 19 19 10 d2 bf
       0.3205374517028643 -0.2822325464586197
000050 1a 08 2e 8e 0c 1a d8 bf 5c 64 68 69 b4 48 ca 3f
       -0.37658990750071697 0.2053437723814423
000060 10 f4 d7 a8 73 7a 8c bf b7 b3 c7 ed a9 74 cb bf
       -0.013905433263966344 -0.21449779615741502
000070 12 fc 51 e8 60 cb c5 3f fd e8 29 cf 06 02 c7 3f
       0.17026912063371974 0.17974934688010782
000080 e1 99 4c b2 81 11 e0 bf ec df f9 22 f9 4f a9 3f
       -0.502137039414091 0.049438272017994084
000090 57 91 80 0c 1b a9 d8 3f 8d a8 74 ff ef 7a cf bf
       0.38532139035148333 -0.2459392545072813
0000a0 4f cc ab ba 87 05 a6 bf 26 56 c2 00 a4 0a d5 bf
       -0.04301094201755317 -0.3287744529164648
0000b0 2d ce 82 be 1d 06 cc 3f c5 fc e1 39 21 ae de bf
       0.21893665125172515 -0.4793780389081344
0000c0 a9 90 8a 06 95 0d dc bf 0a 0e 14 a0 7d 6f cc bf
       -0.4383289874915684 -0.22215242687535436
0000d0 00 ed 70 99 b9 7e b0 3f 0a 52 49 60 5c 20 cc 3f
       0.06443367000695233 0.2197375745914914
0000e0 0a 78 c9 b5 c5 3d b0 bf 5e 11 ec da 72 98 e6 bf
       -0.06344257057341465 -0.7061094547102973
0000f0 33 16 b4 13 af f9 cf 3f fe 3b 6e 26 4c a8 d1 3f
       0.24980724775393667 0.27589706185329976
000100 52 68 14 db d0 51 ca bf aa 2f 65 7e 8a 45 9f bf
       -0.2056218213772945 -0.030538715328745226
000110 f0 ef 59 ab 1d df be 3f f7 e1 e3 24 5a df d5 bf
       0.12059197839147351 -0.34175733187251417
000120 9a a5 0c 42 f1 92 ae 3f d4 a8 80 ed d0 1d c7 3f
       0.05971483165042031 0.1805974158936069
000130 f2 ba 1e aa 3c 7f bc 3f 11 2b da 27 a7 64 d1 bf
       0.11131648209878245 -0.27176836864298176
000140 b4 51 b2 d3 b5 ce e1 bf ee e3 0c bb ea 9d e1 bf
       -0.5564831862162039 -0.5505269673659521
000150 92 9c e1 6b 7c fd cf bf b0 70 73 4f bc ef c3 bf
       -0.24992327945367215 -0.15575364951553672
000160 3a 10 67 bb 5f c4 b7 bf e9 4b c0 4e 4a ec b4 3f
       -0.09284017873056963 0.08173050329814625
000170 e6 9c ff 4c 44 72 ca bf 0b e9 3b 7c 96 01 c4 3f
       -0.20661214599315442 0.1562984568225335
000180 8a b5 85 16 0b 27 db bf 11 84 7c 57 49 0b cc bf
       -0.42425801467364777 -0.21909443637653728
000190 72 e0 09 ee 4d 81 de bf 7e f8 f1 1f eb e6 b3 3f
       -0.47664211507754495 0.07774228601371821
0001a0 db 17 c3 36 2a 81 98 bf 02 3b ac 70 d3 d2 d8 3f
       -0.02393022498360851 0.3878677940673897
0001b0 28 b1 83 4d 56 44 c3 3f 58 81 ca d4 1c e8 c7 3f
       0.15052298340686687 0.18677101507365523
0001c0 f6 c9 6f 63 04 ed ba bf 41 81 01 de 50 30 e0 bf
       -0.10517909457829674 -0.505897935490829
0001d0 09 ed 76 b6 52 0e cf bf 37 41 03 a9 13 5e d8 3f
       -0.24262460622217244 0.38074199204585873
0001e0 57 f8 fd d7 03 04 a3 bf 24 0c 28 84 a9 29 c0 3f
       -0.037140007129878576 0.12627142861319485
0001f0 d1 99 6c 6f 74 6d d7 bf 60 c0 b6 39 ed 6a c8 bf
       -0.36605559235831914 -0.1907631427579899
000200 47 0a 00 0c 8d a4 dd bf f6 df 3a 91 24 78 b6 bf
       -0.46316839382067027 -0.0877707342687016
000210 8e 31 ae 78 07 8f d7 bf ef 2d dd a0 7c 64 c0 3f
       -0.3681048086662252 0.1280666146725333
000220 e3 4a 92 a4 5b 41 d9 bf 53 28 b6 e7 54 93 d5 bf
       -0.3946141345160596 -0.33711741092759445
000230 c4 d7 ca 6f f1 d1 d8 3f 24 f0 f2 86 07 b3 71 bf
       0.3878139106485572 -0.004321126368434878
000240 a5 1b d8 9c 72 91 da 3f e6 ae 76 36 88 cc 96 bf
       0.4151274234467855 -0.022264602970308987
000250 91 1c 72 59 4b b0 ca bf cc ad bb 6b ce ec ad bf
       -0.20850507609813865 -0.05844731392957278
000260 44 ae 3e a2 0f 32 ae 3f 77 ed 69 59 c1 7f b4 bf
       0.058975685649184345 -0.08007439072564702
000270 10 5c 36 0d 86 b0 c8 bf 28 c5 eb 65 7c 99 d4 3f
       -0.1928870739472761 0.3218680377313654
000280 0c 66 3d 5a 9d bf d4 bf c2 8b fd 1e 1c 04 d2 bf
       -0.32419523060306754 -0.2815008452072868
000290 e2 bb ee 8a b4 59 cf bf 89 2d a7 c2 af 0d e5 bf
       -0.24492508682075625 -0.6579207231347236
0002a0 f6 78 c2 36 89 3f d1 bf 24 20 34 0b d5 74 c9 bf
       -0.2695029291879928 -0.1988779358582643
0002b0 dd ce 0f 4a 79 c5 b6 bf 96 d4 85 b6 b3 18 df bf
       -0.0889507108511753 -0.48588269066323997
0002c0 ae 44 68 9b b8 b1 db bf 02 4d 26 9c 85 51 d1 bf
       -0.43272223640912955 -0.2706007027529297
0002d0 da 2c fe 60 d2 ce a5 3f 80 17 a3 19 01 7a b1 bf
       0.04259355005259531 -0.06826788783936699
0002e0 f9 34 68 6e db 02 a5 bf ce 92 cc 82 81 c7 b9 3f
       -0.04103742335073863 0.10070046847665567
0002f0 86 16 26 1e 96 ca d5 bf 39 87 25 8d 53 b0 c1 bf
       -0.34048989242760574 -0.13819355384753765
000300 69 81 58 39 fd ba b5 3f 0a 24 20 39 1f cf dd bf
       0.08488447809259515 -0.46576672152201637
000310 3f 50 17 26 63 bd 8e 3f 14 0b 10 d9 70 79 d7 bf
       0.015009665107676649 -0.36678715894247316
000320 4f d2 87 8e 9e 96 c2 bf d0 18 9a 7a 7a aa ac 3f
       -0.14522153815745972 0.05598814722638823
000330 f8 80 59 b8 21 0e bd bf fe 50 80 c9 ab bd e0 3f
       -0.11349688292239424 0.5231532035418522
000340 4c ba ca 2b 54 39 e0 bf 57 aa 40 90 16 f2 d1 bf
       -0.5069981437025688 -0.2804008873669423
000350 10 3a fd 32 0e 10 d5 bf 25 b7 3e 36 0a 1f c8 3f
       -0.3291049478474699 0.18844726227455869
000360 c2 79 62 46 91 e4 d3 bf a6 fd ca 75 ab f1 d3 3f
       -0.31082565186980216 0.3116253519364939
000370 10 ab a5 56 29 ad d2 bf c9 fb ea b4 bb 6a d3 bf
       -0.29181893788943203 -0.30338947932972055
000380 63 96 2a 41 9d b6 b7 3f ba 12 1e 5d f7 17 b8 bf
       0.09263022271132963 -0.09411569617629825
000390 3d 1f 15 a5 f0 dc be 3f 50 88 78 70 13 fc c4 3f
       0.12055877714476267 0.16394274703731293
0003a0 48 ea 3d 26 45 92 c0 bf c4 3d 87 d4 03 21 55 3f
       -0.12946380965498094 0.0012896096615014766
0003b0 03 a5 8e 09 06 e8 6c 3f 2a c4 45 60 56 f8 c1 bf
       0.0035286062161118416 -0.14039115620428905
0003c0 88 7a 7b 30 25 f8 d9 bf 08 91 2a 02 f7 3a ba bf
       -0.405770585390123 -0.10246223261725984
0003d0 ae 59 ff cc 60 83 cd 3f a7 e5 6d 90 1c 9c a3 bf
       0.230571842285554 -0.038300411825683604
0003e0 0a 7a c3 f5 a7 b6 8d 3f d9 2b ee 47 24 ec d9 3f
       0.014508545100793153 0.4050379469342125
0003f0 d5 c0 9f 19 08 95 c0 bf 76 e7 b7 ed 2d 90 c8 bf
       -0.12954808474706306 -0.19190000636427457
000400 21 8b 81 45 6a 14 b1 bf 50 03 02 e9 7b 08 ca bf
       -0.0667177600567297 -0.2033839118703562
000410 85 46 0f 59 f4 37 c1 3f e9 73 7c d6 98 cf d3 3f
       0.13452009533516587 0.30954571672356096
000420 e9 51 2b 23 6f 98 e8 bf 65 07 27 9a 54 ce d4 bf
       -0.768607681932335 -0.3250934129138073
000430 ad 72 66 7e 61 b4 c4 bf 7f a2 c4 55 7f 85 e0 bf
       -0.16175478622326037 -0.5162960696371356
000440 96 c7 f8 bf 69 7a d6 3f 77 1c df d7 30 f5 c0 3f
       0.35122150180097245 0.1324826292095371
000450 6f cc fa 78 0e f7 e5 bf f3 5a 43 23 7f 72 d5 3f
       -0.6864082682499325 0.33511331981337306
000460 88 4d e4 da 00 2d a5 3f d8 4d 11 db 0e d3 c1 bf
       0.04135897323626653 -0.13925347992572656
000470 a7 36 5f 86 b4 37 a3 3f 62 dc ca ae c7 60 d8 bf
       0.03753437176019974 -0.38090698308537274
000480 05 81 67 50 d9 15 c1 bf 30 5f b8 d2 b6 d6 bc 3f
       -0.13347927499763315 0.11265127796684449
000490 56 f1 38 72 55 d6 c1 bf ba 78 0c 87 7e 9c a6 3f
       -0.13935344769732677 0.04416270636123572
0004a0 3c f0 e3 21 62 dc ca bf 20 e3 53 89 c5 29 7e 3f
       -0.20985056547931602 0.007364055277542275
0004b0 61 40 27 83 e5 49 d2 3f 23 5f 13 c2 f1 d5 e6 3f
       0.2857602864069176 0.713616255811733
0004c0 d5 5e 57 ba f4 c2 ba bf 17 9e 6d 74 94 19 d9 bf
       -0.10453729199741287 -0.39218627328816197
0004d0 4e 82 ec 43 1f 1d be bf 6b 65 60 7d 24 00 b4 bf
       -0.11763186844155735 -0.07812717495871417
0004e0 26 95 bb a0 a8 de ca 3f bc d0 1d 44 f5 e7 b2 3f
       0.20992000435141128 0.07385189927100816
0004f0 fa 22 49 f6 f6 be bd 3f bc 01 30 bc b4 8a bf 3f
       0.11619514000734546 0.12321023554250748
000500 2e 40 92 04 0c c0 d1 bf 97 fe be 25 a4 da d1 3f
       -0.27734661528029647 0.27896979986324183
000510 2e a2 ba 9e b1 37 b8 3f f1 c9 41 c5 5a 4d c1 bf
       0.09459982037754663 -0.13517317420662736
000520 4d 9d 74 36 83 62 95 bf f1 54 e4 c8 98 0c d2 bf
       -0.02088360805387639 -0.2820188485942046
000530 bc 83 d9 ea a1 f8 a5 bf e1 41 a3 ed 73 05 c8 3f
       -0.04291254035775391 0.1876664076176118
000540 22 be 2b 4c 60 28 c6 bf 13 bf bc ac 1a ac d1 bf
       -0.17310718268662223 -0.2761294066321948
000550 91 e7 8d 53 5f 74 e8 bf 5a bd 71 9f f2 f2 c3 3f
       -0.7642056114120682 0.1558516768013572
000560 29 8f 9e e9 e4 9f d0 3f da ed 09 2d 17 f0 d1 bf
       0.2597591668547801 -0.2802789630729571
000570 db 16 bf 8e 2f 3a af 3f 31 44 ee d6 f1 4a d4 bf
       0.060990797209837765 -0.31707426060990246
000580 cf 7b 33 72 55 1b e7 bf ee 34 ac fe e1 17 d6 3f
       -0.722086642312087 0.34520768995646633
000590 69 87 be 8f 8a 99 e0 bf 02 0d c9 91 ed 94 e9 bf
       -0.5187428290848689 -0.799429688202878
0005a0 ae 4b 0f 03 f9 05 9b 3f 57 88 c8 43 d0 68 d1 3f
       0.026389971553566198 0.2720223104425989
0005b0 f6 2c 51 8b e4 35 c7 bf ad ea 1e 29 cc d7 84 bf
       -0.18133217623321912 -0.01017722607126833
0005c0 f9 90 04 f6 ec 33 a4 3f a9 31 d7 7a fe f1 c4 bf
       0.03945866110942293 -0.16363507268978353
0005d0 d1 a5 97 00 6d 64 d8 bf e5 59 29 bf bf 45 a9 bf
       -0.38112950380181326 -0.049360267720363095
0005e0 18 37 70 5f e4 a0 d0 bf e1 57 a5 b4 0d c7 d8 3f
       -0.2598200733199163 0.3871492637748571
0005f0 ff 6b 4a 50 e7 9d bf bf 29 5a 58 38 c7 68 c9 3f
       -0.1235031672498934 0.1985100770113644
000600 a7 84 9e ba 3b 0d cc 3f 7c d7 11 36 86 b5 88 bf
       0.2191538487650508 -0.012064980053974265
000610 5d ba 8b fa 8b 11 d2 bf d7 1d 98 74 35 84 cd bf
       -0.2823209711777162 -0.23059719269825393
000620 16 e2 36 f2 e9 d9 b7 3f 16 9f 43 60 48 71 c4 3f
       0.09316885150372686 0.1597071142234589
000630 af dd ed ed 05 b9 b0 bf 02 ce 33 61 df 57 b4 bf
       -0.06532322939698675 -0.07946582911591096
000640 d8 6e 67 02 c8 2a cd bf 34 25 1e 95 b4 f2 a1 3f
       -0.22786808125862623 0.035054820254183744
000650 79 27 60 0a fc ad ce bf 40 2d 5c 05 43 aa d0 bf
       -0.23968458658810812 -0.26039195559924977
000660 49 06 c3 cc 1e 4b a1 3f b4 e7 87 2a 6b 67 84 bf
       0.03377624749692793 -0.009962880359115057
000670 48 ad fd 70 fd f6 c0 bf 19 a6 2f ce 03 1b c0 bf
       -0.13253753678450608 -0.12582442825014153
000680 55 1a f2 a6 c8 50 b0 3f b2 06 a9 2d 54 13 cf bf
       0.06373266292403319 -0.24277736882691198
000690 33 aa 14 56 25 45 c3 bf 97 b9 c9 e0 ea b1 ca bf
       -0.1505476637187982 -0.2085546109769438
0006a0 39 1b 2f e1 86 e6 c5 bf 33 f6 e6 c1 6b b5 cd 3f
       -0.17109762187302538 0.2320990273273523
0006b0 2e dc bb 76 a9 f9 c8 bf 73 d1 0c f1 04 3d af 3f
       -0.19511907861280647 0.061012415337617386
0006c0 bd 59 68 1f 58 6b b2 bf c1 19 c8 ed dc b3 cf bf
       -0.07195044295108395 -0.24767648325378214
0006d0 77 24 eb fa b1 1e c3 3f e3 2d 64 ed 6f 1e a4 3f
       0.14937424423104392 0.03929471752971005
0006e0 d4 5c 4c d0 eb 05 d2 bf 3c d2 6b c2 4a 60 c2 3f
       -0.28161139814023994 0.14356359952184217
0006f0 6e 8a 1c 8b 03 9f b9 3f 22 e0 fb f4 a8 0f c4 bf
       0.10008260866428895 -0.15672790491203253
000700 d5 eb 69 8e df 47 d7 3f 70 83 9c 97 12 0e c6 3f
       0.3637617960700344 0.17230446246051256
000710 f2 a7 2d d9 a4 f2 ca bf 9a 3d 9f d3 a1 06 a6 bf
       -0.21052990536128352 -0.04301934917713908
000720 02 64 61 9c b8 1f d1 3f b1 b9 a6 d6 27 3a a2 3f
       0.26756110450293147 0.035599942162082406
000730 47 55 d7 58 c4 c6 b3 bf 5f 09 ce 57 45 16 b1 bf
       -0.07725169342969194 -0.0667460765235197
000740 49 69 99 33 07 d9 d3 3f 8c 73 e5 97 27 a0 a2 3f
       0.31012134589186197 0.03637813309862911
000750 19 ae ea 94 5f a7 c4 3f 73 f4 ab 72 f1 f0 95 3f
       0.1613578297741334 0.021426937698369074
000760 7c 9e 2b fd e3 47 d8 3f 44 b4 e7 51 17 8a ae 3f
       0.3793878528945027 0.05964730143373534
000770 ab 1b 36 e7 e4 59 d0 bf 90 3e 7d 61 8f 07 b5 3f
       -0.25548670367464393 0.08214660768612192
000780 cb f5 c5 3e 18 40 be bf 11 20 c5 e0 42 ac 8d 3f
       -0.1181655076270182 0.014488718494831717
000790 7b 13 01 08 5e 4e b0 bf 76 df 6e c3 55 7f cc bf
       -0.06369579024710774 -0.22263595621711446
0007a0 50 0d 87 02 30 51 d2 bf 50 b7 1c 77 06 26 91 3f
       -0.28620529410200835 0.01674661733630184
0007b0 9a da a2 25 8c dd d5 bf 29 66 26 7e ec af cc 3f
       -0.34164718318371856 0.22411876830737867
0007c0 ff dc 17 2e d7 13 ce 3f d1 df e4 51 1b f7 d1 bf
       0.23498048544545466 -0.2807071971651541
0007d0 2e e4 30 ba ec 94 90 bf 8b 04 4a 66 c4 b7 94 3f
       -0.01619310270709578 0.02023226618121447
0007e0 54 cf 6a 09 1a ce c4 bf c1 d7 68 ce 63 aa b0 bf
       -0.16253972492051594 -0.06509994305892432
0007f0 cc ea e3 ee 51 d9 ea bf 99 98 03 13 ec 7f cc bf
       -0.8390283265901757 -0.22265387466831468
