letters/trained_model.npz (npz, 964384 bytes, 6 tensors)

weights_input_hidden1 f8 [128, 784]
000000 a0 3c dc e1 d7 ff a5 3f ac d6 3a 2f fc 2e c0 3f
       0.042967554398381624 0.12643387132782402
000010 42 8c 3f 34 8b ee d4 bf 20 08 64 2f 84 bf cb bf
       -0.32705955602995485 -0.21678211511613288
000020 86 ea 5a f5 9f d7 c7 bf fc 6d dc 00 51 c2 c9 3f
       -0.1862678478263044 0.20124256650966277
000030 be 4f c6 ee 79 36 c5 bf 5a 37 a0 9a 4e 53 d6 3f
       -0.16572498473089853 0.3488346586244596
000040 5b 59 a0 28 d6 91 b3 3f 97 a3 8c 10 c2 b7 dd 3f
       0.07644403926710679 0.4643407022108987
000050 f6 7a de f1 a2 bc df bf 96 6f 68 07 d4 03 d7 bf
       -0.4958884584429336 -0.3596086571067131
000060 26 08 d3 1d 70 9e da 3f 7a 84 d5 52 05 7a d0 3f
       0.41592028534444336 0.2574475583006187
000070 2d e0 ed 9e 2f 10 d5 3f 08 65 09 9d b4 5d d2 bf
       0.32911291618757127 -0.28696933112731005
000080 1f 69 2e b9 c6 0f d3 bf d0 3d 3b 99 84 71 bb 3f
       -0.2978379066859293 0.10720089665414112
000090 6b 6b 0c 15 be 09 c2 3f cb 7d 14 b3 08 b5 b9 3f
       0.1409223177696178 0.10041860935279272
0000a0 6e e2 fb 9b 3f c3 d0 3f ee 78 ae 6d 42 92 de bf
       0.2619170211105829 -0.47767697058760816
0000b0 22 99 f8 00 6f 64 d2 bf 73 93 5b d4 e5 fa 85 bf
       -0.28737998099167517 -0.01073245577158286
0000c0 81 6c 56 23 08 7b da bf c5 e9 56 bf 0c 9e d6 bf
       -0.41375926447808103 -0.3533965939092492
0000d0 d7 bc 56 d4 ba ff b0 3f 5c 58 cf 0f ee 97 cb 3f
       0.06640212711384962 0.21557403346986603
0000e0 30 95 cd 7b 6c a5 c0 3f ae 54 3f 3f 47 f9 d0 bf
       0.1300483326441877 -0.26521474052908445
0000f0 af c8 85 78 73 f0 b0 bf 65 14 17 3e 97 8e de bf
       -0.06616899197050218 -0.4774530512189073
000100 de df fb bd 94 05 d4 bf 3a c3 3a 64 54 10 bc 3f
       -0.31284063866723766 0.10962417075166977
000110 24 3a 46 07 ff 0a c7 bf d7 c2 33 5e d6 3a dd bf
       -0.18002307753745683 -0.4567161483710555
000120 25 6e 5f a0 09 37 dd bf 5d f9 f7 b0 4d 9a b2 bf
       -0.4564842287197471 -0.0726669842769971
000130 e1 42 85 96 59 b1 c6 bf 4f d8 55 a1 d8 2f d6 3f
       -0.1772872910464889 0.3466703010120726
000140 bc 84 41 c0 51 69 d8 bf f1 6f 85 78 a2 85 d6 bf
       -0.38142818236344644 -0.35190641183521537
000150 25 9e 5a ed 65 9e dc bf a6 a5 bd b1 db f7 bd bf
       -0.4471678560171049 -0.11706326569915024
000160 58 ba ad ed 04 de d1 bf a7 59 6b 23 3c 11 da bf
       -0.279175979717285 -0.407301935757824
000170 61 68 80 12 22 a5 de 3f 37 9a 4a a0 7a c7 d1 bf
       0.4788289242438904 -0.2778002324434143
000180 4a 51 fa 50 df 9a bc bf 0a 76 d4 2b 83 6a d1 bf
       -0.11173816420552388 -0.27212600021616196
000190 ba 09 38 93 ef d0 df bf fb c9 5e e6 24 e4 c0 3f
       -0.4971274316486888 0.13196240662144007
0001a0 3b 05 d0 c1 2f 47 c1 bf f1 f3 39 cf 2f 9d 68 3f
       -0.1349849411344993 0.003004639985930251
0001b0 2b f0 70 c3 2e 2a c0 bf 2c f1 4c 7a 4d f8 c2 3f
       -0.12628731291795367 0.14820259544092929
0001c0 ba 8e db cf e8 dc d0 bf 63 4e 53 cf 68 d5 c8 bf
       -0.26348324106787013 -0.19401273845015785
0001d0 09 f7 16 11 81 9e d4 bf 1d 2e 88 ba 0b bf c6 bf
       -0.322174326600234 -0.1777052555847697
0001e0 f2 2f ed bf 2a ee 99 3f 41 fb 34 bb 98 08 b6 bf
       0.02532259746958227 -0.08606867380602258
0001f0 0d ef 1f e6 a6 12 d0 bf e9 80 d3 28 59 06 d9 3f
       -0.2511384246169975 0.3910124682133885
000200 fd e8 8a 01 55 a7 bc 3f 0d bb 64 9b 48 f3 b2 bf
       0.11192828452741206 -0.0740247134569751
000210 e8 3d 0b 0d 35 ee d9 3f 35 a5 52 77 83 a7 d1 3f
       0.40516401552028336 0.2758492150556607
000220 02 a8 52 bc 49 d8 bc 3f fd cd 1b bf 72 a4 b6 bf
       0.11267529342390506 -0.0884467808316955
000230 7d 53 1e 7e 9f c1 e2 bf 51 5a 7a 89 31 db 8d bf
       -0.5861356223345947 -0.014578234680169862
000240 77 f5 b8 5b c1 09 cc 3f 80 01 83 95 45 18 c4 bf
       0.21904770830762363 -0.15699071693780908
000250 f2 72 33 e5 de 79 b9 3f 62 4c 73 eb ec e7 c0 3f
       0.09951584907271263 0.13207780357933802
000260 f3 23 70 7b 34 32 db 3f 81 9c 20 e3 23 c1 d8 bf
       0.42493927053925445 -0.38678834133538237
000270 90 de cb f1 19 af d6 3f 80 8e 5b 4f 77 1f db 3f
       0.3544373379986405 0.4237955355622276
000280 6e 9f be 0c 6e 7e c3 3f a9 b2 04 49 cf 9a d8 3f
       0.15229583380027684 0.3844488347120128
000290 19 97 88 9c 2c c4 b0 3f 00 38 c5 50 fa 2d d1 3f
       0.06549338170642861 0.268431261899309
0002a0 b0 a1 59 2d fb 88 aa bf 13 99 6e d2 b2 40 d5 bf
       -0.05182633331861852 -0.33207388448717373
0002b0 78 1b bd 43 e7 3c dc bf 3b 06 8f fa 2a 70 da bf
       -0.4412172471533533 -0.41309618443128543
0002c0 06 94 e4 68 f3 a3 ce 3f a2 d9 a3 84 02 75 dc bf
       0.23937838193629107 -0.44464171364907135
0002d0 28 14 dc 13 a3 85 d8 bf 72 86 eb 32 04 ae d4 3f
       -0.38315655650541425 0.32312111828478074
0002e0 c6 27 7a 0b ea ed 9a bf 61 29 ef 42 80 b4 57 bf
       -0.02629819579173167 -0.0014468433907831246
0002f0 e1 a7 84 50 e1 cb a4 3f 28 80 4d 6f ec 5a d1 3f
       0.04061798198593159 0.27117453450591933
000300 e1 51 0c a2 40 a4 d0 bf 15 bd 53 59 cb ab a5 bf
       -0.2600251753331389 -0.042326311735332
000310 7b 76 70 a9 56 f7 d1 3f c3 3a de bd 86 a2 d5 bf
       0.2807213453942052 -0.33804482023053256
000320 bf 9c 31 d2 bd bf d2 bf eb 62 34 10 84 4a da bf
       -0.2929529717134293 -0.4107980879066832
000330 38 48 92 85 bc 4e d7 bf 11 e3 30 77 4d b3 d1 3f
       -0.3641806892784447 0.276568762204577
000340 54 36 87 53 40 20 b6 bf 32 bb 9d 82 96 4e d1 3f
       -0.08642961539518385 0.2704216266201228
000350 0e d5 d3 64 5a 9a c8 bf 65 4f 9e d0 f5 05 dd bf
       -0.1922104828187589 -0.4534887826241543
000360 97 fb b2 df 55 64 b8 bf b1 5e c1 15 83 26 d8 bf
       -0.09528099738507333 -0.3773505890326119
000370 38 de 7f 68 07 33 c1 bf 9b 22 d6 26 1a f2 d6 bf
       -0.13436977961076635 -0.3585267428648337
000380 78 4d fd 28 e4 c9 82 bf cd 10 34 bf fe 61 b9 3f
       -0.009174139500521802 0.0991515366368418
000390 af 1a 94 86 eb c9 c2 3f 25 c6 bb 9c 5d 22 ce bf
       0.14678711005418196 -0.23542375710489796
0003a0 08 2c fc a8 bb 19 e0 3f 6b 97 98 81 70 70 6f bf
       0.5031412411202618 -0.0038377950084109067
0003b0 75 d6 72 43 29 ab d0 bf d7 78 d6 60 14 5f d7 bf
       -0.26044684969688287 -0.3651781984025439
0003c0 fd cf 81 f0 bc 89 dc bf ea 4a b5 23 05 cd b5 3f
       -0.44590686308879396 0.0851596080949936
0003d0 57 81 50 77 97 a5 d4 3f 65 66 6c c8 2e 57 bb bf
       0.32260691310695705 -0.1067990531268151
0003e0 10 7b de 0a 4b 5a df 3f 8a a9 13 4c 46 bd c2 bf
       0.4898860555785385 -0.14640120234191684
0003f0 70 43 63 ee 95 61 b9 3f 80 ed 23 cd 15 ed c2 bf
       0.09914528913510678 -0.14786026493662163
000400 6c 88 9c 4e 03 5b c1 bf 32 10 3c b5 fc 18 cc bf
       -0.13558999384355575 -0.21951254700991424
000410 5e 09 35 a1 28 a1 ce 3f 59 22 fb c2 2e a8 d1 bf
       0.23929317351764728 -0.27589005509483894
000420 c4 b6 e6 5b 37 e7 58 bf 56 df a7 e6 c6 7a d9 3f
       -0.0015199699988487783 0.3981187107560705
000430 dd 6b a3 ce 05 ef d1 3f 97 e3 0d 75 2f 32 e0 3f
       0.28021378688361925 0.506126145001974
000440 e7 30 91 37 4a 0a b6 bf 1b e2 65 fe 43 73 cd 3f
       -0.08609451157207425 0.23008012697006638
000450 fc 25 fd 90 0a 31 c1 3f 82 9d 87 b2 45 56 ca bf
       0.1343091209367201 -0.20575782029412087
000460 2c e4 7f 45 b6 fc b2 3f 47 79 ec 86 8e 95 9e bf
       0.07416857907072999 -0.029867388711062117
000470 98 2e 5f 2e 0a 20 d8 bf 03 c8 2e e9 4e b3 d2 3f
       -0.37695555237289957 0.29219410678626917
000480 c9 3a 58 14 6e 25 c4 bf 61 29 25 f2 d0 f5 d9 3f
       -0.1573922728861901 0.4056284298609594
000490 70 af ae fb 51 f4 df 3f 88 81 7b 22 25 a3 cf bf
       0.4992871244273749 -0.24716629203522822
0004a0 18 4a 04 3b 5c 4a d3 bf 6a 87 55 94 76 18 d8 bf
       -0.3014135910354141 -0.3764931152892276
0004b0 fd d7 dd a6 0f c9 b3 3f 31 65 35 3f 00 95 d7 bf
       0.07728669952288665 -0.3684692971488231
0004c0 33 df 1b 40 32 da a3 3f 04 24 cf 67 51 91 d8 3f
       0.03877408058718714 0.38386950624095584
0004d0 88 cb b7 0e 27 16 b2 3f 9a 0d de 1c 90 c1 d7 3f
       0.07065052136731087 0.3711891443164973
0004e0 46 f4 c1 02 73 1e c9 bf 98 01 41 ef dc 7e d1 3f
       -0.19624173769617154 0.27336810459748895
0004f0 67 e6 c2 d7 e2 0c c0 bf ae fa 2d ea 0d ff d0 3f
       -0.1253932527086363 0.2655672823820322
000500 c1 d4 a4 79 69 39 a0 3f 02 0d 10 8e 38 f2 c1 bf
       0.03168801889334239 -0.1402044957795639
000510 06 bc e8 6b b2 3e d7 bf 42 a0 5b 98 b5 ca d0 3f
       -0.3632017186927786 0.2623723972196822
000520 c6 83 68 19 22 89 54 3f 8f e1 d3 06 0b eb db 3f
       0.001253398227739165 0.4362208906818745
000530 90 af 22 ee 59 93 b5 3f d4 d6 c4 6f 17 d5 c8 3f
       0.08427965225081224 0.19400303800073593
000540 2a 41 55 9f 92 42 c6 3f be 33 c0 46 2e 3a cb bf
       0.1739066389077462 -0.21271303610447306
000550 4f 73 57 7c 63 a0 d6 3f 04 8e 8c 91 13 7f de bf
       0.3535393442414731 -0.47650613034986145
000560 4c 62 4c 33 4f 1f c5 bf 6c 15 28 0f 4f 21 de bf
       -0.1650179863434168 -0.4707830093396612
000570 84 e8 8e 82 96 e5 d1 bf c2 f1 23 14 1a 60 b0 3f
       -0.27963793515994717 0.06396639816006824
000580 17 47 6c 3f 95 e3 a7 3f af 43 dd f7 43 9b cc 3f
       0.046658195488033787 0.22348832705259045
000590 97 e3 5d d2 c8 bb cb bf 8c 95 a2 b6 c6 e2 d0 bf
       -0.21666822692693863 -0.26384132228334845
0005a0 de 48 77 c4 f1 f3 c5 bf c9 de ba 49 d1 e7 ca bf
       -0.17150709240974654 -0.2101995096215801
0005b0 98 9e a5 75 9a 20 aa 3f 9f 47 bd e4 96 65 c4 bf
       0.05102999387855539 -0.15935026329912902
0005c0 38 f2 0e 61 0b 7f d2 bf ee 36 4d e5 fa 86 d8 bf
       -0.2890041778407837 -0.38323852913604994
0005d0 2b 6f 6d 69 1b ea df bf 20 77 67 e8 7e 3b d1 3f
       -0.49866376205112556 0.2692563314029588
0005e0 d5 72 d7 ac 4d 29 ca 3f 9e 79 2b 80 fc 23 da 3f
       0.20438548030406048 0.4084464313181345
0005f0 37 cb ed aa 16 cf dc bf bc 1f 89 fd 03 5b c8 3f
       -0.45013968174241675 0.19027757529897638
000600 0a 51 b7 a5 97 e1 c5 3f 3a 9c df f7 c6 ff d0 bf
       0.17094703284841045 -0.2656114025725774
000610 e6 11 56 8c 54 a7 b7 3f 0d 77 ed 1f 67 69 d6 3f
       0.09239700723816888 0.35018327825479006
000620 67 85 f7 65 d5 89 d8 3f 6c 9a f5 6a bd 0f 29 bf
       0.3834126945276552 -0.00019120394925238886
000630 3f 11 f8 5d 1f fb d0 3f 8d 79 a2 a5 50 8d de bf
       0.2653273027101654 -0.47737518477688284
000640 8f 73 bd ef 61 bb d4 3f 8f 0f e9 79 88 7f db 3f
       0.32393692409623837 0.4296590033084095
000650 4a 4e 5b 22 01 75 b0 bf 2a 03 68 6f 31 54 cd 3f
       -0.06428534592424132 0.22913186969528826
000660 54 21 b3 0d 6b 65 d3 3f 16 c4 17 98 3e f1 c2 3f
       0.30306507432807916 0.14798719812782285
000670 27 33 ce d2 05 c5 c5 3f ab bb 12 3a e0 36 d3 bf
       0.17007515710101836 -0.3002243582840786
000680 bb 2c ee be 97 4f cf 3f 16 fe aa 6a e9 ec bc bf
       0.24461647818347906 -0.11298998693654769
000690 55 de 2a be e9 b2 62 3f 06 24 75 bd d0 1c a7 bf
       0.0022825780191302694 -0.045141718985696896
0006a0 6d 7d 2c e4 a1 2a bb 3f c4 a0 91 7b c4 35 d2 bf
       0.10611926861428396 -0.28453170840522213
0006b0 df 36 63 c4 0d e0 c5 3f 84 d7 b1 af f1 e4 d5 bf
       0.1709000786708463 -0.34209863813099894
0006c0 f7 19 6f db 32 c7 db 3f 98 12 28 a3 0d 92 b6 3f
       0.43403312138653355 0.08816609605134784
0006d0 13 a4 b5 17 69 70 c7 bf 8d f6 f6 b8 11 a7 c4 3f
       -0.18311799676601534 0.16134854823569747
0006e0 b5 7f 80 86 8e f9 d0 bf 51 df 8c 1f ed 17 d3 bf
       -0.26523173460918353 -0.29833534318048743
0006f0 e5 4f 2c fa 2a aa c9 bf 9a 18 bf a9 fa 6e dc bf
       -0.20050561156733618 -0.44427362992099406
000700 bd 4d b3 71 15 e2 de bf 0a af 61 21 36 57 d5 3f
       -0.482549057994415 0.33344796428603785
000710 2a 81 cd 15 cf e4 d5 3f 3a 70 67 15 24 ef d3 bf
       0.3420903885762693 -0.3114710053466784
000720 8f 62 84 7e c8 e1 8b 3f 45 4b 6d 84 a8 69 d4 bf
       0.013614240990635266 -0.31894886905972825
000730 b3 1f 1c 70 2e 0d b5 3f 11 d4 a0 5a ff 77 b7 bf
       0.08223238217408273 -0.09167476618388572
000740 37 db a7 fc 56 f4 d0 bf e9 1b 91 c1 e8 4b c7 bf
       -0.26491331742674923 -0.182004065051131
000750 65 37 69 fc d7 25 c3 bf 51 c2 c1 a3 2d 44 c5 3f
       -0.1495923979259103 0.16614313598576527
000760 81 48 35 4b 92 6c d9 bf b1 d1 ae db 6b c7 d2 bf
       -0.39725167603058514 -0.2934217114773459
000770 60 cc 60 ad 08 11 de 3f 9e c6 a4 b0 9d 76 c5 3f
       0.46978966647583853 0.16768237233332156
000780 b3 3b bb 18 da 99 c2 bf 17 92 20 ab 47 b4 dd 3f
       -0.14532018859469317 0.46412841521876785
000790 51 93 82 8d d9 95 d2 bf b0 eb bd 36 15 24 d8 bf
       -0.2903961069044288 -0.3772023233975075
0007a0 c1 7d dd 13 97 7c 98 bf 7d ba f3 d1 53 cb d5 bf
       -0.023912773692584603 -0.34053512099391253
0007b0 2a f0 2c 48 ab 01 de 3f 2d 9e 92 4a 8f f5 d8 bf
       0.46885187195198574 -0.38998777658932476
0007c0 96 15 8e 20 33 38 c6 3f 37 cc 36 d2 67 c4 d1 bf
       0.17359007920837816 -0.27761264351574105
0007d0 28 3c 58 f3 a9 00 cc bf 47 eb 7c 63 89 ae c7 bf
       -0.2187702596861254 -0.18501393659411233
0007e0 f8 be 56 c0 aa b6 d4 bf 37 64 d7 4c 7d f7 db bf
       -0.3236491087254616 -0.43698055748024295
0007f0 6f 40 d8 cb 3b 3c d9 bf 7d 90 39 60 74 c6 d8 3f
       -0.3943013659163687 0.38711270710906104

bias_hidden1 f8 [128]
000000 9b ca f0 35 dd 5e d2 3f c8 68 bc d2 30 8a c0 bf
       0.287040045429572 -0.1292172459587333
000010 65 53 e3 52 08 96 c2 3f 4f da 63 35 32 d2 db 3f
       0.1452036289907951 0.4347043534648138
000020 3c 08 dd 61 80 46 7f 3f 6c 68 4e a2 23 7c cc 3f
       0.007635594838406642 0.22253842759238596
000030 14 7c 4d 95 32 d9 dd 3f f5 b7 cf b1 47 fc b2 3f
       0.4663816888841563 0.07416198817347193
000040 58 c1 4e b8 67 6c d2 bf f8 30 4d ac 44 9d da 3f
       -0.2878665256385111 0.415848892462932
000050 7b d7 85 4f 56 57 d1 3f 06 88 ab 2e b3 89 d2 bf
       0.27095563665294947 -0.289654536796775
000060 15 0f 9a fd fc 4c b0 3f 46 8b 11 52 df 6a b2 3f
       0.06367474738550201 0.0719432425844789
000070 8b 02 aa 49 de 94 c7 bf 6b 41 a0 cc a5 d9 ac 3f
       -0.18423060032730051 0.056348019818076654
000080 c3 f7 46 20 20 02 d2 bf 8f 3c e5 51 53 a0 ce bf
       -0.28137972976753306 -0.23926774500657585
000090 2a 3b 7f 5b 44 59 c9 3f ad e1 09 e0 ba 2e a6 3f
       0.19803671329142364 0.04332527146192731
0000a0 30 33 67 35 7b 02 b5 3f 53 04 73 09 4d fa 98 bf
       0.0820691113833163 -0.024392322255838938
0000b0 7c c4 28 85 62 aa db 3f 9c d9 62 f6 4c d8 c7 bf
       0.43227446559746574 -0.1862884715134897
0000c0 b4 9a a9 08 06 e4 d1 3f 89 1f b4 f3 7d 17 bd 3f
       0.2795424542040721 0.11363970947070191
0000d0 43 98 73 90 2c f5 da bf 24 4e 30 8d 53 07 d2 bf
       -0.42121423822971255 -0.2816971663280319
0000e0 43 6c df 33 af 93 dd bf 5e 55 bc f2 a7 b9 d4 3f
       -0.46213893953035184 0.3238315458741762
0000f0 80 7b 67 d8 b7 08 e3 bf f3 c8 14 23 df db be 3f
       -0.5948142267842371 0.12054247480844875
000100 48 4b 1f e2 17 2c d0 bf 99 78 80 8d 9e 64 b1 bf
       -0.25269124109506835 -0.06794157938608904
000110 f8 47 50 79 ff 17 d4 bf 05 54 22 7b b4 b4 b6 bf
       -0.31396471831351347 -0.08869483953670006
000120 68 2a 8c 32 72 f7 a5 3f 04 d8 69 2f 22 f1 d4 bf
       0.042903488798476996 -0.327217623045158
000130 cd 7a a0 20 9c 8b df bf 94 ef 2d a8 79 13 e2 3f
       -0.49289611040323394 0.564877346492255
000140 32 51 5f 42 19 54 ae bf f8 58 ed 5a 27 96 96 3f
       -0.05923537192544116 0.022057166027786373
000150 73 55 33 e8 7d aa c0 bf 56 9e d8 cc 70 12 d0 3f
       -0.13020299756923812 0.2511255264712181
000160 dd 56 0d 4d 7a 25 d2 bf 8a 18 ca ab 18 c9 d2 bf
       -0.28353745960826676 -0.29352394844352914
000170 9f db 26 71 99 50 d1 3f 87 9d 16 e8 fd 5a cc bf
       0.27054439592341767 -0.22152685005606207
000180 a1 27 69 85 cf 0c b2 bf 83 5d 47 c3 a3 2a d5 3f
       -0.07050797469233185 0.330727520658421
000190 3e 83 af 0d b9 27 95 3f 12 c1 b9 b8 b1 84 d8 bf
       0.02065934320478679 -0.3830990127526245
0001a0 8d 71 c7 9d ec bc d7 3f c2 77 43 7c 33 ad 9c 3f
       0.3709060231028836 0.028004459819264367
0001b0 6e 1a db b8 33 2d 96 3f b5 a8 a9 b9 9e 49 db bf
       0.02165680709620193 -0.42636840945364024
0001c0 89 00 32 81 2d 26 dd bf fe 04 5d 1c 1d 6c d3 bf
       -0.45545518509607824 -0.303473737429229
0001d0 e7 7d 61 19 38 9e e1 3f c2 10 fb a6 eb 21 cf bf
       0.5505638595313344 -0.24322267201762854
0001e0 42 fb b1 b5 a9 ae dc bf 55 ab f6 f7 78 62 df bf
       -0.448160579144247 -0.4903852864760457
0001f0 27 d7 f2 8a 8c ed db 3f f0 8d be fe 37 cf e1 3f
       0.4363738400382879 0.5565452552295351
000200 27 b6 ef f5 8a 52 8f bf f3 de e2 c1 f0 6c c6 bf
       -0.015294156675703508 -0.1751995989522964
000210 77 31 e6 d3 31 e0 c9 3f 5c dc 79 5a ca e0 bd 3f
       0.20215437742843864 0.11671127995383429
000220 30 e2 d9 c9 e8 c5 d3 bf 39 c2 18 2e f6 7f 92 bf
       -0.3089544268800948 -0.018066259921569936
000230 fc bf 60 23 16 4f c7 bf 9f dd 54 05 bb eb d3 3f
       -0.1821010277503773 0.3112628509583945
000240 b1 a3 fa 0b 59 0b d1 3f 9b 90 60 f3 1d f9 cd 3f
       0.26631761712865926 0.23416494735386525
000250 40 7d a6 06 6c 6e 3c 3f e5 f2 8e a5 51 9f b5 3f
       0.00043382775643326446 0.08446226398423169
000260 68 d6 cc 1b c4 7c e3 bf e8 e0 55 52 13 7c ba bf
       -0.608980230614816 -0.10345574150221959
000270 3e 4b 85 c4 59 3c d8 3f 7d e1 29 b1 66 a7 bd 3f
       0.3786835116526851 0.1158355886963189
000280 c4 be 43 b3 89 bf c3 3f f4 fe 28 cc fa 98 dd 3f
       0.15428277257114165 0.46246213853372287
000290 94 7a e2 1a 99 d2 ad 3f fc 38 23 ba 5c e1 d4 3f
       0.05824736073667683 0.3262550180196653
0002a0 26 13 51 73 0c 20 a5 3f 70 47 8b 21 2c 96 ac bf
       0.04126013667749921 -0.05583322438691496
0002b0 8f cd 57 2d d8 1a b2 3f 2d 52 4a cf 54 a1 93 3f
       0.07072211367613178 0.019170117523190356
0002c0 2b c5 88 4e 7f d2 d3 3f 9a 03 3a 6a a0 74 d0 3f
       0.30972273511277376 0.2571183240289031
0002d0 78 b9 6f b7 b9 8b e0 bf 92 5f 67 0b 77 92 e0 3f
       -0.5170563299887325 0.5178790304880627
0002e0 af c9 3a e4 d7 e0 b4 bf c4 dd cd f0 90 1e d2 bf
       -0.08155583688748068 -0.28311561122924567
0002f0 50 14 ee ec 0c 95 d7 bf 66 b9 58 99 07 ed b2 3f
       -0.36847231996245444 0.07392928594410861
000300 0c 73 c0 68 60 df dd 3f b5 42 da 02 74 91 df 3f
       0.46675882558501836 0.4932527568680983
000310 9a 53 73 1f de 4c b2 3f 0b 6e 34 4b 16 ce b7 3f
       0.071485407522529 0.09298838935904301
000320 90 2e ec 27 4f 74 d7 3f 4f c1 8b 09 03 3f da bf
       0.3664739503735541 -0.4100959389898166
000330 0a b3 1c 44 73 93 c4 bf c3 55 05 1c 33 29 db bf
       -0.16074982476984473 -0.4243896268502249
000340 e5 a4 98 9b 90 31 a7 3f 2f 96 b2 55 90 ef b7 3f
       0.04530002498024447 0.09349920360781348
000350 ea 9e b5 2b 9c 69 cd bf 16 b6 9f f4 8d ea cb bf
       -0.2297854627060965 -0.21809553570294388
000360 a9 f2 ca 19 92 d6 ac bf 4f 30 52 af 7a 1c ac bf
       -0.056324544571429165 -0.054904779340262715
000370 8f dc b5 17 d8 44 ce 3f 16 84 2d 9b c4 60 e1 3f
       0.23647595556005682 0.5430624991241781
000380 f1 16 dd c5 42 5e c8 3f 6a ef 42 98 b2 95 c7 bf
       0.19037661229429362 -0.18425590929643515
000390 e3 c2 0a 0b de 88 e3 bf d0 2a b1 4f ba a1 e2 3f
       -0.6104574409165163 0.5822421604619539
0003a0 6d 5a 9f a8 b7 db d4 3f 57 e7 a7 f0 a1 62 db bf
       0.3259104868606418 -0.42789505483198326
0003b0 a9 65 d7 d5 50 b7 bd 3f 55 81 ed 79 f4 f3 c7 bf
       0.11607842655884916 -0.1871324153280606
0003c0 75 6a 8c 6d 16 30 c7 3f a6 3e 94 80 65 1f d8 3f
       0.18115501736686537 0.37691628986883996
0003d0 69 03 9d b1 3a 40 db bf aa 55 ea b0 ce 28 d2 3f
       -0.42579524369289473 0.28374068524257245
0003e0 e8 26 92 6c 46 06 e4 bf c7 18 3c 4f 68 b7 bf 3f
       -0.6257660027051459 0.1238923257297727
0003f0 84 4e 22 d6 c7 22 d8 bf 2f 55 e0 af f7 d8 c4 3f
       -0.37712284003757923 0.16287132346830321

weights_hidden1_hidden2 f8 [128, 128]
000000 e6 15 de a4 d3 7d cd bf 03 07 8b d6 db 22 bc 3f
       -0.23040242719814258 0.10990690219753323
000010 8a 03 75 f8 ac 0a cc bf be 6d 77 66 97 6f d8 3f
       -0.2190757954758989 0.38181099897857596
000020 b0 c9 50 09 0d 96 c2 bf d8 e8 65 d6 75 c5 b7 3f
       -0.14520419077741797 0.09285675510719515
000030 64 39 e2 d6 e5 a9 d2 bf e3 2d 28 57 58 66 df bf
       -0.291619739386894 -0.49062164794369617
000040 bc 81 08 e8 35 11 e3 3f 12 46 7e 18 59 78 d2 3f
       0.5958508998774543 0.2885954608146629
000050 be 31 1b 0f c4 15 b7 3f 02 47 bb 10 52 7d ce bf
       0.09017587059788121 -0.23819948021860432
000060 2c 7a 55 a2 4d 28 db bf f9 30 ef c9 4a 70 ca 3f
       -0.4243349156658123 0.20655188427043195
000070 65 aa 3f c3 f6 15 c3 3f 2c a4 de 93 c5 45 c5 3f
       0.14910778554561258 0.1661917659778579
000080 e3 00 4e 86 4f 37 4c bf bd 67 f1 9e 1d 5f c3 bf
       -0.0008610857299658183 -0.15134020100486892
000090 a5 95 e2 a3 2a cf da bf 21 d4 98 63 af e8 d1 bf
       -0.4188944435539617 -0.27982697225826497
0000a0 f5 64 20 37 7a db cf bf a3 83 85 a9 63 ec da 3f
       -0.248885418812996 0.420678058193568
0000b0 82 3e 5a 44 79 95 d5 3f e9 6d 6c c7 70 fb dd bf
       0.33724815058756274 -0.46847171282726535
0000c0 66 7b 06 36 24 24 ad bf d1 67 d8 c2 59 35 ca bf
       -0.05691636237610602 -0.20475313199932413
0000d0 e5 ce 24 38 4a e4 e0 bf fc 7a 28 3c 7d 07 db bf
       -0.5278674217756502 -0.42233210444275904
0000e0 68 ad 4f f1 6c 3a b0 3f 4b 88 a8 15 91 8f 8d bf
       0.06339150325191201 -0.014433988069019096
0000f0 19 81 56 f4 86 27 d0 bf d1 f6 f6 08 af 36 d6 3f
       -0.2524125467407586 0.34708763003787363
000100 20 c0 40 3d 99 a4 b6 bf 75 90 52 8b 5f 99 b2 bf
       -0.08844907517846012 -0.07265278960636741
000110 c6 e3 70 26 68 31 d0 3f 19 e9 47 e2 fc 98 c8 bf
       0.2530155539894249 -0.19216881798622223
000120 08 bf f3 c1 98 11 d6 3f f6 4a 92 b8 46 04 c1 3f
       0.3448240179122739 0.1329430009105505
000130 b8 2f 1a 66 49 b0 bd bf 36 42 9d 6f 33 08 a6 3f
       -0.11597117178661065 0.043031318068305444
000140 06 4f 60 6e 46 02 85 bf 21 85 7e 52 02 f9 b6 3f
       -0.01025824570027779 0.08973707689303413
000150 af 24 4c 31 cd f3 e2 bf 3d 5c 35 20 48 24 d8 bf
       -0.5922609293785593 -0.37721446175914136
000160 81 74 d1 ec 16 a1 c2 bf e4 7b 28 37 67 51 d2 3f
       -0.14554106295955552 0.2862184561399188
000170 cc 4e 21 e5 eb d3 e0 bf db 54 b6 a6 76 f8 c9 bf
       -0.525869319457763 -0.2028950037025997
000180 30 bf e2 b6 88 e4 c7 3f e6 11 d7 42 0c 1a e0 bf
       0.18666180543868327 -0.5031796746703179
000190 04 dd 01 83 cb 76 d7 bf 87 be c1 7e 07 43 da bf
       -0.3666256694190937 -0.4103411424502856
0001a0 77 f4 e2 ab 38 fb b7 3f f4 07 00 9a 1c 42 d8 bf
       0.0936770839352493 -0.37903513945650436
0001b0 ff ba d7 16 9f 9d d4 bf 4c e4 8b 00 b3 22 db bf
       -0.3221204493592466 -0.4239928727470825
0001c0 2d 4c d2 ce 79 3a ba 3f c6 82 98 5d cd a2 dd 3f
       0.10245477008201993 0.46306165828904644
0001d0 58 4d 78 40 4c 12 95 3f 62 bc 67 bc c5 a5 ca 3f
       0.020577613291675817 0.20818397235368297
0001e0 e0 95 4d 51 f7 cc c7 bf 4c 39 b0 1b bc 1f bb 3f
       -0.18594256849171042 0.10595298458085728
0001f0 42 e7 d2 c2 42 28 af bf ad 00 e2 0c 49 1d d4 bf
       -0.06085404041500776 -0.3142874360855881
000200 00 0f 06 31 c6 73 dc bf fe 09 97 d2 41 82 ba bf
       -0.4445662955042593 -0.10355006591183977
000210 d8 bd 4c 66 86 38 e2 bf 56 11 d6 93 76 66 d5 bf
       -0.5694000242273729 -0.3343788570130263
000220 fa e8 a6 3a e6 11 b0 3f d5 52 a2 3a 85 a5 c3 3f
       0.06277312213834199 0.15348878252975476
000230 ad 9a aa 3b 06 01 d7 3f 4e 37 14 a3 c1 ff d0 3f
       0.359437521236411 0.26561013150864177
000240 03 09 b8 a4 36 ae e0 bf 6e e1 33 68 a5 42 cd 3f
       -0.5212662903943798 0.22859637821217
000250 f7 84 c2 cc 0e 71 ce bf 73 7b d3 b1 70 04 d5 bf
       -0.23782525060691004 -0.32839600911932293
000260 53 70 72 94 c6 1d d7 3f 6a 93 d8 23 91 af db bf
       0.36119236466197896 -0.43259075642190814
000270 61 a2 ef b8 87 0f 75 bf 2a a0 82 6a 56 ac dd 3f
       -0.005141763845110421 0.46364365006820896
000280 ae 56 2f 47 ea 6f d6 bf 13 a5 59 d3 38 4c db bf
       -0.35058075858737936 -0.4265272201506189
000290 a3 7d 9a 42 69 72 bd 3f a6 05 c7 e7 66 b4 a9 3f
       0.11502702594815743 0.05020448283495264
0002a0 cd fc 2f 96 f4 b1 d8 3f 83 67 cc 7b 4e f2 d4 3f
       0.3858615366625145 0.32728921975796527
0002b0 c7 4c bd 55 cf af 68 bf 3b 96 8b f8 72 4d d3 bf
       -0.003013520194068062 -0.30160211822508004
0002c0 7c fb 0e 5f 8b f3 c9 3f d6 54 ab a1 e7 ea ab 3f
       0.2027448858406976 0.05452655647756337
0002d0 b2 1c 17 94 b1 d6 c1 bf a0 24 73 58 84 f8 c5 3f
       -0.13936443072291166 0.171646636188858
0002e0 70 ce 92 ca 0a eb 80 3f ad ce 69 68 30 18 da bf
       0.008260807330180614 -0.40772638508426945
0002f0 5c f3 56 b1 24 61 dc bf 8f aa fc 05 4a dd ce 3f
       -0.4434291583855179 0.24112820904095542
000300 2b d5 2a 12 db f9 a7 3f d9 90 4d 34 5d 84 d4 3f
       0.046828123061838 0.3205788622638131
000310 37 50 e3 ed ff 10 db bf 86 a3 95 23 8c d7 ad 3f
       -0.4229125807880822 0.05828512129193712
000320 be 0e 78 9b 96 0b b1 3f 29 05 0e 77 36 55 db bf
       0.06658307357434531 -0.4270759737629129
000330 70 bf 24 5e 17 8f c8 bf 63 63 c9 10 d0 18 d1 3f
       -0.19186679932453954 0.26713945044826043
000340 f4 0a f3 7c b8 c4 e0 3f 0b ec ba 69 5e 38 da bf
       0.5240137520234769 -0.4096904785653243
000350 73 4d ce c1 79 cc d5 bf 1d 60 55 8a 6d 61 cb 3f
       -0.34060520101885244 0.2139107633072407
000360 fa 09 3b 7f 33 c9 b1 bf 10 86 52 46 2c 3f c7 bf
       -0.06947633606163342 -0.18161538537701505
000370 75 80 0e 71 8e 02 d4 3f d8 e4 46 75 1e 56 d6 3f
       0.31265603104294054 0.34900628521752486
000380 35 13 27 4d b3 9c d2 bf b2 7c 73 c3 cd 54 d9 3f
       -0.29081423315465155 0.39580101096175746
000390 97 00 c5 8b ea 8f b6 3f 25 a9 ed 3e cf ab 80 bf
       0.08813348686544696 -0.008140200717850885
0003a0 ed 19 d0 ff dd 3a d1 bf 25 67 8d d0 33 8c b8 bf
       -0.269217967812806 -0.09588931886301262
0003b0 1f 2f 22 26 c9 c1 b9 3f b7 a7 69 b0 1a 93 dd bf
       0.10061318570131704 -0.4621035311489509
0003c0 9f ba 75 a8 34 83 c2 3f 2c 16 17 4f 41 ea ad 3f
       0.1446290800626757 0.0584278496785767
0003d0 42 67 57 ed cf b2 cf 3f ec 3f 67 73 14 d9 b8 3f
       0.24764441574989787 0.09706237618888708
0003e0 83 9e 03 fe 7d b9 c9 3f 52 2a 6a ab 07 de cd 3f
       0.20097327139886909 0.23333831662997057
0003f0 37 bc 02 48 a1 12 d2 bf 2c 60 c6 54 26 26 72 bf
       -0.2823870852689114 -0.00443091366869201
000400 00 9f a3 8b 28 27 db bf 8a a7 92 09 47 5e d6 bf
       -0.424265037886002 -0.34950424132204516
000410 28 f6 d6 16 d5 0c 6c 3f 25 71 c0 90 05 dc af bf
       0.003424087705495866 -0.06222550765980576
000420 8e ab 2a 00 a2 11 cc bf 08 6e 50 aa cf 51 b0 bf
       -0.21928811081064875 -0.06374833972989091
000430 f2 ea cb 5a fe cb a8 bf 00 25 7f f0 81 3e cf bf
       -0.04843134744984025 -0.24409507983208556
000440 ca 1d 66 25 1e 67 cb 3f 60 6a 18 30 98 33 d5 bf
       0.21408440424077774 -0.3312740773850802
000450 b1 de 26 84 f3 3d ad 3f 8c bd ca f1 da ba cc 3f
       0.05711327541524492 0.22445236974952498
000460 62 37 35 e4 d1 47 a5 bf 07 36 3e b7 50 a5 c0 bf
       -0.041563567263991144 -0.13004502246296587
000470 a1 3b 39 21 68 0c b3 3f c1 42 5b fd 2f 52 b2 3f
       0.07440806208727092 0.07156658111058346
000480 2b 7a fd 21 53 e5 d1 3f 08 20 a4 48 9f 99 b9 bf
       0.27962187117910514 -0.10000033877815906
000490 32 a5 7a 7b 30 6d b4 3f b2 67 a6 5a 83 64 a1 bf
       0.07979109778047613 -0.03396997911040901
0004a0 fa 88 ab 90 c8 ab cc bf 4a a9 3f ac 27 2b db 3f
       -0.223992415084531 0.4245089704624162
0004b0 0b 01 c3 78 35 82 d7 bf d6 d6 09 54 ba 86 c8 3f
       -0.367322318965322 0.19161156753005198
0004c0 07 45 2c 19 ac a6 ce 3f f8 85 9e 78 a6 68 c7 bf
       0.23946143368861092 -0.18288117303477214
0004d0 ab 29 21 b7 5a 24 ce bf 39 9e 3d 70 b0 83 c1 bf
       -0.23548444692489787 -0.1368313358354827
0004e0 6b 91 56 8f 08 82 ab bf 62 30 7c 7f 4f 95 c4 3f
       -0.05372645139439921 0.16080659603938147
0004f0 0f 76 f8 5d 10 d4 a9 3f 5e ce 9b 16 87 bb dc 3f
       0.05044604441739519 0.4489457817828447
000500 ae 0e f8 73 cc 94 91 3f 9f e4 fc 63 c0 36 c2 bf
       0.01716918428247876 -0.14229588396282097
000510 8e b9 74 e7 c6 bd d1 bf b4 84 fb c0 af 64 d0 bf
       -0.2772080669700693 -0.2561454186052956
000520 c0 e4 f5 fa 95 3a 82 bf ee 42 67 ea 0d 22 d9 bf
       -0.008900806161124541 -0.3927035130591737
000530 98 8e 4a 8c 6c b9 d6 3f 1c c2 8d 3d 77 8b d9 3f
       0.3550673837691902 0.3991373158560536
000540 b9 93 79 dc 18 7b 82 bf 69 7f 55 2d 05 80 d2 bf
       -0.009023851612434674 -0.28906373431345017
000550 7d 06 9b 95 0a dd d0 3f 31 bc 63 47 50 1d b8 bf
       0.26349129304808355 -0.0941972898760788
000560 93 86 ca a7 11 dd d3 3f d0 3f a9 77 13 29 c8 3f
       0.3103679789147488 0.18875354140118228
000570 55 da d1 0a 66 83 d1 3f c1 b1 0a a7 7c a0 d0 bf
       0.27364493424048436 -0.2597953444735844
000580 94 ba 97 8c cf 0d d0 bf b7 df 1f 8d a1 12 b9 3f
       -0.2508429406142707 0.09794053740904372
000590 e7 7e ab b8 74 1e d2 bf 3a 59 07 6d ca ec b2 bf
       -0.2831088832299273 -0.07392563974221825
0005a0 54 29 78 0f cc 9e c5 3f a3 5f 32 54 a3 bc a5 bf
       0.16890860324231005 -0.04245481875221848
0005b0 ae 79 06 5b fa e6 c7 bf 26 ab 1b 0e f8 dd ce bf
       -0.18673638767809336 -0.2411489552390204
0005c0 dc b3 81 8c 55 51 b2 3f 23 ca bf be 40 a4 d1 bf
       0.07155356102312233 -0.27565020206307816
0005d0 a3 80 0f 2f 5e a1 d6 bf 8a 0a b1 84 c0 4e 92 3f
       -0.3535991153312443 0.01787854013333371
0005e0 a5 87 a7 30 2b 6d c3 bf 86 3c 9f bf 14 1a a1 bf
       -0.15176906467155252 -0.03340210761199906
0005f0 00 29 0f c4 22 ed 80 bf 9a ca f9 b5 1b 29 d2 3f
       -0.008264800651791138 0.2837590481860076
000600 54 2e 0a 5f 80 21 c5 3f 11 c4 89 6b cc 4c d7 3f
       0.16508488312352887 0.36406240941784157
000610 19 22 a1 76 df 03 8e bf a9 ef 3c 71 8b 9b a6 3f
       -0.014655824477942269 0.04415546185779757
000620 7b a6 7f c6 69 f1 e0 3f ef 73 36 a0 b0 5d 9b bf
       0.5294693829466292 -0.026724586275680137
000630 81 7b 63 7a 5c 0d 98 bf 34 2c 32 e0 a1 a0 98 3f
       -0.023488469095237278 0.024050263699376198
000640 8b 4a e1 a0 a2 21 d4 3f 18 df bd 08 74 43 b8 bf
       0.31455293379728094 -0.09477925504131368
000650 1a ff 68 a6 67 62 be 3f 56 ad cf b0 d0 80 bc bf
       0.11868903935191746 -0.11134056393318778
000660 8a 41 27 27 ad c5 dc bf 88 1e 48 8a eb a1 e4 3f
       -0.4495652086598275 0.644765634614445
000670 ed 78 36 1d 66 27 ab bf 85 a3 97 ba 0b 00 b8 3f
       -0.05303496462441779 0.09375069909550689
000680 36 41 e9 2b e8 4f cc bf 45 35 14 2b 19 b8 d3 bf
       -0.22118856567477402 -0.30811146933486483
000690 b2 ae 74 9b cd d5 ab 3f 91 e2 27 28 7f ca bb bf
       0.054365563608681625 -0.10855860453001244
0006a0 a6 4a 3a 4e 3d 14 cd 3f 6a 11 ac 55 be c4 d2 bf
       0.2271801597567748 -0.29325826994342796
0006b0 00 f4 40 93 3c 9b d9 bf 33 05 34 04 9a df b5 bf
       -0.40009989147421265 -0.08544314005486768
0006c0 e7 4c 85 1c d6 b9 d2 bf 1c 16 80 24 e2 4d e1 bf
       -0.29259255204415385 -0.5407572472474302
0006d0 21 63 4a 9e bf ad d4 bf 14 5c ef ec 68 0b ba 3f
       -0.3231047673994443 0.1017366007284724
0006e0 bd 73 59 be 6e 74 dd 3f 7a 36 be 99 2a c1 d6 bf
       0.4602314814454152 -0.3555399419209163
0006f0 26 8e e8 d6 f7 4b d1 3f 0b b7 1b 69 c8 33 da bf
       0.2702617262568502 -0.40941057457426727
000700 87 ca 43 4d 12 c9 ce 3f a5 48 ba 46 9c a4 c9 bf
       0.24051121494956737 -0.20033601239680823
000710 e6 ac d3 2b 62 73 d0 bf 41 b2 01 40 6e 69 cd 3f
       -0.2570424488064432 0.22977998853038353
000720 30 3b eb e0 4f 19 e2 bf 44 28 ee 81 f9 37 d3 bf
       -0.5655898468920437 -0.3002914208269696
000730 dd eb b9 a8 04 e8 c5 3f f6 ba ad f3 9c 23 c7 3f
       0.17114313353144342 0.18077432535525134
000740 39 db 92 6d 34 e8 e2 bf 20 c4 7a 27 5a b1 b0 3f
       -0.5908453121290683 0.06520617927414252
000750 88 c8 44 c8 02 ef e2 bf e5 a6 ce 8f c5 2f de 3f
       -0.5916761313913108 0.4716657547347565
000760 b4 7b 8d 8d a0 39 d5 3f 3f b5 87 b0 9f 85 e5 bf
       0.3316422827101022 -0.6725614974836062
000770 1e 7e 9f 10 cc bd d8 bf 91 9a 5c 60 f3 90 aa 3f
       -0.3865842974027788 0.05188713599482243
000780 49 75 3a 3f 74 e4 d4 bf c4 52 0f 14 f6 64 d4 bf
       -0.3264437310661675 -0.31866218527765633
000790 d7 6a c2 f0 4e 14 dc 3f 7e 20 a5 45 5e b5 7d 3f
       0.438739523998874 0.007253044367026116
0007a0 cb 55 84 15 53 a7 d6 3f ff ea 38 eb 27 dc d1 bf
       0.3539626798750219 -0.2790622517674563
0007b0 46 8a c2 f3 cf bc e6 3f d6 19 56 11 d1 9c cd bf
       0.710548378079985 -0.23134816500187466
0007c0 c7 b5 57 bd de af c8 bf c4 6d 1b b2 70 49 c1 bf
       -0.19286712880368226 -0.13505371758115647
0007d0 6e ce 50 7c b2 85 88 3f 28 8a d3 66 99 7c df 3f
       0.011973757189571912 0.491979933182082
0007e0 7d de c0 ed 9a 1a b0 bf d2 de 11 ce 0e 73 97 3f
       -0.06290596298719638 0.022899848296644994
0007f0 14 6b 6f 5f a7 8b a6 bf f7 a7 df 57 f7 3a a5 bf
       -0.044034223937805234 -0.041465501286282284

bias_hidden2 f8 [128]
000000 e7 9c db 13 5e 0b d9 bf e9 c7 aa 20 a9 3c d9 3f
       -0.39131881655926154 0.39432743253848784
000010 0d b8 72 01 ce 65 b8 3f 02 f2 5e a8 86 7c d0 bf
       0.09530341658930315 -0.2576004642722013
000020 b3 66 e6 1d cc 8c d9 3f 44 3c e5 67 d9 eb ba 3f
       0.39921858711168595 0.10516127382764845
000030 0e 31 98 98 f4 85 d5 bf ec f3 0b 8d 1b e4 c6 3f
       -0.336300992029252 0.17883629214330143
000040 53 32 4c 54 9d ac ae 3f a2 7f 7a 37 ef f2 d5 bf
       0.059910694637527094 -0.34295254152129406
000050 40 d0 ce 83 25 8f c8 bf 31 f4 aa 98 e5 74 bd 3f
       -0.19186848579340854 0.11506495454064304
000060 02 f2 61 cd 87 db da bf 7f 89 3f f0 ad 4d db bf
       -0.4196490770043796 -0.4266161771939991
000070 53 ab 69 7e 2d 97 ad bf 5e db 14 ce 9a 11 a9 bf
       -0.05779401939510955 -0.04896243825571987
000080 db 80 d0 6d 17 30 da 3f 79 ad 51 ac 33 5b d0 bf
       0.4091852734000107 -0.2555665190509085
000090 d6 d0 c8 f2 71 3e d2 3f e9 09 f9 d8 7a 88 bd bf
       0.28506134709756503 -0.11536376759708102
0000a0 d7 0e f9 94 6b 4b ce bf f8 f0 ca bf 12 e3 b3 bf
       -0.23667664312426126 -0.07768361265602042
0000b0 f9 c2 64 ac 52 b0 d2 3f a8 1c e7 48 18 8c b7 bf
       0.29201189837753777 -0.09198142795422604
0000c0 29 f5 d0 18 54 92 d4 3f 49 d3 6a 99 29 b3 d5 bf
       0.32143118308506985 -0.3390602110114754
0000d0 00 c1 45 9e b3 06 c2 3f 56 58 74 e6 5c 1b b2 bf
       0.1408295176329446 -0.0707300245888701
0000e0 ce 52 89 b3 a4 0c c6 3f d3 22 54 19 4e f6 d0 bf
       0.17226084486414667 -0.2650332686758194
0000f0 26 86 1a 6c 34 22 d7 bf 8e 18 e0 1b 1c 66 db bf
       -0.36146269375794515 -0.42810728761868055
000100 a6 82 c5 54 36 42 96 bf 0f 4d 8e af 09 d3 dd bf
       -0.021736954616587888 -0.46600572723510053
000110 3e ff 19 0b 9e a0 d5 bf bd 6a d0 ff c7 89 c9 bf
       -0.33792830547462305 -0.19951724997448209
000120 1c c1 68 50 b9 71 d3 3f e4 f3 15 f6 5f 44 b4 bf
       0.3038161549802838 -0.07916831739380786
000130 6c e4 25 d3 24 d1 a5 bf 5b fd e4 75 6f 76 d4 3f
       -0.04261126592150152 0.31972872269758107
000140 30 b4 82 49 50 c3 d1 3f 63 ab 55 1c 5e 0b b6 3f
       0.27754599741712394 0.08611095611347035
000150 80 5a 6f 1d 69 58 b0 bf d7 c5 e0 c2 a7 15 da bf
       -0.06384903877856551 -0.40757173567825816
000160 45 c4 dd e6 86 ce b3 3f 27 33 2f 89 c3 7b cb 3f
       0.07737010132201856 0.21471447180228972
000170 ce 4b d9 c5 c5 a0 cc bf 16 4c 5b 5d 64 f1 cb 3f
       -0.22365638886057443 0.21830420072964846
000180 51 b4 e0 41 83 5a d8 3f 7f 51 d7 3f 8a 47 ce bf
       0.38052445824979936 -0.2365582286571559
000190 d7 9b c4 f0 c9 70 c6 bf ae 1b c4 ad e0 43 e0 3f
       -0.1753170419335379 0.5082858461254227
0001a0 3e cb b7 ff 35 55 dd 3f f5 a8 0c 9f 69 63 d1 bf
       0.4583258626218373 -0.2716926625459018
0001b0 99 47 8b f3 b6 29 c4 bf a4 ab 5e 7e f0 0f ab 3f
       -0.15752303020286432 0.05285598318672349
0001c0 33 03 12 67 6a 24 da bf 8c 7f 0b 81 ad eb c2 bf
       -0.40847263398613903 -0.1478173141576885
0001d0 b7 91 93 80 6e 71 d1 bf 30 33 6b 74 91 8c da bf
       -0.27254831844609434 -0.41482960099237953
0001e0 9d 03 f1 56 36 88 d8 3f 32 3d 7e e6 f3 9d d5 3f
       0.38331373682381714 0.3377656699094188
0001f0 dc 39 10 85 86 01 c6 bf d7 4f ca a8 60 42 ab 3f
       -0.17192155358539096 0.053240795711786575
000200 51 14 6d e6 3c bd dd 3f ee 80 b5 89 69 7c bc 3f
       0.46467516424701666 0.11127338039432619
000210 64 87 2e 7a 4a a4 bf bf ff 96 7a 37 fe 10 d8 3f
       -0.12360063059761967 0.3760371724878126
000220 5d 2e 45 cc 38 0d 6d 3f 7f 11 27 3b 90 cd 7e bf
       0.003546343739946596 -0.0075202592874500365
000230 a4 6b 97 41 f6 eb d5 bf 3c d7 3a 4e aa 86 ad 3f
       -0.3425269737760408 0.05766803936914619
000240 5e 93 88 21 02 3e e0 bf 74 55 2c ce 93 85 d3 bf
       -0.507569375510325 -0.30502791532611373
000250 1c 48 8b 4d 6a a9 d3 3f 48 04 80 49 4b 8b e0 bf
       0.3072152859941768 -0.5170036731289054
000260 90 69 9c 02 04 65 e0 3f 05 24 4d 14 70 24 e2 3f
       0.5123310137744728 0.5669479748258942
000270 85 02 1d 1c 45 ba b6 bf 83 61 10 d3 55 1c de bf
       -0.08877975403175682 -0.47047944652288026
000280 bd 81 ce cc 36 5f d5 3f 93 46 19 90 97 2c cc 3f
       0.33393640518809403 0.22011084114142374
000290 db d7 0e 31 ac a4 c3 3f c3 5e a5 ab 88 a4 b4 bf
       0.1534629096547054 -0.0806355876023828
0002a0 58 b2 4d 31 ad 35 cf bf dc b8 aa 33 21 74 d9 3f
       -0.24382557780644976 0.39771299405664506
0002b0 00 fc 4c ee 1d 59 b2 3f 7b af b4 62 47 d1 d5 3f
       0.07167231624497106 0.34089836730230844
0002c0 cc b3 d4 3f 68 bf b9 bf 3b b9 1f 9b 77 98 d0 3f
       -0.10057689245577633 0.2593058600313218
0002d0 69 ad 91 41 c7 85 b3 3f 57 c0 50 26 63 52 c4 3f
       0.07626004553610745 0.15876426096793025
0002e0 b5 43 6e dc b9 55 e1 bf 2d 3f eb 84 5b d7 cf 3f
       -0.5417146020209801 0.24875968923742545
0002f0 b0 03 18 d9 b0 55 b6 bf c4 5f 2a bd 75 f2 db bf
       -0.08724503803388362 -0.4366735789603775
000300 86 f6 63 f4 72 e7 e0 3f b9 a9 1c b2 16 4e c4 bf
       0.528253056836278 -0.1586330766379669
000310 0f 82 9a 90 d7 74 ce bf 2c 91 e8 c7 f2 4d ca bf
       -0.23794073639602728 -0.2055037952533295
000320 ec 91 26 79 02 34 cc 3f cf 9a 8f fc c3 5e d9 3f
       0.2203372088962533 0.39640903152614454
000330 91 cc 1b 41 4b 8e d1 bf d5 0b 43 35 fe 6a d8 bf
       -0.27430993421803246 -0.381530334485601
000340 76 ef b9 17 20 48 d1 bf 7f 19 f4 56 86 a1 a5 3f
       -0.2700271827413795 0.04224796115345252
000350 f9 62 28 0e ed 6f c6 bf 61 18 f0 30 7e 46 c9 bf
       -0.17529071036621938 -0.19746377362770587
000360 8d 75 28 2f 91 35 dd bf 07 01 a6 d5 34 56 af 3f
       -0.4563944778945704 0.061204577522405094
000370 83 f1 51 7b 87 7a 99 3f 81 2c 4d 91 ee 6e d8 bf
       0.024881474401341485 -0.3817707461318563
000380 42 a2 2e 64 66 ca d6 3f 47 27 b2 b4 2c 43 d5 bf
       0.35610351355947867 -0.3322250141724123
000390 9b ce 14 4e be 01 b3 3f 87 9d 3a 5d 86 34 c0 3f
       0.07424535185128393 0.1266029315204202
0003a0 4e c5 4b 6d 41 32 c1 3f f7 07 fa b1 d5 27 d5 bf
       0.13434617840497726 -0.33055632000480223
0003b0 4d 48 18 99 cf 18 d1 3f 3d 05 ce 0b 15 93 6f bf
       0.2671393389765669 -0.0038543139511949807
0003c0 8f b3 48 c9 95 40 c3 3f d3 0d 2c 60 78 b9 d5 3f
       0.1504084809143049 0.33944520370297687
0003d0 9e fa 13 b1 c6 7b dc 3f b6 59 f7 c8 20 eb de 3f
       0.4450546960141909 0.4831010782776518
0003e0 d9 08 bc 2c 8f 4d af 3f 00 38 54 37 82 8f cc bf
       0.06113860531879007 -0.22312953664408042
0003f0 a3 ae b6 58 63 9e d3 3f 56 b2 78 ae 5b b3 c7 3f
       0.3065422407478115 0.185161075774334
